jarvis_voice_cache/b062b6c8d08d1301.npy (npy, 101568 bytes, 1 tensors)

array f4 [25360]
00000000: 6fe4 cbb8 7e65 03bb c85d c6ba 702c 0d3b
00000010: a978 fd39 ed68 b639 af10 88ba 82a6 633a
00000020: 6acf d7b8 f1e3 b239 46af 713a 4455 2fba
00000030: 8a5f caba 8802 1438 4168 8d39 eebf f63a
00000040: 7841 11b9 2d59 dcba 6ece 35bb 2cac 50bb
00000050: 5e6a 70bb afb5 813a 3d9c d43a 1f1b 0eb9
00000060: 119c d63b ef4e 07ba 1ace 1f3b a5b6 fe39
00000070: d201 adba 63e7 73bb 9217 36bb bec6 efb9
00000080: 7a91 a239 3be0 5b3b ca0f f63a 7573 0c3b
00000090: 5b1a 51bb 305b 523a 4827 65ba a594 c53a
000000a0: fd6e 833a 1de8 5fba f7d0 7638 83aa 6dba
000000b0: 85ed e43a 38e0 3bba 2dfc 34ba 86a3 e7ba
000000c0: 6289 3dba 8fec 46ba 2882 073b 014f e83a
000000d0: 1daf 183a 0429 313a a8cd 4fb9 43d5 8f3b
000000e0: 9075 9f3b b387 353b 917c 303b 7fc1 74bb
000000f0: 28c7 39bb 92fe a5bb 36c9 bdbb 1d31 efba
00000100: f78b 85ba eb3f 5c3b 7fae 9c3b ba41 dc3a
00000110: 8bcb d0ba c602 3f3a a563 59bb c563 92ba
00000120: f574 173b 0cad 7339 c923 0dbb 53c1 d7ba
00000130: 6ff8 4439 5cd5 0abb 1430 a5ba 500a f7b7
00000140: f4b5 39bb 5bf1 fdba 70b2 253a d902 2c3b
00000150: a315 0b3a 66e0 863a 0d45 353b 78f0 4e39
00000160: 9bf8 993a 4e20 21bb d509 30bb 40fd 7dbb
00000170: 899d 2f3a a453 4439 1443 fd39 2b28 02bb
00000180: 2536 81bb b7b1 8b3b c537 693b 0aa8 473c
00000190: 3723 bf3b ff0c 2f3b 6d21 3cbb 1ff1 9cbb
000001a0: ae11 9ebb dbfe 1cbc 70d5 cabb 6648 6fbb
000001b0: 0b2b 473a eb0b 193b 907b d93b 5516 353a
000001c0: bf92 393b 89ac 4c3b 2da2 ebba 1f32 2dba
000001d0: b30d b8bb 3413 54bb 7ad2 0fbb 490f 44bb
000001e0: b380 8cb7 c055 0fbb f2b8 c1ba fc69 3a3b
000001f0: b1aa 283b 8228 423c 48cc 61ba af50 8b3b
00000200: 095c a63a 4201 183b 682c 64bb 859b fcbb
00000210: 73fc 05bb 614d afbb dc3d 143b a69d 2a3b
00000220: 275c e73b a80b 8eba 944f 32b9 627c a33b
00000230: d6bb 6a3b 653b b93a 0399 3c39 b8e3 8bbb
00000240: 25ef 18bc 2747 5f39 262a 453b 6106 b33a
00000250: 0552 c93a 775b 0a3c 28ec f23a 0fa2 4e3b
00000260: ba61 c2ba 9a74 f13a 707b 093a 5cbd 88bb
00000270: ac97 c53b 5ab9 b6bb 0832 653b 45b1 de3a
00000280: 2dbc 25bb 7575 823b 393a 073b f645 7b3b
00000290: 2fac 8bbb d5b1 5fbb 3bda 92bb 7ff0 e7bb
000002a0: e04f abbb e6dd 38ba 4e41 10ba e428 013b
000002b0: eb30 b33b f879 8039 f710 ae3a 6978 a6bb
000002c0: 6b71 bebb cf47 15bb 5afc e0ba b1ac 323b
000002d0: f10f 873a 4673 8aba ea6d 8b3b 26d4 843a
000002e0: 1da5 95ba 6dda 48ba 4d86 f0bb 95d8 21bb
000002f0: 84b2 563b 0d99 1c3b b798 073b e0c6 4c39
00000300: 1529 87ba 466d c13b 9176 d33a 02e7 873b
00000310: d73a c93b 6966 81bb ec6e efba 8c8c 6cbb
00000320: d475 79bb 1941 ddbb de18 deba da3a e9b9
00000330: 8d31 923a fe6a 3b3b 57f1 163c 8ab0 0a3c
00000340: 564d c1bb aa51 903b 49da fcba c1c0 36bc
00000350: ced0 d3b9 1d77 cfba 7fd5 83ba 8a54 2bbb
00000360: 55e4 56bb 9187 34ba e2e1 c5bb 3735 8839
00000370: 18df b2bb d5a1 123c aefd 3b3b 9e97 693b
00000380: 3fe7 023c d445 22ba b4d1 923a a823 0fbc
00000390: a212 2eba cb75 25bc 1644 a7bb 3edb 823b
000003a0: f5c9 013c add8 cf3b aa2d 1f3c 1d67 9b3b
000003b0: 4493 973b e04f a5ba d435 82bb a48b d63b
000003c0: 308f a53a 0108 5e3b de01 6a3b 6dac 37bc
000003d0: 4fd4 0cbc 8029 9abb 2d58 4f3b 1870 db3a
000003e0: 7504 ee3b a7de 913b a207 9f3b 41b3 a33b
000003f0: 59fb 9e3b e833 2c3c fd31 b4ba 11fc 79bb
-9.7223434e-05 -0.0020049508 -0.001513415 0.002154138 0.0004834582 0.0003479192 -0.0010380949 0.00086841744
-0.00010290633 0.00034120635 0.0009219538 -0.0006688426 -0.001543985 3.5288307e-05 0.0002697129 0.001882551
-0.00013852667 -0.0016811244 -0.002774145 -0.0031840904 -0.0036684494 0.0009896065 0.0016220879 -0.00013552279
0.0065493663 -0.00051616033 0.002438432 0.00048582736 -0.0013199395 -0.0037216775 -0.0027785045 -0.00045733707
0.00031007436 0.00335504 0.0018773016 0.0021431122 -0.0031906578 0.0008024452 -0.000874151 0.0015074207
0.0010027584 -0.00085413625 5.8845584e-05 -0.0009066241 0.0017465806 -0.0007166895 -0.0006904032 -0.0017672635
-0.00072302495 -0.00075883506 0.0020676944 0.001772374 0.0005824434 0.0006758126 -0.00019817671 0.0043894364
0.0048663095 0.0027699291 0.0026929716 -0.0037346778 -0.0028347466 -0.0050657475 -0.0057918085 -0.001824889
-0.0010188808 0.0033607434 0.0047815437 0.0016804256 -0.0015929801 0.0007286485 -0.0033170965 -0.001116865
0.0023110483 0.00023238751 -0.0021536222 -0.0016460813 0.00018784565 -0.00211843 -0.0012602829 -2.9449497e-05
-0.0028337212 -0.0019374298 0.000632084 0.0026246815 0.00053056533 0.0010290265 0.0027659566 0.00019735273
0.0011747064 -0.0024585905 -0.002686133 -0.0038755685 0.0006699195 0.00018723175 0.00048305898 -0.0019860368
-0.003943222 0.0042631286 0.003558622 0.01218606 0.0058330554 0.0026710627 -0.0028706447 -0.004789486
-0.004823885 -0.009582247 -0.0061899945 -0.0036511659 0.00075976615 0.002335305 0.0066370443 0.000690793
0.0028316227 0.0031230769 -0.0017977409 -0.0006606895 -0.0056168674 -0.0032360079 -0.0021945522 -0.0029916337
-1.674923e-05 -0.002187118 -0.001477985 0.002844452 0.0025736506 0.011850478 -0.0008613509 0.0042515616
0.0012692224 0.002319411 -0.0034816507 -0.007708969 -0.002044466 -0.0053498005 0.002261988 0.0026033907
0.007060546 -0.0010837214 -0.00017005048 0.004989193 0.0035817525 0.0014132081 0.00017986078 -0.0042690895
-0.00933436 0.00021293444 0.0030084937 0.0013658517 0.0015359527 0.0084446585 0.0018533515 0.00315297
-0.001483015 0.0018421591 0.0005244529 -0.004172964 0.0060300436 -0.005576295 0.0034972448 0.0016990086
-0.0025289163 0.003981287 0.0020634069 0.003834126 -0.0042624692 -0.0034133096 -0.0044815815 -0.00707823
-0.0052280277 -0.00070521084 -0.0005502895 0.001970821 0.005468478 0.00024504936 0.0013280202 -0.005080272
-0.0058118603 -0.0022778397 -0.001716505 0.0027263577 0.0010304434 -0.0010562919 0.004255046 0.0010134026
-0.0011417005 -0.00076619425 -0.0073402287 -0.0024695743 0.0032760212 0.0023894936 0.002069039 0.00019529043
-0.0010311926 0.005902919 0.0016133358 0.0041474113 0.0061410475 -0.003948976 -0.001826731 -0.0036094515
-0.0038064616 -0.006752145 -0.0016944667 -0.0004448507 0.0011153683 0.0028597708 0.009212813 0.008464942
-0.0058991117 0.0044042664 -0.0019291128 -0.011154355 -0.00040400628 -0.0015828345 -0.0010058134 -0.0026142919
-0.0032789905 -0.0006886656 -0.00603889 0.0002597959 -0.0054587238 0.008949717 0.002868514 0.003564335
0.007989704 -0.0006190215 0.0011201412 -0.008736528 -0.000664035 -0.010098885 -0.005104552 0.003993421
0.007921685 0.0063429684 0.009715477 0.0047425167 0.0046257097 -0.0012612306 -0.003973702 0.006547408
0.0012631174 0.0033879282 0.003570668 -0.011210543 -0.00859554 -0.004704654 0.003163825 0.001674178
0.007263715 0.004451591 0.004853205 0.004995734 0.0048517403 0.010510422 -0.0013747808 -0.0038144628
