jarvis_voice_cache/b0aa4949f1033cd8.npy (npy, 209088 bytes, 1 tensors)

array f4 [52240]
00000000: 70ad 203a 1b06 4d39 614c 7eb9 0048 8c39
00000010: f8bb aeba 54ad b0ba 727f 8aba f138 1635
00000020: d0df 92b8 ea44 853a 8c58 4c3a 24b1 d939
00000030: 9a57 063a 4b73 443a 820a d139 9b5d 0139
00000040: 22e5 cab8 677e 00ba f05a f538 b6d9 a4ba
00000050: 4ffe cfba 959f 3939 745e 8fba 888b 00b9
00000060: e394 dd3a f83a 883a 902c 413b 94e7 a53b
00000070: 9f58 ad3b 95e3 7f3b 5339 e93b b336 bf3b
00000080: a388 803b 54c9 823b 9041 853b 155a ca3b
00000090: 10b5 023c bc4f f03b 1934 343c 8fe2 f53b
000000a0: 2491 713b 8036 c63b 2929 383b 1ded 903a
000000b0: 99df a5b9 6500 a6ba 4351 4bbb b3f2 38bb
000000c0: 9b28 44bb 6157 20bb 1a6b 0bbb cfa7 d6ba
000000d0: d657 85ba ee25 ecb9 ae9c 0fb7 2a17 08ba
000000e0: 84b3 653a 765a 19b9 fd0c 50ba 0476 10bb
000000f0: f611 71bb 806f a0bb 05ba c5bb 33d7 d6bb
00000100: dfc6 dabb 5db4 dbbb 3bed bdbb cc56 a9bb
00000110: e649 89bb 0fcd 37bb 9643 deba b682 9aba
00000120: ef85 28ba b01e 1fba 9253 93ba fc6c a6ba
00000130: f3fa e6ba b29d 10bb 0a4f 26bb 79c8 1ebb
00000140: a194 20bb f299 1bbb bdfc 10bb f934 84ba
00000150: 1ac7 bd39 b81a 703a 1e21 fc3a 206d 323b
00000160: 32be 373b 6c09 0d3b c4c4 033b 1b82 1a3b
00000170: ff6e 1e3b f02c ac3a 1cc7 59ba 0cfd 10bb
00000180: 7556 05bb c1e9 c5ba 5c84 1b3a c2d7 dd3a
00000190: 3b74 183b 48ed 3d3b 6981 093b efdb 8e3b
000001a0: 1deb fc3b 2acd 023c 1460 bc3b f952 813a
000001b0: 89df 82ba 350f 9e39 2fde 65ba 1861 a6b9
000001c0: f383 073b ed0a b439 ec47 04bb d9e3 d6bb
000001d0: f288 4abc 7a34 65bc 5989 1cbc 92ea adb8
000001e0: 885c d83a 56cc 30b9 b162 35bb 3561 4fba
000001f0: 5cdc 8a3b ff71 3c3c fad7 873c 5519 673c
00000200: 8254 db3b f52e 6d3b ea00 303b 7d21 ed39
00000210: 0a82 33ba f83e 63bb f6ab dbbb a7b7 18bc
00000220: fe23 5ebc bfd2 54bc 0f52 eebb a42c 4d3b
00000230: 7501 473c 19b7 7d3c 722e 3e3c f8d2 2a3c
00000240: 16d3 de3b 9a2a c53b c66e 043c 12b6 8e3b
00000250: 2c6e 82ba da2e d2bb 3f85 48bc 6039 68bc
00000260: 4461 46bc 5bb2 0dbc 4f50 8dbb 6348 52bb
00000270: 3104 10bc 5103 69bc 3770 53bc 2654 f1bb
00000280: 5d99 9cbb 16f0 933b 4cf4 0c3c 27af 623b
00000290: 6d9c d03a f6c5 bf3b d5e9 193c 7e22 eb3b
000002a0: 79aa d53b 7e41 8039 81ad 13bc bcf7 6abc
000002b0: 99b4 89bc 6f4c 75bc bc5e 39bc 8e57 61bb
000002c0: 0b4e 0d3b f462 f53a be82 c83b 92a7 073c
000002d0: b9a1 053c 1040 483c e2ea 853c 0d10 453c
000002e0: 0cf2 5e3b 31de 53bb bb01 17bc 2522 3ebc
000002f0: 7521 6ebc d2c7 55bc a7c8 40bc fa82 79bc
00000300: f7fb 74bc 6673 75bb 6fb5 083c 044f 833c
00000310: 2424 b93c e05e bb3c aa13 b13c 91eb 8f3c
00000320: e825 2b3c 9488 9f3b 400b 2cbb 31a3 15bc
00000330: 115c 85bc 70db bbbc 63af cdbc 2144 b0bc
00000340: ddc9 83bc 9a8f 05bc 9e5e 773a 9a26 873b
00000350: 2e54 0f3c 3876 5a3c 148a 553c cd49 573c
00000360: 7aad 423c 162c 993b dd9d 2fbb 55a2 c7bb
00000370: aefe 2bbc 4b53 8cbc b03d bfbc ec76 d4bc
00000380: f11f 9ebc 0d16 a0bc 5081 babc d69a 87bc
00000390: cf8c 41bc 7e71 f4bb 1ed4 96bb 66c5 f53a
000003a0: 6971 443b 7e61 553b bd2d 583b de16 0d3c
000003b0: 7cf2 1f3c 2adf b83b f26d 2f3a d4ef e4b9
000003c0: 781c a5bb 7480 35bc b9d9 25bc b7ca 30bc
000003d0: f0ac fbbb b27a 29bb 53dc af3a 0b0c 20bb
000003e0: c167 113a 4e86 ec3b d53f 3f3c f2f8 813c
000003f0: 1cb9 703c 3d6e 2a3c 278c e63b f83b 263c
0.000612936 0.00019552598 -0.00024251781 0.00026756525 -0.0013331166 -0.001347939 -0.0010566546 5.5962215e-07
-7.003511e-05 0.0010167633 0.0007795177 0.00041521445 0.0005124748 0.00074939866 0.00039871415 0.0001233727
-9.67479e-05 -0.0004901648 0.00011699449 -0.001257709 -0.0015868637 0.00017702424 -0.0010938183 -0.0001225901
0.0016905334 0.0010393551 0.0029476024 0.0050630067 0.0052901055 0.0039045562 0.0071174293 0.005835378
0.0039225384 0.0039912853 0.0040666535 0.0061752894 0.007977739 0.007333724 0.010998749 0.0075038145
0.0036860192 0.0060489774 0.0028100705 0.0011056993 -0.00031637846 -0.0012664913 -0.0031023778 -0.0028220832
-0.002993143 -0.0024466144 -0.0021273554 -0.0016376915 -0.0010173272 -0.00045041688 -8.559944e-06 -0.000519144
0.00087624067 -0.00014624916 -0.0007936506 -0.0022043 -0.0036784387 -0.0048961043 -0.006034138 -0.0065564155
-0.0066765393 -0.0067048506 -0.0057961023 -0.0051678177 -0.0041897176 -0.0028045808 -0.0016957398 -0.0011788222
-0.0006428649 -0.00060699414 -0.0011240116 -0.0012697275 -0.0017622396 -0.002206665 -0.00253767 -0.0024228378
-0.0024502652 -0.0023742882 -0.00221233 -0.0010086588 0.0003619723 0.0009159255 0.0019235944 0.0027225688
0.002803695 0.0021520508 0.0020106295 0.0023576084 0.0024175046 0.0013135951 -0.00083075627 -0.0022123484
-0.0020345722 -0.0015099571 0.0005932504 0.0016925263 0.0023262638 0.0028980542 0.0020981675 0.004359714
0.0077184574 0.007983485 0.005748758 0.0009866647 -0.0009984832 0.00030147439 -0.00087687647 -0.00031734328
0.0020678013 0.00034340416 -0.002018447 -0.0065579233 -0.012361752 -0.013989562 -0.009554231 -8.292975e-05
0.0016507069 -0.00016860789 -0.0027677233 -0.00079109083 0.0042376947 0.011501788 0.016582478 0.014105161
0.0066934237 0.0036191319 0.0026856014 0.00045229113 -0.00068476854 -0.0034674983 -0.006703849 -0.00932113
-0.013558386 -0.012989699 -0.0072729657 0.0031307125 0.0121463435 0.015485548 0.011607753 0.010426275
0.0068000657 0.0060170414 0.008083051 0.0043552006 -0.0009951047 -0.0064142765 -0.0122388 -0.0141738355
-0.012108151 -0.00864848 -0.004312552 -0.0032086603 -0.008790062 -0.014221982 -0.012905172 -0.0073647676
-0.0047790245 0.0045147045 0.008603167 0.0034589262 0.0015915759 0.005852456 0.009394129 0.0071757426
0.006520566 0.00024462858 -0.0090135345 -0.014341291 -0.016809748 -0.0149718365 -0.01131409 -0.0034384462
0.002156141 0.0018721507 0.0061191013 0.008279698 0.0081562335 0.012222305 0.016347352 0.012027753
0.0034018783 -0.0032328481 -0.009216721 -0.01160482 -0.014534344 -0.013048129 -0.011766589 -0.015228981
-0.014952651 -0.0037452816 0.008344038 0.016028889 0.022600241 0.022872388 0.021615822 0.017568382
0.010446049 0.0048685763 -0.0026251823 -0.009133146 -0.016279252 -0.022931784 -0.025108045 -0.021516861
-0.016087467 -0.008151913 0.00094364013 0.0041244747 0.008748097 0.01333385 0.013033409 0.013140154
0.01188218 0.004674445 -0.0026796975 -0.0060923495 -0.010497732 -0.017129561 -0.023344845 -0.025935613
-0.01930234 -0.019541765 -0.02276674 -0.016553324 -0.011813357 -0.0074598184 -0.004602923 0.0018750846
0.0029974824 0.003255933 0.0032986247 0.008611409 0.009762403 0.0056418376 0.00066921033 -0.00043666235
-0.005038794 -0.011077989 -0.01012271 -0.0107905185 -0.007680528 -0.0025860486 0.0013417102 -0.002442124
0.00055467716 0.007218159 0.011672934 0.015865777 0.014692571 0.010402259 0.0070357504 0.010146134
