jarvis_voice_cache/b106d5c68c26ea9b.npy (npy, 195776 bytes, 1 tensors)

array f4 [48912]
0.000760158 0.00033502176 4.7352405e-05 0.00021588684 -0.0001512832 0.00014636319 1.0783498e-05 -0.00011960014
1.1500042e-05 2.8546661e-05 3.582779e-05 -5.1552437e-05 -4.287655e-05 -2.2663426e-06 -1.5129424e-06 2.7836059e-05
1.890875e-05 1.1164878e-05 3.570075e-05 1.4275683e-05 3.2564025e-05 3.8862803e-05 -7.78195e-06 -5.6516663e-05
-8.311163e-05 -8.441473e-05 -7.751673e-05 1.9244688e-05 1.3193161e-05 7.451619e-05 9.3903014e-05 9.1891336e-05
4.6924713e-05 0.000102334416 9.6023636e-05 0.00011652519 2.0538173e-05 1.2853604e-05 1.5735105e-06 6.354538e-05
7.357642e-05 0.000156452 0.00011822944 0.00011257668 2.4287832e-05 3.5508623e-05 5.716092e-05 0.00010021295
4.4647226e-05 1.5216849e-05 1.4166652e-05 8.2196224e-05 0.0001006667 0.00016831444 0.00021557725 0.00023207453
0.00022743642 0.00023348241 0.0002252755 0.00016988811 0.00013624845 0.00015532838 0.00021722808 0.00016226365
0.00016664842 0.00017181048 0.00017085615 0.0001226242 0.00018380901 0.00017646186 0.00019179778 0.00018798056
0.00020482249 0.00027631014 0.00023486342 0.0003020721 0.00024201033 0.00023438729 0.00022762876 0.00022160917
0.00016961743 0.0001307927 0.00016576081 0.00017510896 0.00020710664 0.00017687936 0.00018622447 0.00020093852
0.00020688606 0.00018334921 0.00020418134 0.00018794404 0.00014345368 0.00011300535 7.130457e-05 5.5082382e-05
8.178749e-05 0.000114985596 0.00023515552 0.00015551476 0.00023584838 0.00022785785 0.0002715895 0.00029745782
0.00027763046 0.00022892933 0.00022305206 0.00014728557 0.0001357926 0.0002269528 0.00020135129 0.00030717786
0.00038883984 0.00042338407 0.00048926484 0.0003871456 0.0003289319 0.00034956742 0.0003338042 0.00029794982
0.00021852097 0.00012794616 3.3078235e-05 0.00012340145 6.96074e-05 5.5822024e-05 0.00013603004 0.00014472818
0.0001518891 0.00022614267 0.00044570825 0.00024687697 0.00030358467 0.000236639 0.00018175622 -8.109482e-05
-8.4678504e-05 -8.38809e-05 -4.443498e-05 -3.6799356e-05 0.0001838883 0.00023684186 0.00024733576 0.00059377425
0.00050785346 0.00042177225 0.00045631998 0.00052443583 0.00044972028 0.00035925276 0.00022371167 0.00019628869
8.657216e-05 0.00011766628 8.509768e-05 6.0858918e-05 2.934289e-05 1.1192186e-05 0.00027855494 0.0001648775
0.00021402839 0.00030865485 3.609445e-05 -0.00015196002 -0.00026833088 -0.0005859206 -0.00042963406 -0.00068941317
-0.00055719656 -0.00064356445 -0.0008042505 -0.0005740261 -0.00067434815 -0.00019924073 2.7234046e-05 -8.369069e-05
8.977118e-05 2.315032e-05 -0.00013738286 -0.00027789935 -0.00072020735 -0.0006650266 -0.00064237096 -0.0005647597
-0.00023701377 0.0001669658 -0.00010525162 5.073426e-05 0.0004896362 0.00092517975 0.0009850186 0.0001647123
-0.0002450714 3.8744885e-05 0.0003650385 0.00014479735 -8.538739e-05 -0.0003582377 -0.00018602212 -0.00032059892
-0.00064264104 -0.00023361444 0.00029513432 1.3284505e-05 -0.0007092897 -6.165e-05 -0.000276173 -0.001238119
-0.0014021449 -0.00072194444 -0.0009464274 -0.0019554798 -0.0025454552 -0.001931925 -0.00057080423 -0.00064002664
-0.0013618694 -0.0009566293 -8.911483e-05 -1.8946994e-05 -0.00057967467 0.00015341549 -4.3224572e-05 0.00015280403
0.00017848895 0.00017925135 -0.00045188318 -0.00087394426 9.016504e-05 -0.0008954056 1.706175e-05 0.00081482576
0.00055113604 -0.00019727074 -0.00030121976 0.0015571718 0.0006240258 0.00071244914 -0.001153005 -0.0012970332
-0.0012147313 -0.002868392 -0.0021412484 -0.002684567 -0.0023194037 -0.0033661912 -0.0023642476 -0.0028205789
-0.0030321598 -0.0015217145 -0.0016750888 -0.001070788 -0.0014250064 -0.0017218475 -0.0019366753 -0.0019630971
00000000: 5745 473a dca5 af39 429c 4638 af5f 6239
00000010: c6a1 1eb9 1279 1939 c5ea 3437 d6d1 fab8
00000020: 4ef0 4037 7d77 ef37 cc45 1638 023a 58b8
00000030: 58d6 33b8 7817 18b6 4e10 cbb5 7b81 e937
00000040: 3b9e 9e37 c950 3b37 63bd 1538 9781 6f37
00000050: 5b95 0838 9e00 2338 398f 02b7 4e0c 6db8
00000060: 374c aeb8 d007 b1b8 7a90 a2b8 a76f a137
00000070: 3258 5d37 9345 9c38 cced c438 c9b5 c038
00000080: 07d1 4438 5f9c d638 4c60 c938 fc5e f438
00000090: 6449 ac37 cfa5 5737 6931 d335 ab43 8538
000000a0: 0a4d 9a38 440d 2439 f3f1 f738 2517 ec38
000000b0: b9bd cb37 18ef 1438 12c0 6f38 6b29 d238
000000c0: 9843 3b38 de4b 7f37 4fad 6d37 c360 ac38
000000d0: 061d d338 907d 3039 940c 6239 0859 7339
000000e0: 007c 6e39 f5d2 7439 ee37 6c39 fe23 3239
000000f0: eadd 0e39 a5df 2239 b8c7 6339 5125 2a39
00000100: 58be 2e39 0628 3439 d927 3339 af94 0039
00000110: dbbc 4039 9f08 3939 531d 4939 a61c 4539
00000120: 9ec5 5639 b8dd 9039 ab45 7639 6e5f 9e39
00000130: 27c4 7d39 dcc5 7539 a1af 6e39 c25f 6839
00000140: 55db 3139 6625 0939 14d0 2d39 749d 3739
00000150: c42a 5939 b178 3939 4045 4339 06b3 5239
00000160: 8eef 5839 6e41 4039 8319 5639 d812 4539
00000170: 0e6c 1639 49fd ec38 5989 9538 4208 6738
00000180: 5385 ab38 6c24 f138 1494 7639 ad11 2339
00000190: 114e 7739 20ed 6e39 2064 8e39 1df4 9b39
000001a0: ee8e 9139 c00c 7039 15e3 6939 ab70 1a39
000001b0: 8c63 0e39 2efa 6d39 d321 5339 b70c a139
000001c0: 33dd cb39 a6f9 dd39 0242 003a cef9 ca39
000001d0: 7e74 ac39 2546 b739 7102 af39 2636 9c39
000001e0: c722 6539 4929 0639 7cbd 0a38 5365 0139
000001f0: 30fa 9138 7122 6a38 49a3 0e39 2dc2 1739
00000200: 6b44 1f39 b620 6d39 f3ad e939 446f 8139
00000210: 722a 9f39 4c22 7839 d095 3e39 7311 aab8
00000220: 6d95 b1b8 37e9 afb8 b25f 3ab8 0259 1ab8
00000230: 24d2 4039 c158 7839 d8ac 8139 84a7 1b3a
00000240: 7821 053a 5021 dd39 3b3e ef39 4b7a 093a
00000250: 6fc8 eb39 175a bc39 2594 6a39 d8d2 4d39
00000260: 138e b538 9ac3 f638 7876 b238 c442 7f38
00000270: 6025 f637 13c6 3b37 030b 9239 f8e2 2c39
00000280: cf6c 6039 f4d2 a139 1f64 1738 7557 1fb9
00000290: c3ae 8cb9 7798 19ba 8240 e1b9 bcb9 34ba
000002a0: d410 12ba e1b4 28ba 56d4 52ba 3d7a 16ba
000002b0: bdc6 30ba 47eb 50b9 ab74 e437 1983 afb8
000002c0: 8943 bc38 ef32 c237 6e0e 10b9 05b3 91b9
000002d0: 4ccc 3cba 2e55 2eba c964 28ba 620c 14ba
000002e0: e686 78b9 8a13 2f39 89ba dcb8 7fcb 5438
000002f0: ee5a 003a c387 723a bd1b 813a 9fb6 2c39
00000300: ed7c 80b9 0182 2238 a362 bf39 bed4 1739
00000310: 0212 b3b8 dad1 bbb9 ef0e 43b9 0f16 a8b9
00000320: e976 28ba 66f6 74b9 42bc 9a39 84e0 5e37
00000330: a0ef 39ba 174a 81b8 50cb 90b9 6148 a2ba
00000340: 2dc8 b7ba df40 3dba ab19 78ba 8227 00bb
00000350: a7d1 26bb a538 fdba 06a2 15ba 76c7 27ba
00000360: c180 b2ba 4ec6 7aba 29e3 bab8 5cf0 9eb7
00000370: 4ff5 17ba 28de 2039 084c 35b8 053a 2039
00000380: c328 3b39 6bf5 3b39 bcea ecb9 6819 65ba
00000390: fd16 bd38 a7b9 6aba d41f 8f37 089a 553a
000003a0: 1d7a 103a 76da 4eb9 08ed 9db9 041a cc3a
000003b0: aa95 233a a7c3 3a3a 6e20 97ba 3601 aaba
000003c0: 9e37 9fba a2fb 3bbb 3054 0cbb 8fef 2fbb
000003d0: 2301 18bb 519b 5cbb 7ef1 1abb 76d9 38bb
000003e0: 33b7 46bb 4474 c7ba a78e dbba af59 8cba
000003f0: 48c7 baba 9daf e1ba 0ad8 fdba 4ea7 00bb
