jarvis_voice_cache/b1d5ed15191a0c11.npy (npy, 186560 bytes, 1 tensors)

array f4 [46608]
-0.007504811 -0.0042619915 -0.010603179 0.00498908 0.008997288 0.002473811 0.0014387324 0.015159765
0.0072801667 -0.012444935 -0.0045471326 0.0015244985 -0.0011168009 0.007549462 0.016469497 -0.0017279453
-0.015632367 -0.01931127 -0.00969513 -0.0026325937 0.0013951113 0.0122415675 0.01926901 0.009444185
0.015965877 -0.0072265123 -0.012937342 -0.0023660772 -0.017190441 -0.018163763 -0.004331037 0.012568806
0.01900188 0.017300585 0.01189367 -0.00071280275 -0.026051885 -0.02145329 -0.010021801 0.017457144
0.026558612 0.011269703 -0.0042131213 -0.014637933 -0.016557164 -0.0066507384 0.009361031 -0.0055352864
-0.017024213 -0.0029777288 0.027970327 0.020373842 0.0060152044 -0.0044676773 -0.01357979 -0.0039904173
0.019094365 0.01254804 -0.022083802 -0.036949173 0.0004893883 0.030958567 0.0117530925 -0.008829528
-0.012394581 -0.008584308 0.0032215596 0.013339405 0.015274789 0.004529916 -0.021694254 -0.008187957
0.012535138 0.008564067 0.0021392603 0.0010540232 -0.01044816 -0.02477477 -0.013158461 0.011357553
0.008834515 0.013893601 0.02228261 0.0041073766 -0.014002238 -0.013250838 -0.0022601832 0.0021919042
0.00060088316 -0.01326014 -0.013552916 -0.0067676096 0.01639835 0.026489755 0.028898383 -0.0059063886
-0.05287722 -0.055815432 -0.012107104 0.055174854 0.07294219 0.03322369 -0.0328447 -0.06348449
-0.04564866 0.0031216722 0.05201724 0.047807932 0.011204432 -0.027097821 -0.039153185 -0.036256257
0.012521673 0.048915967 0.03791676 -0.0039161537 -0.029740397 -0.030295286 -0.00953626 0.008313869
0.023831671 0.016370783 -0.022516182 -0.026951978 -0.006404639 0.017912108 0.01220729 0.020464683
0.01317045 -0.013241827 -0.020580959 -0.013666569 -0.015765369 -0.009083816 0.01276302 0.022441674
0.035959214 0.0045220167 -0.029666547 -0.034989174 -0.010051709 0.022237374 0.033021517 0.02190611
-0.012766303 -0.029158762 -0.031969436 -0.015646668 0.019435355 0.045589715 0.03439663 -0.0031906015
-0.028031295 -0.05065349 -0.034826282 0.035360586 0.070527874 0.034167178 -0.018337656 -0.056500923
-0.064165466 -0.005457055 0.05439086 0.06902683 0.019303834 -0.040787492 -0.048816852 -0.028190672
-0.00401025 0.035293553 0.048680745 0.015818026 -0.027985826 -0.038559124 -0.017723322 0.0055849804
0.02875603 0.010582975 -0.017393531 -0.008062717 -0.0035525747 0.0009935017 0.011987365 0.009828995
-0.003638039 0.0045979945 0.0110712545 0.0055973395 -0.009900844 -0.024985313 -0.012852111 0.012544136
0.023568498 0.009381801 -0.016854268 -0.007959814 0.0017871684 0.0012452386 0.006735015 0.004551932
-0.014650648 -0.0051256046 0.011481955 -0.0010155233 0.00019797879 0.0068710223 0.008770486 -0.008338365
-0.010093672 -0.0016571347 -0.019566081 -0.014570147 0.023185581 0.034690846 0.02143546 -0.0075794896
-0.03531322 -0.02840342 -0.018147606 0.016039321 0.032916717 0.020736558 -0.003537486 -0.005313957
-0.01924963 -0.019038556 0.0021462769 0.017618967 0.027637646 -0.014111355 -0.01690966 -0.02862764
-0.00756489 0.01760899 0.026146358 0.028180351 0.0027849877 -0.013039335 -0.024459954 -0.047433645
-0.026825767 0.037614804 0.06755973 0.01720216 -0.01829743 -0.034856677 -0.02150789 0.002424699
0.03407639 0.023422755 -0.0006820844 -0.0222878 -0.035871882 -0.015165323 0.022941189 0.045937497
00000000: ebea f5bb 2da8 8bbb f5b8 2dbc 707b a33b
00000010: 5c69 133c a91f 223b d993 bc3a aa60 783c
00000020: 778e ee3b d7e5 4bbc 1d00 95bb aed1 c73a
00000030: 9f61 92ba 7a61 f73b 0aeb 863c 397c e2ba
00000040: 730f 80bc ab32 9ebc 53d8 1ebc 9887 2cbb
00000050: 2bdc b63a db90 483c 0bda 9d3c c8bb 1a3c
00000060: dfca 823c 61cc ecbb 25f7 53bc 3010 1bbb
00000070: f8d2 8cbc 2ccc 94bc 5feb 8dbb 65ed 4d3c
00000080: d5a9 9b3c f5b9 8d3c abdd 423c 62db 3aba
00000090: c36a d5bc cfbe afbc 7b32 24bc 4902 8f3c
000000a0: 7291 d93c 8fa4 383c 390e 8abb f1d3 6fbc
000000b0: e4a2 87bc 70ee d9bb 035f 193c 5961 b5bb
000000c0: 5d76 8bbc 0026 43bb 0722 e53c 0be7 a63c
000000d0: 311b c53b 9865 92bb c47d 5ebc 0cc2 82bb
000000e0: c96b 9c3c 4b96 4d3c 17e9 b4bc 0458 17bd
000000f0: 4b4a 003a d29c fd3c 0b90 403c b9a9 10bc
00000100: a412 4bbc 33a5 0cbc cd20 533b 858d 5a3c
00000110: 1c43 7a3c b16f 943b 26b8 b1bc c826 06bc
00000120: 2e60 4d3c 4d50 0c3c d532 0c3b 2627 8a3a
00000130: c22e 2bbc 75f4 cabc 9696 57bc 0815 3a3c
00000140: a4be 103c fca1 633c 058a b63c 2c97 863b
00000150: a569 65bc 0b1a 59bc 951f 14bb 0da6 0f3b
00000160: 9684 1d3a 0f41 59bc 0d0d 5ebc d3c2 ddbb
00000170: d555 863c 0b01 d93c 4dbc ec3c 618a c1bb
00000180: c995 58bd b99e 64bd e05c 46bc 07ff 613d
00000190: b762 953d 9015 083d 2a88 06bd 2804 82bd
000001a0: 17fa 3abd f894 4c3b 0810 553d 40d2 433d
000001b0: cb92 373c 40fc ddbc 175f 20bd 7181 14bd
000001c0: b427 4d3c 1c5c 483d 9b4e 1b3d 1453 80bb
000001d0: 22a2 f3bc d22d f8bc f93d 1cbc e536 083c
000001e0: a33a c33c 051c 863c db73 b8bc 65ca dcbc
000001f0: 02de d1bb 6abc 923c 1601 483c 8da5 a73c
00000200: dfc8 573c 3ff4 58bc 6699 a8bc bfe9 5fbc
00000210: 6026 81bc 49d4 14bc fc1b 513c 9ad7 b73c
00000220: f849 133d 6d2d 943b 4207 f3bc cf50 0fbd
00000230: ecaf 24bc 272b b63c 9241 073d 7174 b33c
00000240: c129 51bc 5bde eebc 62f2 02bd 712d 80bc
00000250: e536 9f3c 48bc 3a3d 7be3 0c3d 6919 51bb
00000260: e3a1 e5bc 097a 4fbd 01a6 0ebd 43d6 103d
00000270: eb70 903d e2f2 0b3d da38 96bc 836d 67bd
00000280: 2f69 83bd 18d1 b2bb f3c8 5e3d f05d 8d3d
00000290: 1323 9e3c c910 27bd 2ef4 47bd 20f0 e6bc
000002a0: 6a68 83bb f98f 103d 7665 473d ce94 813c
000002b0: 8842 e5bc 2cf0 1dbd 8030 91bc 3602 b73b
000002c0: c491 eb3c 3764 2d3c e17c 8ebc 7c19 04bc
000002d0: 50d2 68bb 6338 823a a766 443c cb09 213c
000002e0: 2b6c 6ebb c6aa 963b 3564 353c e369 b73b
000002f0: 2637 22bc 00ae ccbc a991 52bc eb85 4d3c
00000300: b912 c13c 20b6 193c f611 8abc e169 02bc
00000310: 6c3f ea3a 4637 a33a 67b1 dc3b 6028 953b
00000320: 4609 70bc b0f4 a7bb cf1e 3c3c 4f1b 85ba
00000330: 8798 4f39 5026 e13b 16b2 0f3c a39d 08bc
00000340: ee5f 25bc 3734 d9ba 0c49 a0bc a0b7 6ebc
00000350: b0ef bd3c fd17 0e3d 6b99 af3c 5e5d f8bb
00000360: 98a4 10bd 4aae e8bc 4aaa 94bc e564 833c
00000370: aed3 063d b7df a93c 2bd5 67bb b420 aebb
00000380: 66b1 9dbc bff6 9bbc 8da8 0c3b a755 903c
00000390: 5868 e23c 5033 67bc 2186 8abc 8384 eabc
000003a0: e6e2 f7bb bb40 903c e330 d63c 7bda e63c
000003b0: 5784 363b efa2 55bc 3e60 c8bc c849 42bd
000003c0: b6c1 dbbc fb11 1a3d c15c 8a3d 8beb 8c3c
000003d0: 7ee4 95bc e0c5 0ebd 5131 b0bc b3e7 1e3b
000003e0: af93 0b3d 14e1 bf3c e9cd 32ba e894 b6bc
000003f0: 65ee 12bd fa77 78bc 29ef bb3c f528 3c3d
