jarvis_voice_cache/b1d71db03a1abe53.npy (npy, 164032 bytes, 1 tensors)

array f4 [40976]
000000 82 d7 c5 39 ec 67 a6 39 07 7a 1c b7 1d 8e 10 39
       0.00037735334 0.00031739415 -9.326736e-06 0.00013785851
000010 35 1e 55 37 46 66 8a 37 b6 93 8d 37 e9 01 aa 36
       1.27028225e-05 1.6498507e-05 1.6877293e-05 5.066617e-06
000020 d9 eb aa b6 32 54 61 37 5a eb 42 37 31 d0 d0 b7
       -5.093851e-06 1.3430648e-05 1.1618098e-05 -2.4892479e-05
000030 5c c9 01 b8 fc 1f 9e 37 51 f9 da 36 9b cd 95 36
       -3.0943527e-05 1.8849962e-05 6.5259305e-06 4.4644817e-06
000040 d2 b7 02 b7 5b f0 36 37 fc e9 1e 37 63 85 88 b7
       -7.791403e-06 1.09040075e-05 9.472013e-06 -1.6274576e-05
000050 e5 51 5b b7 b8 c1 59 37 e0 7e 8b 36 b1 48 65 b7
       -1.3072485e-05 1.2979312e-05 4.157293e-06 -1.3666388e-05
000060 43 83 ba b6 a9 a6 c8 36 bd a4 64 b5 f3 1a 85 b6
       -5.558513e-06 5.9798663e-06 -8.5176345e-07 -3.966846e-06
000070 8b ba eb b6 5e 21 89 b6 df e8 a9 35 fd 02 0a 35
       -7.025262e-06 -4.0868026e-06 1.2659256e-06 5.1413355e-07
000080 ab 31 c4 b6 7c 56 ea 35 2a db 67 35 db 1d c1 b6
       -5.8470373e-06 1.7459529e-06 8.637313e-07 -5.755324e-06
000090 5d 9b 56 36 4d e5 32 37 35 9d 3e b7 fd 50 14 b7
       3.1978918e-06 1.0663015e-05 -1.1361485e-05 -8.840344e-06
0000a0 05 c6 8a 36 38 7e 97 36 99 e6 9f b6 21 8a 93 b6
       4.135773e-06 4.5148445e-06 -4.7654144e-06 -4.3970217e-06
0000b0 ac 52 a7 b6 3a 9e 16 b6 61 02 f7 35 61 f8 83 b6
       -4.986612e-06 -2.2443842e-06 1.8403626e-06 -3.9330193e-06
0000c0 aa 2d 01 b7 7f e4 7f b4 d7 26 28 b6 69 c2 27 b7
       -7.699631e-06 -2.3831852e-07 -2.5056559e-06 -9.99924e-06
0000d0 bd e5 06 b6 6d 2d 95 35 4c 49 02 b7 c5 04 d2 b6
       -2.0101281e-06 1.1114586e-06 -7.76567e-06 -6.259043e-06
0000e0 e4 c1 d7 b6 8f f5 ac b6 aa 46 b0 b6 4e 1d 09 b7
       -6.430071e-06 -5.1545862e-06 -5.253435e-06 -8.172659e-06
0000f0 06 97 22 b7 2b 53 eb b6 86 e1 67 b7 1e 99 cf b7
       -9.691115e-06 -7.013228e-06 -1.3821182e-05 -2.4747624e-05
000100 32 89 c8 b7 0f ff a3 b7 24 29 16 b8 48 d0 47 b8
       -2.3905744e-05 -1.9549885e-05 -3.5801102e-05 -4.7639274e-05
000110 cb 1e 06 b8 73 4b 25 b8 b2 f1 47 b8 d9 a5 52 b8
       -3.1976768e-05 -3.9409333e-05 -4.7670394e-05 -5.022236e-05
000120 de 50 68 b8 f6 70 81 b8 18 16 99 b8 8b d2 50 b8
       -5.5388424e-05 -6.17224e-05 -7.299724e-05 -4.9787148e-05
000130 7d 22 69 b8 0c b1 4a b8 ab d9 46 b8 1e 2f af b7
       -5.558365e-05 -4.832544e-05 -4.7409598e-05 -2.0883566e-05
000140 da 26 9e b7 9b f8 05 b8 0a 0b 49 b8 1d 93 62 b8
       -1.885316e-05 -3.1941203e-05 -4.7932415e-05 -5.401961e-05
000150 73 6b c0 b8 2e 84 db b8 ca 07 11 b9 be c3 13 b9
       -9.1752874e-05 -0.00010467354 -0.00013831179 -0.00014091932
000160 cd 54 0f b9 e6 9c f5 b8 c0 5e d2 b8 5d 36 d0 b8
       -0.00013669133 -0.00011711735 -0.00010031229 -9.928339e-05
000170 f7 98 d6 b8 ca 0f b9 b8 60 6e ca b8 ee 90 c5 b8
       -0.00010232807 -8.8244284e-05 -9.6526695e-05 -9.420687e-05
000180 3c 34 52 b8 b6 e0 0c b8 ad 76 94 b8 a4 ae b0 b8
       -5.011655e-05 -3.358788e-05 -7.079295e-05 -8.424863e-05
000190 f9 b6 94 b8 e5 23 84 b8 db 3b 5f b8 44 b3 43 b8
       -7.091271e-05 -6.3009364e-05 -5.3223088e-05 -4.6658577e-05
0001a0 4b bb 13 b8 7f ca 2c b8 36 48 17 b8 eb 70 2b b8
       -3.522196e-05 -4.1196585e-05 -3.6068457e-05 -4.087474e-05
0001b0 9b e7 7b 36 50 1b 78 37 0a 65 71 36 00 62 14 36
       3.7536727e-06 1.4788311e-05 3.597061e-06 2.2110762e-06
0001c0 84 e9 74 37 59 c7 08 b8 b3 2f 90 b7 c8 6a d3 b7
       1.4597903e-05 -3.2610584e-05 -1.718835e-05 -2.5202884e-05
0001d0 97 b8 50 b8 b8 4f 61 b8 00 e7 a9 b7 11 3e 08 37
       -4.9762977e-05 -5.3718424e-05 -2.0253938e-05 8.120683e-06
0001e0 32 ed ff b6 a8 61 de b7 07 16 21 b5 63 8d d3 37
       -7.6272054e-06 -2.6509937e-05 -6.000923e-07 2.5218998e-05
0001f0 46 68 46 38 e5 4b 23 37 cc 2e 6a 38 f5 1f b2 b5
       4.730399e-05 9.733228e-06 5.583353e-05 -1.3271334e-06
000200 4a be c5 b7 d6 0c 46 b8 44 2e 03 38 57 ff c3 b7
       -2.357284e-05 -4.7218833e-05 3.1275922e-05 -2.3364713e-05
000210 32 5d 20 b6 cb be 2c 36 4b 0c de 37 26 8a 84 35
       -2.3896105e-06 2.5741053e-06 2.6470187e-05 9.874973e-07
000220 f4 51 49 38 17 90 11 38 ad 5c 0e 38 a8 35 83 37
       4.799846e-05 3.4704888e-05 3.394175e-05 1.5641403e-05
000230 66 6f 07 38 9a 4e 9d 37 d2 8a 78 38 ad b3 97 38
       3.2290256e-05 1.875246e-05 5.9257094e-05 7.233708e-05
000240 ea 67 25 36 3a 2c a9 b8 38 e2 47 b6 e3 7e 24 38
       2.4647402e-06 -8.066786e-05 -2.9784987e-06 3.921882e-05
000250 a4 55 07 b7 06 8a e9 b7 05 49 22 b8 7a 70 01 b8
       -8.066567e-06 -2.7840037e-05 -3.8691815e-05 -3.086075e-05
000260 fc 46 21 b8 91 b0 f1 b7 f2 e9 39 37 63 d0 0f 38
       -3.84515e-05 -2.8811659e-05 1.1081329e-05 3.4287932e-05
000270 31 1c a7 b6 81 3b 58 37 59 b9 54 38 7f c2 ab 36
       -4.9802698e-06 1.2888458e-05 5.0717357e-05 5.1188395e-06
000280 2e 37 61 b6 3a f5 d9 b6 55 ad 91 b7 95 dc 35 37
       -3.3559731e-06 -6.495652e-06 -1.7366061e-05 1.0839799e-05
000290 42 02 b8 37 5d ac 30 37 40 d5 94 38 ff b7 a6 b7
       2.193556e-05 1.0530549e-05 7.096911e-05 -1.9874422e-05
0002a0 25 aa af b5 8f 1a 00 38 d0 b2 22 b7 24 ba 0a 38
       -1.3088035e-06 3.0542313e-05 -9.6975855e-06 3.307512e-05
0002b0 5a 34 cb 36 8e ee 4e 38 37 57 26 37 66 ae 57 38
       6.055966e-06 4.93364e-05 9.914677e-06 5.1422416e-05
0002c0 67 2f 9b 38 06 0b 12 36 0a 83 48 37 b7 86 ef 37
       7.399805e-05 2.1762112e-06 1.1951439e-05 2.8553752e-05
0002d0 b4 49 e9 b3 57 e0 14 38 bd f8 ae b8 0c 22 fd 36
       -1.08633145e-07 3.5494882e-05 -8.343298e-05 7.543951e-06
0002e0 32 c0 8f 37 a3 24 88 b7 3a b1 38 b7 81 c7 45 38
       1.7136426e-05 -1.6229524e-05 -1.1008518e-05 4.7154263e-05
0002f0 31 5f 4d 37 67 cc 24 39 75 ec 0b 39 f4 49 88 b6
       1.2241116e-05 0.00015716405 0.0001334416 -4.061725e-06
000300 34 c2 65 b8 db b2 25 b8 e6 7a 2f 38 01 6c 74 38
       -5.477872e-05 -3.9505638e-05 4.183771e-05 5.827472e-05
000310 73 7b d7 38 8e ca ef 37 24 6d ec 38 35 f9 78 38
       0.00010274993 2.8585342e-05 0.00011273686 5.93599e-05
000320 24 8d 54 38 2a 8b 02 38 69 d5 8d 38 e7 1e 84 38
       5.0676186e-05 3.1124022e-05 6.763155e-05 6.3000065e-05
000330 54 13 6f b8 65 ad fb 37 23 a1 c4 38 bc b9 14 b7
       -5.700004e-05 3.0002275e-05 9.376022e-05 -8.864732e-06
000340 52 b0 38 b8 e3 36 31 b6 02 e9 43 38 9f 12 2e 38
       -4.403323e-05 -2.6407004e-06 4.670863e-05 4.1502175e-05
000350 56 53 8e b8 fa 4a a8 37 cb bf ae b6 aa 03 10 b7
       -6.78661e-05 2.0062074e-05 -5.2079317e-06 -8.583922e-06
000360 33 e5 e7 38 96 69 9f 38 81 f6 76 38 bc bd f8 38
       0.0001105763 7.601378e-05 5.8880545e-05 0.00011860902
000370 ed df b6 b8 32 89 fe b8 9b f7 06 b9 86 9e 21 b9
       -8.720146e-05 -0.000121372184 -0.00012871476 -0.00015413211
000380 19 7c 88 38 67 24 bd 38 0b 93 22 39 0b fd 18 38
       6.5081e-05 9.019003e-05 0.00015504302 3.647529e-05
000390 88 70 38 38 ec c4 08 b8 05 c1 33 b7 c1 72 2b b8
       4.397382e-05 -3.2608325e-05 -1.0714172e-05 -4.087645e-05
0003a0 ef a7 46 b7 b0 89 0e b9 78 83 5f b9 72 0c 06 b9
       -1.184082e-05 -0.00013593468 -0.00021315913 -0.00012783872
0003b0 f1 6d a2 b8 bf eb 2a 38 48 53 21 38 f2 a6 96 39
       -7.74524e-05 4.0750714e-05 3.8462953e-05 0.00028734613
0003c0 37 23 10 39 7e a3 8c b8 f7 a6 cc b8 f2 d6 01 38
       0.00013746029 -6.706173e-05 -9.758578e-05 3.095618e-05
0003d0 8f 15 0f 38 9a 34 f4 38 02 b2 0d b8 dc 86 b3 b8
       3.4113935e-05 0.000116446245 -3.3782802e-05 -8.560505e-05
0003e0 47 0a 94 b8 71 e5 54 38 89 3a e1 b8 b4 cc ea 38
       -7.059104e-05 5.0758423e-05 -0.00010739739 0.000111961184
0003f0 ed 4a be 38 b8 f8 c5 b8 b1 f5 b5 38 53 c0 0b 39
       9.073862e-05 -9.4400195e-05 8.676516e-05 0.0001332772
