jarvis_voice_cache/b23c2295e470f397.npy (npy, 177344 bytes, 1 tensors)

array f4 [44304]
00000000: 1ecd 7c3a 06c0 0e3a 789c b839 0eb1 043a
00000010: 519f 0839 40c8 e139 5b44 9c39 b34d ae39
00000020: dd36 8739 b82e 4839 e08a bab7 d96c 44b9
00000030: e2cc 7eb9 4b68 acb8 b224 a738 c467 9539
00000040: 6dea a439 6f05 9839 45da ae39 e5b3 a339
00000050: c0f3 a739 c15e 8d39 816c bd39 3ed3 cd39
00000060: e670 e739 5bee 113a 14c0 0d3a f911 493a
00000070: be47 293a b806 473a ef7f 523a 15e2 5d3a
00000080: a5f8 563a c312 573a c4d0 443a 26bc 483a
00000090: d316 313a af6b 323a 1118 383a c91d 463a
000000a0: de8b 3b3a 7890 453a 6170 323a 6543 3c3a
000000b0: 36d1 173a b0ae 123a 7fb3 0a3a 19c9 1f3a
000000c0: 0a46 f839 6a71 fc39 e01a dd39 822a dc39
000000d0: 15ff e739 0de1 d339 050b bd39 f262 a339
000000e0: c0af a439 3fb4 6239 ab75 2739 992b a138
000000f0: 1f21 0b37 6bdf eab8 cde8 f8b8 6a26 2ab9
00000100: 35f3 42b9 0c0e 4db9 a4e1 48b9 1814 a9b9
00000110: a6d2 82b9 42c7 aeb9 042d cab9 5da5 d9b9
00000120: 182f 06ba 9d96 e7b9 69b5 22ba afcc 18ba
00000130: f2d2 19ba 7e8e 21ba 5912 15ba 4afa 16ba
00000140: 2967 19ba 16a0 05ba c6cc 07ba 0559 fbb9
00000150: 8ea2 efb9 ddea f7b9 4cad 01ba fb57 07ba
00000160: 7c35 fbb9 e8fd e5b9 0f8c bcb9 67c4 85b9
00000170: effb 4db9 b448 1bb9 1483 6eb8 0739 0e38
00000180: 07f5 6238 5321 1239 6bb9 8739 b10e 7839
00000190: 6b44 9739 4896 9a39 7807 ba39 33a7 db39
000001a0: b89a 073a b064 1e3a 63ae 483a 0654 4f3a
000001b0: 9d5c 443a 0d96 433a 4418 413a e85e 2d3a
000001c0: 52fb 3a3a 9a37 2a3a dfa5 4c3a 5f57 253a
000001d0: 6c3e 2f3a 9b76 393a 7587 3d3a 07be 443a
000001e0: 1c83 2b3a 8998 353a e2f4 183a 6fb4 033a
000001f0: 8b66 d439 d0e8 9739 36a0 7439 b022 b139
00000200: 91a8 1739 3932 5839 23fb d939 3f34 a439
00000210: de63 c239 38a9 9c39 3fc9 c839 e5ab e538
00000220: 467e 4b37 e929 3e38 11af a6b8 283c 35b9
00000230: 08df 5335 2b4c 1138 089d 7838 b0f9 b539
00000240: 68f9 6039 25d2 8f39 11a7 8339 b6ae 6b39
00000250: f05a fc37 ecd0 a4b9 de9b 98b9 187c 93b9
00000260: 0c0b cbb9 e398 1636 de71 6239 d61f 8939
00000270: 8135 d139 d7b4 9239 dbe1 c839 4753 0f39
00000280: ff74 f9b8 4e6b 3039 d561 7cb9 9601 fdb8
00000290: 299b 2e39 52f1 67b7 b80e 6a39 a69e 9ab7
000002a0: 77ce 7839 1c5a 8738 dcb6 8eb9 cc62 cf38
000002b0: cda0 1cb9 b4b8 73b9 f19c 1838 aaee 20b9
000002c0: 655c c9b9 16f9 bbb9 2b2c 02ba b7a0 ffb9
000002d0: 99e3 1cba 3fdc e7b9 9011 ccb8 ab62 21ba
000002e0: b8c3 deb9 d07c 72b9 83d5 0fba 9a24 68ba
000002f0: 3f07 37ba 3fcd 9bb9 e835 0aba 867e 1dba
00000300: ee75 23b9 c29b 52b9 4a75 81b9 14b2 2e38
00000310: d04f 65b9 1260 c3b9 6607 94b9 ed4a 01ba
00000320: 1319 e9b9 8630 34ba 5303 7eb9 6859 35b8
00000330: 07dc 48ba b2a5 e5b8 80be be38 0956 9f39
00000340: 5104 71ba 8ac3 8eb9 ffe7 7339 7ca0 61ba
00000350: 14fd 4eba 24b4 74ba e23d 0039 0be3 56ba
00000360: ed70 95ba e8ff 06ba bb13 3bb9 ef27 2839
00000370: e3ea 34ba 6aa9 d937 3f75 75b9 0273 83ba
00000380: f296 16ba 1eee 2eba 1c67 50ba 9365 99ba
00000390: 8c99 5538 299b 48ba 77f3 fb39 18da 8a39
000003a0: 3ed8 84ba 0f80 cfb9 da4c 423a df18 9a37
000003b0: 4e3c 1dba fdc0 7f3a 652d 643a 391e 0e37
000003c0: 3734 013b 82a3 003a 4f14 b139 d5f9 0e3b
000003d0: d9d4 223b 08cd b43a 8428 4a3b f7e9 873b
000003e0: 6320 743b b502 8c3b b96f af3b f31d 923b
000003f0: d1a3 923b d090 af3b 630d c53b 812a e53b
0.0009643602 0.0005445484 0.00035211793 0.00050617836 0.0001302932 0.00043064542 0.00029805567 0.00033245757
0.00025790083 0.0001909089 -2.2237597e-05 -0.00018732566 -0.00024299652 -8.221025e-05 7.9700156e-05 0.00028496806
0.00031455178 0.00028995748 0.0003335049 0.00031223815 0.0003203433 0.00026964213 0.0003612973 0.00039258035
0.0004414387 0.0005566829 0.0005407345 0.00076702196 0.0006457529 0.0007592249 0.0008029928 0.000846417
0.0008200503 0.0008204395 0.0007507915 0.0007657431 0.0006755415 0.0006806207 0.0007022629 0.0007557539
0.0007154326 0.0007536481 0.0006806907 0.00071816734 0.0005791368 0.00055954885 0.0005291029 0.00060953345
0.0004735443 0.00048149686 0.00042172428 0.0004199334 0.00044249804 0.00040412732 0.000360571 0.00031163503
0.00031411462 0.00021620186 0.00015970196 7.685199e-05 8.292757e-06 -0.00011199604 -0.00011868924 -0.00016226774
-0.00018591883 -0.00019555556 -0.00019157544 -0.00032249163 -0.00024952478 -0.00033336325 -0.00038561982 -0.0004151267
-0.0005118712 -0.0004417197 -0.0006206842 -0.000582884 -0.000586792 -0.00061628956 -0.0005686633 -0.0005759342
-0.0005851859 -0.0005097402 -0.0005180355 -0.00047940775 -0.00045706745 -0.00047286498 -0.0004946783 -0.00051629514
-0.000479143 -0.0004386746 -0.00035962506 -0.00025514068 -0.00019644176 -0.00014809036 -5.6865698e-05 3.390855e-05
5.41108e-05 0.00013936059 0.00025887354 0.00023656596 0.0002885194 0.00029485137 0.0003548225 0.00041895508
0.0005172896 0.0006042225 0.000765538 0.0007908944 0.0007490607 0.0007461019 0.00073659816 0.00066135684
0.00071327866 0.00064932706 0.0007806699 0.000630727 0.0006685022 0.00070748635 0.00072299625 0.0007505123
0.0006542669 0.00069273316 0.000583483 0.000502414 0.00040512191 0.00028974423 0.00023329337 0.00033785915
0.00014463278 0.00020618075 0.00041576577 0.00031319444 0.0003707697 0.00029880716 0.00038296913 0.00010951589
1.2129143e-05 4.5338562e-05 -7.9481055e-05 -0.00017283915 7.892818e-07 3.464163e-05 5.9274054e-05 0.00034709042
0.00021455216 0.00027431655 0.0002511074 0.00022476431 3.0083087e-05 -0.00031436177 -0.0002910783 -0.00028130482
-0.00038727408 2.2440734e-06 0.00021595458 0.00026154396 0.0003990345 0.00027982026 0.00038315248 0.00013668566
-0.000118950375 0.00016824642 -0.00024069038 -0.000120642755 0.00016651735 -1.382486e-05 0.00022321462 -1.8432107e-05
0.00023728037 6.454086e-05 -0.0002722059 9.8889315e-05 -0.00014937222 -0.00023243093 3.6385787e-05 -0.00015347698
-0.00038406547 -0.00035853003 -0.0004965688 -0.00048757132 -0.00059848424 -0.0004422385 -9.730749e-05 -0.0006156365
-0.00042488961 -0.00023125415 -0.0005486833 -0.0008855552 -0.0006981976 -0.00029716824 -0.0005272315 -0.0006007928
-0.00015588824 -0.00020085185 -0.00024692185 4.165068e-05 -0.00021868874 -0.00037264876 -0.00028234272 -0.0004932124
-0.00044459905 -0.00068736856 -0.00024224566 -4.323703e-05 -0.0007662181 -0.00010950434 9.0953894e-05 0.00030390944
-0.00091940636 -0.00027230039 0.00023260711 -0.0008606983 -0.0007895988 -0.00093347044 0.00012230084 -0.0008197284
-0.0011401452 -0.00051498273 -0.0001784106 0.00016036605 -0.0006901456 2.5947305e-05 -0.00023408698 -0.0010028782
-0.00057445385 -0.00066730555 -0.0007949935 -0.0011703245 5.092616e-05 -0.0007652515 0.00048055846 0.00026483904
-0.0010135246 -0.00039577528 0.00074119645 1.8369812e-05 -0.0005998061 0.00097562355 0.0008704274 8.470896e-06
0.001971496 0.0004907177 0.00033775202 0.0021816392 0.0024846105 0.0013794014 0.0030846903 0.004147764
0.003725075 0.0042727836 0.0053538946 0.0044591366 0.004475095 0.005357839 0.0060135587 0.0069935923
