jarvis_voice_cache/b28ed72275cae790.npy (npy, 204992 bytes, 1 tensors)

array f4 [51216]
-0.0136948805 0.0057027945 0.0034676825 0.012219866 -0.00689938 -0.0121020125 -0.0013296937 0.025816035
0.0007434364 -0.025079228 0.014242333 0.016025014 -0.030983398 -0.004897766 0.0415264 -0.015057482
-0.024847407 0.009209391 0.018709343 -0.012574393 -0.015581017 0.0128402775 0.015653862 -0.015621059
0.008997506 -0.005579695 0.00075015915 0.018590596 -0.03243667 -0.010811423 0.027107745 0.009514917
-0.016987579 -0.0024403555 0.006013195 0.0064876513 -0.018297974 0.007018465 0.0110821035 -0.010252814
0.0077462276 0.0073836055 0.002656906 -0.016109979 -0.01765795 0.003049592 0.018499186 -0.0015683691
-0.011527995 -0.0031306767 0.008712309 -0.00397058 0.0057620327 0.021718802 -0.012824428 -0.030259162
0.023957986 0.03209549 -0.018468598 -0.035249837 0.021792347 0.024306405 -0.026454633 -0.0077708485
0.012605415 0.00053111644 -0.005895778 -0.0046084207 0.012537488 0.016551401 -0.03842369 -0.00024939486
0.0439931 -0.008377527 -0.030122155 0.0070626405 0.015266162 -0.026010575 0.004638335 0.033782937
-0.028951837 -0.027511 0.03694219 0.016421655 -0.018146973 -0.013570247 0.007810637 0.008052201
0.0022584882 -0.012644706 -0.0056035914 0.006247934 0.0039410377 -0.009094755 0.00822245 0.0012931108
-0.022539921 0.004717236 0.020213453 0.006060226 -0.012236297 -0.005298512 0.0067953537 0.0105460165
0.003103007 -0.019820146 -0.0023698003 0.0054108985 -0.0067416276 0.01837939 0.008337719 -0.02786059
-0.0019517622 0.016457507 0.01354379 -0.004127169 -0.024701143 0.004783832 0.019093297 -0.011236693
-0.0011740249 -0.00012787893 -0.0055397335 -0.008703005 0.01643286 0.020303315 -0.04261714 -0.005187691
0.049363 -8.671219e-06 -0.031026583 -0.012933516 0.0042815874 0.02353929 -0.0033182772 -0.015962398
0.017951347 -0.022504464 -0.016279979 0.028667971 0.017108886 -0.00979695 -0.008771169 -0.0067147953
0.01035206 0.009027313 -0.005209871 -0.024660377 0.007815425 0.025633901 -0.012169235 -0.010029597
0.0062773307 0.013567925 -0.025127418 0.011150068 0.016061548 -0.015792487 -0.004102846 0.0038362457
-0.0017423693 0.013747934 -0.0028161956 -0.005598787 0.0010489105 -0.024810264 0.03209573 0.027298057
-0.034525182 -0.03047864 0.030306006 0.021455675 -0.024108881 -0.0019327333 0.009478307 -0.0060289917
0.007189629 -0.013633498 -0.012823581 0.03258883 -0.031051015 -0.019630967 0.030962512 0.010544509
-0.011997311 0.0017236047 0.009188899 -0.0004524052 0.01333654 -0.007981183 -0.0118092485 0.0010536497
0.007824342 -0.0025641115 -0.019109424 0.008663639 0.014537711 -0.01699526 -0.0020582867 0.019614667
-0.024323227 0.00461604 0.027901867 -0.02430066 -0.016664838 0.023705263 0.02232031 -0.016305575
-0.01337575 0.02110767 -0.019015435 -0.017916106 0.032364566 0.008959153 -0.013597775 -0.022301918
-0.0042307894 0.03406976 0.0029999479 -0.021217506 -0.010220906 0.0022740685 0.0044616703 0.01445034
0.011293067 -0.021743564 -0.014699464 0.017979478 0.03111644 -0.025677957 -0.015146105 -0.010696779
0.012968511 0.02552364 -0.011258237 -0.013468874 -0.007953319 0.0055340566 0.025304712 0.0006127996
-0.041738845 -0.0060625966 0.055416472 -0.027855905 -0.027773572 0.019479701 0.01619331 -0.008455955
0.008456351 -0.015323242 -0.011529252 0.029010486 0.0039332025 -0.010545404 -0.0074239904 0.005447659
00000000: 7e60 60bc 82de ba3b 0f42 633b d535 483c
00000010: 3214 e2bb 8547 46bc 1e49 aeba 267c d33c
00000020: 2ce3 423a f472 cdbc ad58 693c e446 833c
00000030: e5d0 fdbc 707d a0bb 9617 2a3d a8b3 76bc
00000040: ca8c cbbc fce2 163c 5644 993c d404 4ebc
00000050: 8647 7fbc 0760 523c 873c 803c 78ef 7fbc
00000060: 476a 133c e0d5 b6bb 54a6 443a 4e4b 983c
00000070: 50dc 04bd 6522 31bc 1011 de3c 74e4 1b3c
00000080: 8929 8bbc 5fee 1fbb 560a c53b 5d96 d43b
00000090: a2e5 95bc 27fb e53b b691 353c 6bfb 27bc
000000a0: 11d4 fd3b 2cf2 f13b 7c1f 2e3b 13f9 83bc
000000b0: 68a7 90bc aadb 473b 9b8b 973c bc91 cdba
000000c0: eadf 3cbc 0a2c 4dbb 13be 0e3c a41b 82bb
000000d0: 6fcf bc3b a1eb b13c 8d1d 52bc 10e2 f7bc
000000e0: 8a43 c43c 8f76 033d 754b 97bc 2262 10bd
000000f0: dd85 b23c 3a1e c73c 63b7 d8bc 9aa2 febb
00000100: f186 4e3c 9f3a 0b3a 5f31 c1bb 3c02 97bb
00000110: 096a 4d3c ce96 873c 2962 1dbd 36c1 82b9
00000120: 1c32 343d e541 09bc bdc2 f6bc b96d e73b
00000130: ed1e 7a3c 2114 d5bc 2dfd 973b fa5f 0a3d
00000140: 672c edbc c05e e1bc b250 173d b586 863c
00000150: f6a8 94bc be55 5ebc 5ff0 ff3b 61ed 033c
00000160: 2503 143b be2b 4fbc 559e b7bb 78bb cc3b
00000170: d223 813b 2b02 15bc 74b7 063c 997d a93a
00000180: a4a5 b8bc 0b93 9a3b af96 a53c dc94 c63b
00000190: c07a 48bc 249f adbb 8fab de3b 33c9 2c3c
000001a0: d25b 4b3b dc5d a2bc a74e 1bbb e84d b13b
000001b0: dfe8 dcbb 6090 963c ee9a 083c e43b e4bc
000001c0: 46d2 ffba e5d1 863c c6e6 5d3c 343d 87bb
000001d0: 0d5a cabc b1c1 9c3b 8c69 9c3c 1b1a 38bc
000001e0: bde1 99ba 3d17 06b9 a786 b5bb 0c97 0ebc
000001f0: 359e 863c 2353 a63c 4f8f 2ebd 82fd a9bb
00000200: db30 4a3d 9a7a 11b7 762b febc 19e7 53bc
00000210: 8f4c 8c3b 78d5 c03c 7477 59bb 93c3 82bc
00000220: b40e 933c 485b b8bc 975d 85bc 18d9 ea3c
00000230: ef27 8c3c 6383 20bc f3b4 0fbc c907 dcbb
00000240: b09b 293c 4ce7 133c 91b7 aabb 8f04 cabc
00000250: 450c 003c 30fe d13c 7961 47bc 2e53 24bc
00000260: 11b2 cd3b 014c 5e3c 04d8 cdbc c6ae 363c
00000270: 8293 833c 3f5f 81bc 2b71 86bb 8669 7b3b
00000280: 3660 e4ba 043f 613c ec8f 38bb 0876 b7bb
00000290: 997b 893a e53e cbbc d076 033d 2da0 df3c
000002a0: 476a 0dbd 57ae f9bc 4d44 f83c d0c3 af3c
000002b0: fd7f c5bc c553 fdba e74a 1b3c d98e c5bb
000002c0: fb96 eb3b 095f 5fbc ff19 52bc dd7b 053d
000002d0: b35e febc 1fd1 a0bc 18a5 fd3c e0c2 2c3c
000002e0: 5f90 44bc 94ea e13a 098d 163c cc30 edb9
000002f0: 8181 5a3c 82c3 02bc 947b 41bc 9e1a 8a3a
00000300: ab31 003c a70a 28bb 5e8b 9cbc f0f1 0d3c
00000310: 942f 6e3c a539 8bbc 52e4 06bb f0ae a03c
00000320: 8141 c7bc 2642 973b 7592 e43c 2d12 c7bc
00000330: b384 88bc 8a31 c23c 15d9 b63c 4593 85bc
00000340: f625 5bbc fee9 ac3c 42c6 9bbc ccc4 92bc
00000350: b590 043d 69c9 123c 34c9 5ebc 83b2 b6bc
00000360: 6fa2 8abb bc8c 0b3d c69a 443b 56d0 adbc
00000370: 9675 27bc 8a08 153b 3433 923b 1ec1 6c3c
00000380: 8e06 393c 8f1f b2bc 05d6 70bc b349 933c
00000390: e8e7 fe3c 945a d2bc 5e27 78bc 8b41 2fbc
000003a0: e179 543c f416 d13c 7874 38bc 8dac 5cbc
000003b0: a34e 02bc 0857 b53b d44b cf3c 49a4 203a
000003c0: 5af6 2abd bfa8 c6bb 62fc 623d 1132 e4bc
000003d0: 6785 e3bc e593 9f3c d5a7 843c d98a 0abc
000003e0: 828c 0a3c 560e 7bbc 30e5 3cbc 66a7 ed3c
000003f0: 18e2 803b a1c6 2cbc f244 f3bb 4782 b23b
