jarvis_voice_cache/b2ef667bf354ed53.npy (npy, 195776 bytes, 1 tensors)

array f4 [48912]
000000 05 a7 75 3a d5 f8 64 3a 20 13 22 3a 35 f5 54 3a
       0.0009370896 0.00087345886 0.00061826594 0.0008123697
000010 df 80 2d 3a 94 59 4d 3a 0a 9d 45 3a 89 07 68 3a
       0.00066186296 0.00078334776 0.0007538354 0.00088512205
000020 9e da 60 3a be a9 52 3a ba e4 3c 3a 36 4c 0d 3a
       0.00085774984 0.0008036158 0.0007205714 0.00053900795
000030 a7 12 05 3a 60 ad 2a 3a 71 69 4c 3a a0 03 7b 3a
       0.0005076327 0.000651082 0.00077976944 0.00095754303
000040 ed 09 7e 3a 93 6c 74 3a fc a6 80 3a 3a c4 7c 3a
       0.000969081 0.000932404 0.000981539 0.0009642277
000050 39 33 88 3a 90 65 87 3a 26 66 8f 3a 96 1a 94 3a
       0.0010391242 0.0010329951 0.0010940477 0.0011299427
000060 cc a2 96 3a 6f 39 9f 3a 0a 6c a5 3a c1 00 b3 3a
       0.0011492609 0.0012147854 0.0012620699 0.0013656841
000070 59 dd ab 3a 9e aa ae 3a 1c 8f b3 3a 04 0c b2 3a
       0.0013112231 0.0013325994 0.0013699266 0.0013583903
000080 2c 82 aa 3a 78 df ac 3a 73 57 a3 3a 95 f3 a0 3a
       0.0013008765 0.0013189157 0.0012461975 0.0012279624
000090 9a ad 9a 3a 51 43 a1 3a 63 81 9c 3a bd 4b a1 3a
       0.0011801005 0.0012303387 0.0011940416 0.0012305897
0000a0 4d a8 9f 3a 21 d9 99 3a 62 1a 95 3a 00 79 96 3a
       0.0012180895 0.0011737683 0.001137566 0.0011480153
0000b0 ff 9c 93 3a ab 06 8f 3a 46 16 93 3a e8 d9 8f 3a
       0.0011261998 0.0010912021 0.0011221848 0.0010974975
0000c0 bf 1f 8c 3a 46 ac 82 3a 68 6a 82 3a 8e 7a 81 3a
       0.0010690613 0.0009969554 0.0009949924 0.0009878443
0000d0 f4 51 82 3a 06 e5 7a 3a ed ff 7b 3a 9e 95 62 3a
       0.0009942637 0.00095708703 0.0009613026 0.00086435105
0000e0 cf 41 64 3a 6d 83 53 3a 13 8f 57 3a 04 78 4c 3a
       0.0008707316 0.0008068595 0.0008222919 0.0007799866
0000f0 07 6d 3a 3a 58 53 3e 3a cc 19 35 3a 97 9f 26 3a
       0.0007111583 0.0007260344 0.0006908446 0.0006356178
000100 4a 5a 1a 3a 60 80 1a 3a ae 85 15 3a 92 5f f0 39
       0.0005888088 0.0005893763 0.0005703819 0.00045847573
000110 ca 46 f7 39 48 23 dd 39 bc 2c ca 39 53 ba 98 39
       0.00047164253 0.0004217869 0.00038561772 0.00029130522
000120 bf ae a6 39 c1 99 27 39 72 ac dd 38 24 1b d8 38
       0.00031792183 0.00015983639 0.00010570222 0.00010304738
000130 86 49 6b b7 fd f4 fb 38 4a 57 45 b8 9a f0 c3 b8
       -1.402421e-05 0.00012014245 -4.7049754e-05 -9.34314e-05
000140 c5 cc 58 b9 96 07 93 b9 d4 ee 9e b9 6d 73 82 b9
       -0.00020675648 -0.00028043677 -0.0003031405 -0.0002488153
000150 bc dc a2 b9 50 ed ab b9 91 30 b3 b9 cc 89 b4 b9
       -0.00031063508 -0.00032792473 -0.00034177725 -0.00034434942
000160 16 c0 8c b9 42 0b d0 b9 23 ff aa b9 78 39 bf b9
       -0.00026845996 -0.0003968124 -0.00032615018 -0.00036473176
000170 96 23 b4 b9 c8 c2 c5 b9 26 a9 d4 b9 81 ff a9 b9
       -0.0003435879 -0.0003771989 -0.00040561816 -0.00032424557
000180 4e 1a ba b9 75 b0 bc b9 fd 7c be b9 6b 53 b0 b9
       -0.00035496283 -0.00035989625 -0.00036332748 -0.00033631487
000190 ce 02 b6 b9 8a 55 6f b9 36 44 91 b9 1d 29 c5 b9
       -0.00034715835 -0.00022824682 -0.00027707376 -0.000376054
0001a0 a4 9e bf b9 ec eb 98 b9 31 22 ca b9 ef 40 c9 b9
       -0.00036548555 -0.00029167475 -0.00038553917 -0.00038386087
0001b0 46 7e 05 ba 7f d4 b8 b9 eb a5 c8 b9 c0 2a b9 b9
       -0.00050923636 -0.00035253537 -0.0003827059 -0.000353178
0001c0 3b 03 c3 b9 45 e7 b4 b9 67 99 bf b9 97 07 01 ba
       -0.00037195705 -0.00034504585 -0.00036544653 -0.00049220904
0001d0 ef 12 fb b9 45 29 d3 b9 80 67 08 ba 61 04 08 ba
       -0.00047888557 -0.00040275804 -0.0005203411 -0.0005188641
0001e0 2c 07 fe b9 ac 2d 2d ba 19 e8 34 ba d0 1b 1d ba
       -0.00048452 -0.0006606232 -0.00069010403 -0.0005993219
0001f0 2d d9 0a ba e0 a8 18 ba bd 47 37 ba 23 f4 11 ba
       -0.0005296644 -0.0005823504 -0.0006991586 -0.000556769
000200 35 a8 0a ba 7d 37 f4 b9 65 60 03 ba 02 6a 14 ba
       -0.0005289347 -0.0004658065 -0.00050116173 -0.00056615483
000210 1d f7 0b ba 20 e4 fd b9 be b4 02 ba eb eb d8 b9
       -0.0005339252 -0.00048425887 -0.0004986039 -0.00041374503
000220 c8 0d cd b9 5c ef a0 b9 02 08 b2 b9 ea 03 89 b9
       -0.00039110915 -0.00030695915 -0.00033956772 -0.00026133592
000230 8b a1 4d b9 d5 40 a5 b8 d7 e3 a2 b8 46 a0 56 38
       -0.00019610503 -7.879889e-05 -7.7672004e-05 5.1170842e-05
000240 86 2d 51 38 d3 f5 82 38 15 63 90 37 d0 b9 0d 39
       4.987188e-05 6.2446714e-05 1.7212276e-05 0.00013516028
000250 ff c8 14 39 43 64 68 39 a3 bb 73 39 d4 ef b7 39
       0.00014189257 0.00022162595 0.00023244186 0.00035083166
000260 ae c3 bc 39 5d cf 0e 3a 7d 9d 10 3a 13 6c fa 39
       0.00036003947 0.00054477697 0.00055166316 0.00047764237
000270 ad 74 0c 3a b9 6b 02 3a d5 21 1e 3a e0 dc 1e 3a
       0.0005357962 0.00049751584 0.0006032263 0.00060601346
000280 91 8e 1a 3a b5 55 48 3a b3 cd 5a 3a 94 07 5d 3a
       0.0005895878 0.0007642166 0.00083466916 0.000843161
000290 f7 b1 81 3a b2 7e 86 3a 5f d4 8c 3a 93 62 84 3a
       0.0009894957 0.0010261147 0.0010744444 0.0010100178
0002a0 cb 04 95 3a 0d b6 94 3a b5 02 a0 3a c4 33 ae 3a
       0.0011369226 0.0011345759 0.0012207838 0.0013290574
0002b0 e0 35 ba 3a 0e 9a b4 3a 1e 43 cd 3a a7 1e ea 3a
       0.001420673 0.0013778822 0.0015660261 0.0017861918
0002c0 f9 5b f2 3a 68 56 fb 3a ea 45 0b 3b fc 86 05 3b
       0.0018490545 0.0019175531 0.0021251389 0.0020374646
0002d0 7d 3c 0a 3b 94 62 16 3b ed 09 26 3b 30 b7 23 3b
       0.0021093183 0.002294694 0.0025335506 0.0024981014
0002e0 0f 28 27 3b 8c f2 30 3b 6a b9 3e 3b ac a9 41 3b
       0.0025506055 0.0027000038 0.0029102215 0.0029550595
0002f0 d7 1d 3e 3b d8 ad 47 3b a3 20 4b 3b d2 4c 52 3b
       0.0029009485 0.003046861 0.0030994795 0.0032089246
000300 30 44 56 3b c0 e2 4e 3b 4a d7 54 3b 55 61 60 3b
       0.0032694452 0.003156826 0.0032476955 0.0034237702
000310 f9 3a 63 3b 03 6f 5a 3b 19 0d 60 3b 2f 13 64 3b
       0.0034672602 0.0033330328 0.0034187494 0.0034801473
000320 94 80 61 3b 08 42 5c 3b cd 0f 5b 3b f3 81 59 3b
       0.0034408914 0.0033608694 0.0033426166 0.0033189028
000330 38 9b 55 3b 80 16 54 3b 43 8f 51 3b 5e dc 4c 3b
       0.0032593738 0.0032362044 0.003197626 0.0031259279
000340 21 0d 4a 3b 1e 0d 42 3b 8c 5e 46 3b bc 75 35 3b
       0.003083058 0.002960987 0.0030268757 0.0027688583
000350 ae 8b 2c 3b d1 d1 2a 3b 7d 4b 22 3b 48 41 18 3b
       0.0026328373 0.0026065002 0.0024764233 0.002323227
000360 fb e8 0c 3b 50 37 00 3b 07 b1 00 3b b0 c1 ec 3a
       0.0021501172 0.0019564219 0.0019636767 0.0018063094
000370 9e 48 cb 3a 1b 4b b9 3a 29 e9 96 3a 80 76 85 3a
       0.0015509313 0.0014136763 0.0011513579 0.001018241
000380 01 ec 5f 3a d6 7e 17 3a a9 81 fa 39 5a 3b ef 39
       0.0008541942 0.0005779093 0.0004778032 0.00045629853
000390 e7 aa 29 39 58 c7 1b b9 f5 5f 88 b9 99 74 c4 b9
       0.00016180762 -0.00014856213 -0.00026011435 -0.00037470905
0003a0 f4 e8 44 ba e4 b4 72 ba 42 7c 90 ba 9f 94 b5 ba
       -0.00075115194 -0.0009258522 -0.001102336 -0.0013853497
0003b0 27 ff c9 ba ab 02 d0 ba d9 2d f8 ba 4f 68 02 bb
       -0.0015411124 -0.0015869936 -0.0018934562 -0.0019898599
0003c0 c1 95 0a bb 1c 95 1b bb ab 44 2f bb 14 70 32 bb
       -0.002114639 -0.002374 -0.002674381 -0.0027227448
0003d0 28 6e 3a bb 7b ff 4d bb 61 f4 57 bb 9b 38 5c bb
       -0.0028447006 -0.0031432796 -0.0032952058 -0.0033603075
0003e0 d0 21 67 bb 7b df 69 bb 20 f5 76 bb 55 d7 81 bb
       -0.0035267957 -0.0035686183 -0.0037682727 -0.003962437
0003f0 48 1f 85 bb fc 53 84 bb 06 dd 8a bb 6b e1 8b bb
       -0.004062567 -0.004038332 -0.004237774 -0.0042688153
