jarvis_voice_cache/b3b253dc25d9a867.npy (npy, 209088 bytes, 1 tensors)

array f4 [52240]
0	0x3a3d7e2b	0.00072285783
1	0x39a7beb3	0.00031994804
2	0x3833e334	4.2888525e-05
3	0x395aa86c	0.00020852842
4	0xb910c9a2	-0.00013808024
5	0x39105a2e	0.00013766505
6	0x375f89d5	1.3323927e-05
7	0xb8f5d0ef	-0.00011721427
8	0x372c5b3c	1.0273241e-05
9	0x379f9ae0	1.9026396e-05
10	0x38030808	3.1240314e-05
11	0xb8510de6	-4.9842427e-05
12	0xb84791bb	-4.758102e-05
13	0xb68512d6	-3.9659017e-06
14	0xb71e75d5	-9.444969e-06
15	0x37e29cbd	2.7014286e-05
16	0x36c1df6c	5.777858e-06
17	0x36d6ad41	6.3978664e-06
18	0x37e2fd97	2.7059386e-05
19	0xb70f6990	-8.548042e-06
20	0x37f0f76b	2.8725442e-05
21	0x381176a7	3.4681198e-05
22	0xb49b34e7	-2.890949e-07
23	0xb8419fd0	-4.6163623e-05
24	0xb88ac688	-6.617332e-05
25	0xb8b8eec7	-8.8182795e-05
26	0xb89f8c4f	-7.607845e-05
27	0xb71d1fe1	-9.365352e-06
28	0xb80cc5de	-3.356288e-05
29	0xb7a65445	-1.9827983e-05
30	0xb7d9e90e	-2.597694e-05
31	0xb8ab80f8	-8.177938e-05
32	0xb89930b3	-7.3046795e-05
33	0xb744ae8d	-1.1723151e-05
34	0xb744429d	-1.169802e-05
35	0xb7801f7a	-1.5273446e-05
36	0xb88fc6b4	-6.855783e-05
37	0xb8b2b6da	-8.52176e-05
38	0xb8e500a2	-0.00010919689
39	0xb8a171c8	-7.698272e-05
40	0xb8af847c	-8.3693274e-05
41	0xb7f324d2	-2.8985003e-05
42	0xb8383e0f	-4.3926815e-05
43	0xb771a118	-1.4402227e-05
44	0xb8bae96f	-8.9126515e-05
45	0xb81d47ce	-3.749859e-05
46	0x37bea4da	2.272653e-05
47	0x38e8c479	0.00011099218
48	0x37d49511	2.5341784e-05
49	0x37e055a1	2.6742755e-05
50	0x3722ffc6	9.715504e-06
51	0x3807e9da	3.24043e-05
52	0x373bf74c	1.1203647e-05
53	0xb81470fe	-3.5391182e-05
54	0x3687e19b	4.0495775e-06
55	0x383064fa	4.205571e-05
56	0x37c3e282	2.3351287e-05
57	0x38bc3ed9	8.976245e-05
58	0x394ab5ee	0.00019331995
59	0x39184f75	0.0001452545
60	0x38e1975e	0.000107570304
61	0x39190c04	0.00014595693
62	0x3978d420	0.00023730146
63	0x3922ddfa	0.00015532217
64	0x392ba31b	0.00016368592
65	0x3915bec2	0.0001428081
66	0x393380a0	0.00017118687
67	0x38846d2e	6.314587e-05
68	0x38f16d27	0.00011512107
69	0x3917a3e2	0.00014461533
70	0x38d586ad	0.00010181717
71	0x38b02c82	8.400624e-05
72	0x38bc1821	8.969033e-05
73	0x390a7775	0.00013205207
74	0x38cad579	9.671873e-05
75	0x3935461d	0.00017287624
76	0x39025e53	0.00012432905
77	0x388bd957	6.668519e-05
78	0x386244e9	5.3946776e-05
79	0x3805b50b	3.187828e-05
80	0x363d90f6	2.8247573e-06
81	0x373f37d7	1.1397488e-05
82	0x3807d902	3.2388612e-05
83	0x388de7e2	6.7665955e-05
84	0x38ef915d	0.00011423484
85	0x38c2dce0	9.291782e-05
86	0x38d75942	0.000102686245
87	0x393dec71	0.00018112526
88	0x39690474	0.0002222227
89	0x39138f02	0.00014072287
90	0x3933fd32	0.00017165093
91	0x3954b3d9	0.00020284894
92	0x39820e0c	0.00024805998
93	0x396c8b03	0.000225585
94	0x394bf74c	0.00019451714
95	0x3951fa47	0.00020025029
96	0x3996f1fd	0.00028790525
97	0x392fab08	0.00016753015
98	0x398e32ef	0.000271223
99	0x38ce15f7	9.826937e-05
100	0x38de6c1a	0.000106059204
101	0x39110a0e	0.00013832023
102	0x3943c21b	0.00018668959
103	0x394893bf	0.00019128526
104	0x399c2297	0.0002978041
105	0x3929295b	0.00016132502
106	0x3994d657	0.00028388455
107	0x395edd77	0.00021254072
108	0x39a4e882	0.0003145375
109	0x3a017c32	0.0004939466
110	0x39d6515c	0.00040877878
111	0x3a1f24fc	0.000607088
112	0x3a606367	0.0008559734
113	0x3a34f26d	0.00069025793
114	0x3a1ef8d1	0.0006064298
115	0x3a1b3b3d	0.0005921608
116	0x39d39a29	0.00040359914
117	0x3997d432	0.00028959062
118	0x39947673	0.0002831701
119	0x38d10aac	9.9678844e-05
120	0xb93bf7da	-0.00017926042
121	0xb9af032d	-0.00033380967
122	0xb9c0ecc3	-0.00036797495
123	0xba30f89d	-0.00067509135
124	0xba4febf4	-0.0007931583
125	0xb9f44e37	-0.0004659758
126	0xb90a9294	-0.0001321531
127	0xb9aa9771	-0.0003253776
128	0xba2b6720	-0.0006538499
129	0xb98da00b	-0.00027012857
130	0x3a1e2426	0.0006032608
131	0x39075c98	0.00012909097
132	0x39e21439	0.00043121146
133	0x3a82d8d6	0.0009982835
134	0x3abf4f75	0.0014595824
135	0x3a9a6b52	0.0011781252
136	0x3a446139	0.0007491294
137	0x3a9506c9	0.001136982
138	0x3ae1b06e	0.0017218718
139	0x3aa1462f	0.0012304242
140	0x3abf311c	0.0014586779
141	0x3a8ff04f	0.0010981652
142	0x3a09ebb3	0.0005261257
143	0x3a632535	0.0008664907
144	0x39a01442	0.0003053267
145	0x38fa7e04	0.00011944401
146	0x39d6a765	0.0004094198
147	0x39cc598f	0.00038976638
148	0x3a145155	0.00056578714
149	0x38e3a82f	0.0001085553
150	0xb95b0ea5	-0.00020890923
151	0xb925e2f4	-0.00015820173
152	0xb9092874	-0.00013080408
153	0x39bf5a35	0.00036497568
154	0x39f5d30e	0.0004688729
155	0xb966db02	-0.00022016096
156	0xba818988	-0.0009882906
157	0xbad31102	-0.0016103091
158	0xbab2086f	-0.0013582836
159	0xbb0c6cce	-0.0021427157
160	0xbb24cea3	-0.002514758
161	0xbac58cd6	-0.001507188
162	0xba6ee59b	-0.00091131934
163	0xb931069c	-0.00016882498
164	0x37ff7759	3.0453944e-05
165	0x3930ac44	0.00016848842
166	0x3aa5f1ca	0.001266056
167	0x3a970a59	0.001152347
168	0x3ac50c45	0.0015033564
169	0x3aa7a8bb	0.0012791374
170	0x3a5a59f6	0.0008329445
171	0x39a926b9	0.00032263043
172	0xb7db09ed	-2.6111456e-05
173	0xb9088b54	-0.00013021874
174	0xba1b7315	-0.00059299293
175	0xba62419b	-0.0008630992
176	0xba4be0a8	-0.0007777312
177	0xb953378b	-0.0002014322
178	0x38b70b84	8.728265e-05
179	0x3a126522	0.0005584528
180	0x3a670d89	0.00088139676
181	0x3ab044c3	0.0013448227
182	0x3b052ac1	0.0020319673
183	0x3b04a9da	0.002024284
184	0x3b571485	0.0032818627
185	0x3b630134	0.0034638168
186	0x3b0048db	0.0019574675
187	0x38b70af3	8.7281594e-05
188	0xb9a1f868	-0.0003089339
189	0x39253f0c	0.00015759113
190	0xba5e4b50	-0.00084798504
191	0xbb4fbbfa	-0.0031697736
192	0xbb8ef0ec	-0.004362216
193	0xbb5362d3	-0.0032254949
194	0xbb1f7eb6	-0.0024337
195	0xbb327367	-0.002722943
196	0xbb55f78c	-0.003264877
197	0xbb2ed974	-0.0026679905
198	0xb983b546	-0.00025121326
199	0x397bffae	0.00024032473
200	0xb96508c0	-0.00021842401
201	0x3a009e19	0.0004906371
202	0x3ae360f8	0.0017347625
203	0x3ae86384	0.0017729853
204	0x3a83a5c8	0.0010043913
205	0x3b23f72e	0.0025019157
206	0x3b12e6b3	0.002241534
207	0xb6f2c9d3	-7.2356574e-06
208	0xbab102c7	-0.0013504856
209	0xba2087e8	-0.0006123767
210	0xb83f68d1	-4.5635566e-05
211	0xbaa1c633	-0.0012342393
212	0xbac3ee38	-0.0014948314
213	0xba7836d7	-0.0009468621
214	0x3a8544cc	0.0010167598
215	0x3aa8673a	0.0012848147
216	0x39e8446c	0.00044301467
217	0x3ab3c57d	0.0013715472
218	0x3adff088	0.0017085234
219	0x3ad89973	0.0016525224
220	0x3a925c8e	0.00111665
221	0x3a9de168	0.0012045326
222	0x39e06e41	0.00042806755
223	0xba3e563c	-0.0007260775
224	0xba8f9436	-0.0010954204
225	0xba3360a0	-0.00068427064
226	0xbad39479	-0.0016142271
227	0xbb50e2ab	-0.0031873386
228	0xbb2d5ff1	-0.002645489
229	0xbb43a6ef	-0.002985414
230	0xbae6a5ad	-0.0017596983
231	0xba464030	-0.0007562665
232	0xba311e9b	-0.0006756575
233	0xba4866b5	-0.0007644699
234	0xba49ed64	-0.00077029155
235	0x3b0b3065	0.0021238562
236	0x3af58f30	0.001873469
237	0x3b290aaf	0.0025793721
238	0x3a0350f3	0.0005009316
239	0x3a9404fc	0.0011292989
240	0x3aeb41a2	0.0017948637
241	0xba9002c9	-0.0010987158
242	0xbab43ea4	-0.0013751579
243	0xbb029f29	-0.0019931293
244	0xbb271d99	-0.002549982
245	0xbb8a6b34	-0.0042242054
246	0xbb4f1c50	-0.003160257
247	0xbb5868d6	-0.0033021471
248	0xbb4903bb	-0.003067239
249	0xba8b0b8a	-0.0010608297
250	0xba97f7d8	-0.0011594249
251	0x39fe0c20	0.0004845569
252	0xba0a80cb	-0.0005283474
253	0x3953fb66	0.00020216181
254	0x3ab3b3f5	0.0013710248
255	0x3b3565ce	0.0027679089
