jarvis_voice_cache/b3e99edcdaff8c55.npy (npy, 231616 bytes, 1 tensors)

array f4 [57872]
0.0010969588 0.0009624936 0.0008411991 0.001295578 0.00091237656 0.0011198248 0.0009359152 0.0006796207
0.0002528521 8.9653775e-05 0.00013108585 0.00024924066 0.00044375364 0.00062940235 0.0006605038 0.000747534
0.0008189516 0.0010266125 0.0010517872 0.0011310041 0.001158205 0.0010611208 0.0010952335 0.0009923051
0.0010483791 0.0010547987 0.0011738942 0.0012215873 0.0010513796 0.0009701316 0.00096975383 0.00086997444
0.0008002997 0.0007557271 0.00076076924 0.00067264563 0.00056797575 0.0005615919 0.0005460238 0.00057557435
0.0005432469 0.00057001575 0.00047643666 0.00056850514 0.0004146525 0.00038955171 0.00036063167 0.00039073126
0.0003034733 0.0001760583 0.0001249977 5.0723993e-05 1.2486791e-05 -6.208567e-05 -5.0730607e-05 -0.00018037546
-0.0001460295 -0.00024366182 -0.000217306 -0.00031485024 -0.00029532833 -0.000432592 -0.00038428724 -0.00047147786
-0.0005071706 -0.00053892843 -0.0004696856 -0.00070176605 -0.0006679891 -0.0006950518 -0.0007040396 -0.0007884659
-0.0008912591 -0.0008014179 -0.00084103196 -0.0007444782 -0.00083000324 -0.00075714214 -0.00079297356 -0.0007953682
-0.0008815388 -0.0009181706 -0.00088421884 -0.0008219512 -0.0009762636 -0.0009505283 -0.0008942979 -0.00092067505
-0.0008866074 -0.0009606123 -0.0008816169 -0.00084662193 -0.00084048364 -0.00090735225 -0.0008868166 -0.00086484686
-0.0007770261 -0.0007308302 -0.00068611663 -0.0006561761 -0.00049656426 -0.00035955725 -0.00040536662 -0.00035684745
-0.00023345061 -0.00015136406 -0.00011872387 3.595818e-05 8.641703e-05 0.0002731357 0.00037078414 0.00042877242
0.00058154034 0.00078016403 0.0009068943 0.0009271403 0.0011280205 0.0013066396 0.0014520406 0.001646614
0.0018733377 0.0019267837 0.002150374 0.0024358695 0.002720862 0.002908657 0.002983791 0.0031856692
0.0034178116 0.0036634868 0.0038710625 0.003974423 0.0041498565 0.0042772167 0.0044712685 0.0045679137
0.004586657 0.004680957 0.0046747327 0.004731521 0.0048118364 0.004817496 0.004693874 0.0047527384
0.004603001 0.0043085422 0.004164838 0.0040731034 0.003840275 0.0035365126 0.0032057466 0.003011749
0.0026568857 0.0024830184 0.0019999368 0.0016874552 0.0012624768 0.0006432669 0.0002415008 -0.00015331844
-0.0006631772 -0.00096531515 -0.0014549145 -0.0018166904 -0.002131146 -0.002469242 -0.0028351583 -0.0032100258
-0.0034352278 -0.003663376 -0.003915341 -0.003856312 -0.004060656 -0.0041712183 -0.0040787035 -0.004047711
-0.003851202 -0.0036911797 -0.003422817 -0.00309302 -0.0027691668 -0.0021478664 -0.001689012 -0.001214299
-0.0008040972 -0.00021559058 0.00032281358 0.00080192916 0.0012489324 0.0017931544 0.0022844728 0.0027439075
0.0029995556 0.0031149783 0.0033042845 0.0035303088 0.0034535553 0.0032301522 0.0028903708 0.0025153216
0.0021644998 0.001695019 0.000912714 9.733978e-05 -0.0007833902 -0.0017658406 -0.0027825695 -0.0039627277
-0.0052750786 -0.006683241 -0.008085373 -0.009603639 -0.011275398 -0.012890839 -0.014435608 -0.016320236
-0.018327188 -0.019827958 -0.021223728 -0.0231823 -0.024918618 -0.026270417 -0.02766606 -0.029436955
-0.030697448 -0.03179943 -0.032811783 -0.033713605 -0.034480043 -0.03494695 -0.034622096 -0.034219176
-0.03367282 -0.032674424 -0.030938054 -0.028994128 -0.026603714 -0.023898609 -0.020860173 -0.016308857
-0.011146846 -0.0061477176 -0.0006557774 0.005231491 0.010545383 0.015744295 0.02121537 0.026991395
0.03266912 0.037575867 0.042073045 0.047957283 0.054087095 0.058810282 0.06310243 0.0683318
00000000: d4c7 8f3a da4f 7c3a ea83 5c3a 62d0 a93a
00000010: 8e2c 6f3a 16c7 923a 3558 753a 9328 323a
00000020: 3c91 8439 8104 bc38 1774 0939 84ac 8239
00000030: 9ba7 e839 7afe 243a a925 2d3a 28f6 433a
00000040: e9ae 563a 668f 863a 1fdc 893a 333e 943a
00000050: e9ce 973a 4e15 8b3a f08d 8f3a 3c10 823a
00000060: c469 893a 2c41 8a3a 5add 993a ab1d a03a
00000070: 72ce 893a 6e50 7e3a 1437 7e3a ff0e 643a
00000080: 34cb 513a fd1b 463a 5c6e 473a 7c54 303a
00000090: 35e4 143a cb37 133a 0923 0f3a 24e2 163a
000000a0: af68 0e3a 1c6d 153a 3fca f939 bc07 153a
000000b0: b765 d939 bf3c cc39 2a13 bd39 10db cc39
000000c0: 7f1b 9f39 4a9c 3839 d111 0339 79c0 5438
000000d0: 5c7e 5137 fe33 82b8 93c7 54b8 2b23 3db9
000000e0: 7f1f 19b9 797f 7fb9 a3dc 63b9 7c12 a5b9
000000f0: 4cd6 9ab9 84cd e2b9 297a c9b9 b030 f7b9
00000100: a5f3 04ba e046 0dba 2240 f6b9 b9f6 37ba
00000110: fd1b 2fba 2334 36ba 4c8f 38ba 0db1 4eba
00000120: 63a3 69ba 3f16 52ba b378 5cba 1629 43ba
00000130: 9394 59ba f37a 46ba 8edf 4fba 4280 50ba
00000140: 1117 67ba 63b1 70ba ecca 67ba 3678 57ba
00000150: f1eb 7fba e02c 79ba 516f 6aba 7559 71ba
00000160: 376b 68ba 9ad1 7bba 4f1c 67ba d6ef 5dba
00000170: e753 5cba 61db 6dba 4179 68ba e4b6 62ba
00000180: 57b1 4bba 2f95 3fba 82dc 33ba 3c03 2cba
00000190: dd2b 02ba f582 bcb9 6387 d4b9 4117 bbb9
000001a0: 6cca 74b9 7bb7 1eb9 64fb f8b8 cdd1 1638
000001b0: ca3a b538 a733 8f39 ce65 c239 dccc e039
000001c0: 8372 183a ec83 4c3a a5bc 6d3a 550b 733a
000001d0: 16da 933a 8d43 ab3a 6652 be3a 33d3 d73a
000001e0: c88a f53a 228c fc3a 4aed 0c3b 1ca3 1f3b
000001f0: 7d50 323b 2b9f 3e3b b58b 433b a9c6 503b
00000200: 5dfd 5f3b 1c17 703b a7b1 7d3b e03b 823b
00000210: 85fb 873b e527 8c3b b883 923b 70ae 953b
00000220: ab4b 963b b762 993b 802e 993b e00a 9b3b
00000230: 9cac 9d3b 16dc 9d3b 12cf 993b dcbc 9b3b
00000240: c5d4 963b ac2e 8d3b 3279 883b ab77 853b
00000250: 20ad 7b3b d6c4 673b 8117 523b c360 453b
00000260: 251f 2e3b 23ba 223b 5f11 033b 9a2d dd3a
00000270: b179 a53a e9a0 283a 613b 7d39 1bc4 20b9
00000280: 12d9 2dba 340d 7dba d4b2 beba 041e eeba
00000290: b2aa 0bbb 02d3 21bb 10ce 39bb 4c5f 52bb
000002a0: 8f21 61bb 4015 70bb 434c 80bb 2eba 7cbb
000002b0: 400f 85bb b7ae 88bb a5a6 85bb a9a2 84bb
000002c0: 7364 7cbb b8e7 71bb 5751 60bb 44b4 4abb
000002d0: e97a 35bb 38c3 0cbb d761 ddba 1d29 9fba
000002e0: 0dca 52ba 2810 62b9 4e3f a939 8e38 523a
000002f0: 38b3 a33a 4708 eb3a 18b7 153b 21d3 333b
00000300: 3194 443b aa24 4c3b b28c 583b c15c 673b
00000310: 0b55 623b f6b0 533b 606c 3d3b 18d8 243b
00000320: 48da 0d3b 662b de3a 3343 6f3a e522 cc38
00000330: 6d5c 4dba c773 e7ba c55b 36bb c5d9 81bb
00000340: 91da acbb 17ff dabb 8378 04bc 9558 1dbc
00000350: 72bc 38bc 1934 53bc 5483 6cbc 04b2 85bc
00000360: e622 96bc 3e6e a2bc 62dd adbc cfe8 bdbc
00000370: 2122 ccbc 0f35 d7bc efa3 e2bc c525 f1bc
00000380: 3779 fbbc 1e40 02bd a665 06bd 4717 0abd
00000390: f23a 0dbd 8824 0fbd e6cf 0dbd 6829 0cbd
000003a0: 83ec 09bd 9ed5 05bd cd71 fdbc 1885 edbc
000003b0: 08f0 d9bc 04c7 c3bc f4e2 aabc 279a 85bc
000003c0: 43a1 36bc cb72 c9bb 7ae8 2bba ed6c ab3b
000003d0: 8bc6 2c3c 2efa 803c dbcb ad3c 0f1d dd3c
000003e0: 0ed0 053d 27e9 193d c954 2c3d db6e 443d
000003f0: 6e8a 5d3d 0de3 703d d93b 813d 8bf1 8b3d
