jarvis_voice_cache/b4637d7d27a058e2.npy (npy, 173248 bytes, 1 tensors)

array f4 [43280]
00000000: 4a6b 923a 1496 8a3a 833a 663a af8e 8e3a
00000010: 4f00 2a3a 7943 173a dcba a039 33b7 b939
00000020: baff 29b7 4975 9039 8bcf 84b8 f5e7 e5b8
00000030: 925f 2b39 0695 8139 d488 5e39 caec 0d3a
00000040: bfac 603a a93d 913a a64c a03a 8752 b03a
00000050: 6d88 be3a d537 bc3a d417 bd3a 6e55 aa3a
00000060: fc99 cd3a 949f e13a 51ab 073b c3f1 0c3b
00000070: 6241 0c3b 2110 053b 15cc 113b 3ff3 153b
00000080: 626c 163b d1be 113b ffed 0f3b 3293 ec3a
00000090: 590e bc3a be5a ad3a 61cc a43a 19e5 6f3a
000000a0: 359b 083a e5e9 413a 0e01 3b3a 7e8e 503a
000000b0: 3f01 253a 24e6 563a c9ee 843a 8421 853a
000000c0: fcd1 513a 96bb 143a f851 253a e2f6 d039
000000d0: 866f 9539 7dbc ad38 3577 e237 3243 95b8
000000e0: b01d 3db9 3550 06ba c9c9 64b9 1bad 19ba
000000f0: 5f4d 0fba af00 37ba e3cc 47ba 796b 59ba
00000100: 2a5b 7fba 3ad0 74ba 81cc 4aba fcb6 91ba
00000110: c93f 9dba 24cf 8eba dc79 9dba 083a b2ba
00000120: cdee dcba 88e8 c4ba eb56 c3ba 3703 dcba
00000130: 3cdf d5ba 6f26 c7ba 2f6e b2ba 19bb bbba
00000140: c2c3 c2ba 3c8b a6ba dbbd 81ba 69ab 7cba
00000150: 13ad 6bba b9c7 6eba 578a 02ba f039 0eba
00000160: abce e8b9 834c 0aba df2b e0b9 620b f6b9
00000170: 3f5f 17ba 254b e1b9 eca9 bcb9 eb93 1bb9
00000180: b124 bfb8 772c 59b6 5a67 9b39 0672 d239
00000190: 9083 013a d42c 4e3a 311c 343a 8a39 073a
000001a0: 9c6d 323a 775a 9e39 90b1 1239 7d89 5839
000001b0: bf18 9c37 46eb 3bb8 2011 c2b9 fddd deb9
000001c0: 71c1 44b9 3439 c8b9 0efc e7b9 bfd1 4fba
000001d0: 33b3 5eba 11dd 57ba b779 5aba 93d0 4fba
000001e0: 6280 8aba 30a8 7bba 9586 c4b9 f735 dfb9
000001f0: cd7a 1cba 6dc9 75b9 ab3f fbb8 791c b1b8
00000200: 2fc1 10b9 6b56 d939 9437 743a e694 3e3a
00000210: de73 7d3a 859e 9c3a 94d9 be3a c19d dd3a
00000220: feff f03a 8f2f 143b e505 2c3b d841 323b
00000230: 04dd 573b 1983 4e3b 68e2 293b a8a6 423b
00000240: 1a98 0c3b ab75 d23a ca6a 8b3a 40bb 533a
00000250: 0ee2 633a cd7a 9039 bcd8 1a3a af8a 2b3a
00000260: 329d 2b3a 00c8 8a3a f73f 833a 2850 a83a
00000270: 2c21 553a 99af e639 f752 e839 cce3 8438
00000280: c245 a738 6a82 003a dbb5 bb38 df7b 463a
00000290: e2ed 7c3a d34d 803a a4e5 ba3a 39e1 c73a
000002a0: b98d 0e3b f645 043b dae2 0d3b f249 0d3b
000002b0: 2f7d 023b 5048 203b fc14 043b a179 df3a
000002c0: ff9e d63a eaf6 8c3a a4ed 273a 73ce 113a
000002d0: 0a64 b039 91b9 6fb9 c1f7 aeb9 b047 7eb8
000002e0: f375 e2b8 7128 e4b9 df94 61ba 5dba d2ba
000002f0: c37b f1ba 9722 1cbb b4ca 48bb 59e9 70bb
00000300: 3746 99bb bddc 9ebb e32f a8bb 176d bbbb
00000310: 30a4 b9bb 4fef bfbb 41f9 c7bb 2bbf bbbb
00000320: 7d0b c9bb 6bf5 b4bb 0cd0 8cbb b9c0 6cbb
00000330: 4ca8 2fbb 05cc aeb9 2830 013b 28d9 3b3b
00000340: ae5f 8f3b 1125 f33b d0bf 1a3c 3c2f 1b3c
00000350: b2dc 1f3c 8ff2 3c3c 77a9 613c 75dd 5c3c
00000360: 1b05 4c3c c087 453c ae48 403c 5a07 173c
00000370: 3b2b d33b b9d6 a63b 4e04 563b 9be3 543a
00000380: 3320 ddb9 47ce d2ba 0807 4fbb 9232 8bbb
00000390: ee11 8abb 1c25 a0bb 4818 b1bb 79df 86bb
000003a0: ae74 77bb 4e52 94bb 2f05 7cbb fa29 27bb
000003b0: add6 c2ba b586 ccba d6eb 9bba 82f5 8fb9
000003c0: 068b 8f3a a906 973a d721 0b3b 6c34 733b
000003d0: de7f a63b 3183 b13b 4604 da3b 499e e73b
000003e0: e8cc e33b f2ba d53b 1a47 b63b 8340 913b
000003f0: 7037 523b 44c5 ae3a 4efb 2439 670f aa39
0.0011170891 0.0010573291 0.00087825226 0.0010876263 0.00064850313 0.0005770247 0.000306568 0.00035422444
-1.0132726e-05 0.00027553205 -6.3329084e-05 -0.00010962776 0.00016343434 0.00024715828 0.00021222542 0.00054140075
0.0008570663 0.0011080998 0.0012229874 0.001345233 0.0014536508 0.0014359901 0.0014426657 0.0012995431
0.001568615 0.0017213696 0.0020701478 0.0021506406 0.0021401276 0.0020303803 0.0022246887 0.0022880582
0.0022952785 0.002223898 0.0021961925 0.0018049239 0.0014347538 0.0013225896 0.0012573117 0.00091512647
0.0005211116 0.0007397219 0.0007133641 0.00079558033 0.0006294436 0.0008197746 0.0010141964 0.0010157083
0.00080040074 0.00056737044 0.0006306465 0.00039856794 0.00028502586 8.2843915e-05 2.699681e-05 -7.11739e-05
-0.00018035504 -0.0005123646 -0.00021818945 -0.00058622815 -0.0005466546 -0.0006980998 -0.0007621778 -0.0008293908
-0.00097410625 -0.00093388895 -0.0007736162 -0.0011117156 -0.0011997159 -0.0010895473 -0.0012014466 -0.0013597617
-0.0016855836 -0.0015022913 -0.0014903223 -0.0016785626 -0.0016317139 -0.0015193949 -0.001361316 -0.0014322727
-0.0014859366 -0.001270629 -0.00098985 -0.0009638579 -0.00089903286 -0.00091087405 -0.00049797207 -0.00054255035
-0.00044404468 -0.00052756834 -0.00042757296 -0.00046929257 -0.00057743856 -0.0004297133 -0.00035984756 -0.00014837056
-9.114424e-05 -3.2361402e-06 0.00029640907 0.00040139275 0.0004940564 0.0007864956 0.0006870656 0.00051584153
0.0006806494 0.0003020351 0.00013989792 0.00020650584 1.8608172e-05 -4.480339e-05 -0.00037015323 -0.00042508534
-0.00018764079 -0.00038189592 -0.0004424755 -0.0007927678 -0.00084953307 -0.00082345406 -0.0008334177 -0.00079275033
-0.0010566826 -0.0009599952 -0.00037484305 -0.0004257408 -0.00059692265 -0.00023440058 -0.00011980472 -8.445321e-05
-0.00013804877 0.00041453852 0.0009316143 0.00072701124 0.00096684496 0.0011949098 0.0014560693 0.0016907976
0.0018386838 0.0022611355 0.002624863 0.002719989 0.0032938132 0.0031511246 0.0025922302 0.0029701386
0.0021452964 0.0016056796 0.0010636684 0.00080769137 0.00086930476 0.00027557314 0.000590693 0.0006543798
0.0006546556 0.0010588169 0.001001357 0.0012841271 0.0008130248 0.0004399985 0.00044312302 6.336681e-05
7.976174e-05 0.0004902246 8.950728e-05 0.0007571559 0.00096484844 0.0009788818 0.0014259112 0.0015249617
0.0021751954 0.0020183302 0.0021650107 0.0021558967 0.001991104 0.0024457164 0.002015411 0.0017049798
0.0016374289 0.0010754738 0.00064059556 0.00055620744 0.0003364387 -0.00022861945 -0.00033372457 -6.0625083e-05
-0.000107984895 -0.0004351768 -0.00086052524 -0.0016077269 -0.0018423725 -0.0023824328 -0.0030638399 -0.003676018
-0.0046775597 -0.0048480914 -0.0051326617 -0.0057197916 -0.0056653246 -0.005857385 -0.0061027114 -0.005729576
-0.0061354027 -0.00552242 -0.004297262 -0.0036125614 -0.0026803194 -0.00033339873 0.0019712541 0.002866337
0.0043754196 0.00742019 0.009445146 0.009471711 0.009757208 0.01153244 0.013773314 0.013480534
0.012452389 0.012056291 0.011736078 0.009218061 0.0064443625 0.005091515 0.0032656374 0.0008121074
-0.00042176395 -0.0016083204 -0.0031589884 -0.004247972 -0.004213563 -0.0048872363 -0.005404506 -0.0041159955
-0.0037758755 -0.004526413 -0.0038455238 -0.0025507198 -0.0014865004 -0.0015604111 -0.0011895846 -0.00027458003
0.0010951466 0.0011522371 0.0021229887 0.0037110103 0.005081161 0.0054172506 0.0066533415 0.0070684296
0.006951917 0.0065225298 0.005562675 0.004432739 0.00320765 0.0013333936 0.00015733877 0.00032436402
