jarvis_voice_cache/b50e7979f007ae8c.npy (npy, 226496 bytes, 1 tensors)

array f4 [56592]
0.00046501603 0.00033651435 -1.2916135e-05 0.00013518361 -6.763482e-06 5.081645e-05 1.3579097e-05 8.707004e-06
-7.0509583e-07 2.5191983e-05 2.3936465e-05 -4.6615594e-05 -4.7982845e-05 5.9140875e-06 1.0705676e-06 2.415311e-05
1.0465661e-05 1.0097652e-05 1.0798743e-05 -3.2388903e-06 7.0068368e-06 3.3786266e-05 1.136891e-05 -2.3413476e-07
-1.2566821e-05 8.8349725e-06 1.0322042e-05 2.6003714e-05 -5.9914146e-06 4.5888487e-06 -1.4098363e-06 -1.9322855e-05
7.8317e-06 1.5239413e-05 -4.460695e-05 -5.6277244e-05 -5.296523e-05 -2.3766308e-05 -7.134551e-05 -4.129674e-05
-6.095538e-05 -1.4667907e-05 -4.614244e-05 -1.8945786e-05 -8.1537655e-05 -9.308418e-05 -9.058641e-05 -6.315704e-05
-6.7259214e-05 -0.0001076349 -0.000107651016 -9.6334225e-05 -0.00011233709 -0.0001913187 -0.00019053878 -0.00015127692
-0.00014464703 -0.000115807874 -6.4125044e-05 -0.000121436686 -0.00014909141 -0.00012002885 -9.190006e-05 -0.00013493598
-9.8440476e-05 -9.914692e-05 -9.303831e-05 -6.478056e-05 -1.4219174e-06 1.8654076e-05 2.4694084e-05 1.6599612e-05
2.3040855e-05 1.2151419e-05 2.1988583e-07 7.0059454e-05 9.70802e-05 6.1805855e-05 3.782055e-05 5.7467365e-05
4.730294e-06 3.255963e-05 2.213082e-05 4.6980153e-05 4.7751444e-05 8.960185e-05 9.487553e-05 0.00012536306
0.000120631456 0.00012231822 0.00014817336 0.00017538466 0.00024107736 0.00023739245 0.00025283126 0.00023809363
0.00028467615 0.0002638019 0.00031505802 0.00018001016 0.00029993634 0.00019689575 0.00026319298 0.00022617356
0.00028171338 0.00022733994 0.0002318131 0.00025862706 0.00028084256 0.00037098612 0.00032780334 0.0003825492
0.00040319876 0.0003632061 0.00038457854 0.0002266879 0.00022275589 0.00012267298 0.00022281133 0.00011536331
0.00014364568 0.00010806267 0.00010554782 0.00027686355 0.00020750835 0.0003404719 0.0003365925 0.0002057175
0.00017916034 0.000113110036 0.00033287727 9.358364e-05 0.00013929493 0.00013862838 0.00017121967 5.188989e-05
-1.1380587e-05 6.3011903e-06 6.862624e-05 -6.208089e-06 0.0001579406 0.00027997434 0.00027441504 0.00054276735
0.000360148 0.00024100895 0.00018762007 0.00018293323 1.1689203e-05 -0.00014580126 -0.0002633629 -0.00016512354
-1.0555098e-05 8.093138e-05 0.00025320592 0.00025412958 0.00024998674 0.000105831066 0.00013233548 7.814072e-06
-4.1760188e-05 6.3931395e-05 -2.2821168e-05 -3.3238193e-05 5.953747e-06 -7.3941635e-05 2.3835088e-05 -0.00027817825
-0.00028699482 -0.00031762462 -0.00023336572 -0.00013656728 -5.9558897e-05 0.00030175046 0.0003136801 0.00032205458
0.00028008892 4.3101543e-05 0.00012649468 0.00030905998 0.00014659748 3.9545364e-05 -4.0194113e-06 0.00015863178
0.0002739005 0.00046458092 0.00044765417 8.509214e-05 -0.00012953514 1.4709666e-06 8.3602885e-05 -0.00043130005
-0.0006037151 -0.00025113317 0.00015103772 3.0338593e-05 1.04887085e-05 -0.00031915927 -0.0001253382 -0.00014059599
-0.00049331615 -0.00046020036 -0.0003168071 -0.00032841478 -0.0007843885 -0.00043181548 -0.00031777038 -0.00077314477
-0.0009962016 -0.0006994606 -0.00053858815 -0.0007265637 -0.000746207 -0.00017141324 0.00046680812 0.00053172896
0.0003744883 5.586214e-05 -0.0001372384 -0.00011098461 -0.00060990034 -0.00057298987 -0.0002910533 -0.0003141934
0.00015876541 0.00056438276 0.0004740067 -0.00018656862 -0.00010776581 -8.771767e-05 4.1009775e-05 -9.923674e-05
-0.00054376613 -0.00096030795 -0.0009574986 0.00017439875 0.0004705324 0.00025205128 -0.0005094809 -0.00019153423
0.00028443526 -0.0005819409 -0.00053364516 -0.00036072262 -0.00030501178 -0.00043991426 -0.00077898835 -0.00079454
-0.0008781959 -0.0006524776 -0.0008718901 -0.0006727241 -0.00064038765 -0.00041515438 -1.540713e-05 0.0005948004
00000000: 65cd f339 316e b039 61b2 58b7 13c0 0d39
00000010: def1 e2b6 bf23 5538 c7d1 6337 4c14 1237
00000020: d145 3db5 5f53 d337 2bcb c837 1d85 43b8
00000030: 3041 49b8 a071 c636 6cb0 8f35 699c ca37
00000040: ac95 2f37 1669 2937 3f2c 3537 b65b 59b6
00000050: 451c eb36 bab5 0d38 19bd 3e37 7966 7bb4
00000060: 16d6 52b7 eb39 1437 d52c 2d37 8d22 da37
00000070: dc09 c9b6 e9f9 9936 9b39 bdb5 8417 a2b7
00000080: e564 0337 c8ac 7f37 5918 3bb8 3b0b 6cb8
00000090: fc26 5eb8 c25d c7b7 549f 95b8 0936 2db8
000000a0: 57aa 7fb8 2e16 76b7 1189 41b8 c4ed 9eb7
000000b0: 32ff aab8 3036 c3b8 35f9 bdb8 2d73 84b8
000000c0: 840d 8db8 0cba e1b8 b3c2 e1b8 0b07 cab8
000000d0: 8496 ebb8 b99c 48b9 5dcb 47b9 17a0 1eb9
000000e0: 64ac 17b9 e1dd f2b8 df7a 86b8 d3ab feb8
000000f0: 6c55 1cb9 00b8 fbb8 78ba c0b8 9a7d 0db9
00000100: d471 ceb8 19ed cfb8 901d c3b8 ccda 87b8
00000110: b6d8 beb5 537b 9c37 2426 cf37 653f 8b37
00000120: dc47 c137 f2dd 4b37 c219 6c34 e2ec 9238
00000130: 8997 cb38 c49d 8138 82a1 1e38 1d09 7138
00000140: ebb8 9e36 a390 0838 93a5 b937 8e0c 4538
00000150: b948 4838 a0e8 bb38 eaf7 c638 e473 0339
00000160: 85fb fc38 8c42 0039 fc5e 1b39 76e7 3739
00000170: b6c9 7c39 8dec 7839 708e 8439 c6a8 7939
00000180: 9640 9539 e44e 8a39 5f2e a539 1cc1 3c39
00000190: c640 9d39 cd75 4e39 2afd 8939 0129 6d39
000001a0: eeb2 9339 1a62 6e39 db12 7339 5698 8739
000001b0: 0d3e 9339 ea80 c239 05dd ab39 e290 c839
000001c0: 6c64 d339 b36c be39 42a1 c939 12b3 6d39
000001d0: 9493 6939 c7a1 0039 76a2 6939 35ef f138
000001e0: 989f 1639 b49f e238 8e59 dd38 ff27 9139
000001f0: 9996 5939 5d81 b239 ae78 b039 dfb5 5739
00000200: fddc 3b39 7d35 ed38 0886 ae39 5642 c438
00000210: b30f 1239 c65c 1139 6e89 3339 58a4 5938
00000220: 40ef 3eb7 d06e d336 6feb 8f38 144f d0b6
00000230: db9c 2539 85c9 9239 5ddf 8f39 8048 0e3a
00000240: 3fd2 bc39 59b7 7c39 e1bb 4439 c4d1 3f39
00000250: bf1c 4437 3ae2 18b9 f813 8ab9 0325 2db9
00000260: cd15 31b7 b4b9 a938 b9c0 8439 b23c 8539
00000270: a710 8339 9ff1 dd38 89c3 0a39 2f19 0337
00000280: a927 2fb8 e812 8638 1670 bfb7 3d69 0bb8
00000290: 4cc6 c736 1d11 9bb8 76f1 c737 74d8 91b9
000002a0: cb77 96b9 db86 a6b9 a2b3 74b9 8033 0fb9
000002b0: e1ce 79b8 4334 9e39 6e75 a439 6fd9 a839
000002c0: e6d8 9239 eec7 3438 a8a3 0439 5409 a239
000002d0: f6b7 1939 83dd 2538 7bde 86b6 6556 2639
000002e0: 4e9a 8f39 ff92 f339 20b3 ea39 7f73 b238
000002f0: d3d3 07b9 076e c535 f553 af38 1d20 e2b9
00000300: a242 1eba 86aa 83b9 e15f 1e39 a27f fe37
00000310: a9f8 2f37 d554 a7b9 386d 03b9 f36c 13b9
00000320: e351 01ba 0c47 f1b9 2119 a6b9 162f acb9
00000330: 6c9f 4dba 4b65 e2b9 6b9a a6b9 deac 4aba
00000340: fb92 82ba 025c 37ba 0a30 0dba dd76 3eba
00000350: 1b9d 43ba 64bd 33b9 edbd f439 ba63 0b3a
00000360: f856 c439 844d 6a38 a7e7 0fb9 69c0 e8b8
00000370: b8e1 1fba b334 16ba 8398 98b9 53ba a4b9
00000380: 447a 2639 16f3 133a 1a84 f839 a2a1 43b9
00000390: 5400 e2b8 11f5 b7b8 e901 2c38 521d d0b8
000003a0: 878b 0eba 2dbd 7bba a500 7bba cfde 3639
000003b0: cab1 f639 c025 8439 af8e 05ba 94d6 48b9
000003c0: 4120 9539 658d 18ba 52e4 0bba 5f1f bdb9
000003d0: fde9 9fb9 4ba4 e6b9 0635 4cba ad48 50ba
000003e0: bb36 66ba 080b 2bba 8e8f 64ba c059 30ba
000003f0: b0df 27ba 14a9 d9b9 8f3e 81b7 61ec 1b3a
