jarvis_voice_cache/b50f77b01809e88f.npy (npy, 133312 bytes, 1 tensors)

array f4 [33296]
0	0x39d00fd7	0.00039684653
1	0x39b39e1e	0.00034259347
2	0xb6e33c14	-6.772121e-06
3	0x38fea2f3	0.000121420155
4	0x3815a6fc	3.5679885e-05
5	0x37a8d8af	2.0128062e-05
6	0x376ad197	1.3996286e-05
7	0x36f4a3cf	7.2908365e-06
8	0xb7159d1b	-8.917671e-06
9	0x36ac6792	5.1380566e-06
10	0x37a10a6b	1.9197547e-05
11	0xb7a65779	-1.9829475e-05
12	0xb7dca8cd	-2.6304648e-05
13	0x3736aeb4	1.0888722e-05
14	0x37006a75	7.654181e-06
15	0x35b58792	1.3525007e-06
16	0xb6376d6e	-2.7332821e-06
17	0x369af727	4.61833e-06
18	0x36abb893	5.1176844e-06
19	0xb72ced7a	-1.0307291e-05
20	0xb6e94cff	-6.9529046e-06
21	0x3692e7ab	4.3781088e-06
22	0x363ee8a6	2.8447625e-06
23	0xb5f96855	-1.858231e-06
24	0xb6c0abbd	-5.742039e-06
25	0x366081dd	3.3454191e-06
26	0x367081ea	3.5838407e-06
27	0xb53dfc62	-7.077525e-07
28	0xb6b27f06	-5.319601e-06
29	0xb6483aa8	-2.9836465e-06
30	0xb4e4cd11	-4.2617515e-07
31	0xb4c8ee1d	-3.7426153e-07
32	0xb61bf7e5	-2.3241093e-06
33	0x34e1dba8	4.2069337e-07
34	0xb4b4f88b	-3.3708451e-07
35	0x358490ca	9.876906e-07
36	0xb54d48d9	-7.647446e-07
37	0x36383944	2.745147e-06
38	0xb5bf2787	-1.4242113e-06
39	0xb5ae3f8d	-1.2982506e-06
40	0xb5a540d4	-1.2312325e-06
41	0x361c0153	2.3246582e-06
42	0xb5b6f313	-1.3630801e-06
43	0xb5c9725d	-1.5008951e-06
44	0xb6462074	-2.952319e-06
45	0xb53b8c44	-6.986704e-07
46	0x33c394a3	9.107432e-08
47	0xb682e585	-3.9010215e-06
48	0xb69b86b3	-4.635041e-06
49	0xb635fa8c	-2.711694e-06
50	0xb711b8b5	-8.685679e-06
51	0xb7e308ad	-2.7064549e-05
52	0xb7cb9726	-2.426987e-05
53	0xb7b5f8f9	-2.1692818e-05
54	0xb80b3062	-3.3185243e-05
55	0xb83716d0	-4.3651846e-05
56	0xb803a219	-3.13838e-05
57	0xb7961080	-1.7889077e-05
58	0xb78824e8	-1.622965e-05
59	0xb7e07319	-2.6756477e-05
60	0xb8012afa	-3.079602e-05
61	0xb84a4b6e	-4.8230802e-05
62	0xb8903677	-6.8766e-05
63	0xb8abd5e5	-8.1937564e-05
64	0xb88d5354	-6.738925e-05
65	0xb86e3d8e	-5.680095e-05
66	0xb8b39c1e	-8.564464e-05
67	0xb8a2a100	-7.7547505e-05
68	0xb88ebcd3	-6.806259e-05
69	0xb84db403	-4.9043458e-05
70	0xb86f49d0	-5.7050784e-05
71	0xb8076dd9	-3.228881e-05
72	0xb821ba50	-3.855891e-05
73	0xb86b40ff	-5.60889e-05
74	0xb8d078e0	-9.9407276e-05
75	0xb8cb3d60	-9.691226e-05
76	0xb8ea3bf2	-0.00011169155
77	0xb8fcf201	-0.00012061373
78	0xb9084853	-0.00012996914
79	0xb905c7ca	-0.00012758296
80	0xb901e9d2	-0.00012389504
81	0xb90424fa	-0.00012602276
82	0xb8e93441	-0.00011120039
83	0xb8ec1be8	-0.00011258555
84	0xb9031a31	-0.0001250289
85	0xb915bd02	-0.00014280158
86	0xb90eb0b6	-0.00013608005
87	0xb8eb4864	-0.00011219157
88	0xb89af952	-7.389732e-05
89	0xb85f3eff	-5.3226013e-05
90	0xb8968d7b	-7.17891e-05
91	0xb8b3c1b0	-8.571462e-05
92	0xb8711c51	-5.748525e-05
93	0xb85ad552	-5.217392e-05
94	0xb8d27abf	-0.000100364436
95	0xb8b22b40	-8.495757e-05
96	0xb83bc16b	-4.476441e-05
97	0xb87c0fd9	-6.009624e-05
98	0xb8dd5000	-0.00010553002
99	0xb879d54c	-5.9564874e-05
100	0xb7b70217	-2.1816273e-05
101	0xb7ab0cac	-2.039069e-05
102	0xb86b87bf	-5.615479e-05
103	0xb831878c	-4.2326326e-05
104	0xb81d7e50	-3.7549355e-05
105	0xb81c191b	-3.721668e-05
106	0xb86dede2	-5.672675e-05
107	0xb8685e30	-5.540083e-05
108	0xb846b419	-4.7374608e-05
109	0xb7cf0f02	-2.4683311e-05
110	0xb86fcd06	-5.7172983e-05
111	0xb85dcdae	-5.288206e-05
112	0xb7a4b216	-1.9633251e-05
113	0xb7d5623a	-2.5437319e-05
114	0xb82c8af7	-4.1137417e-05
115	0xb82e54c4	-4.1563777e-05
116	0xb848b563	-4.7852645e-05
117	0xb82583d4	-3.946184e-05
118	0xb82a23f0	-4.0564628e-05
119	0xb7675d88	-1.379045e-05
120	0xb7cd2d61	-2.4459036e-05
121	0xb844bbcf	-4.6904952e-05
122	0xb84157ad	-4.609644e-05
123	0xb6979e04	-4.518546e-06
124	0x3755d3f7	1.2745141e-05
125	0xb68a214e	-4.1165977e-06
126	0xb6b4742d	-5.3779427e-06
127	0xb7b5cee0	-2.1673215e-05
128	0xb7ba2352	-2.2189375e-05
129	0xb752aec5	-1.2557667e-05
130	0x37145a83	8.842561e-06
131	0xb7725d9d	-1.444612e-05
132	0xb780a465	-1.5335341e-05
133	0xb6316bcf	-2.6437808e-06
134	0xb7ccd7a1	-2.4419105e-05
135	0xb7a2d3de	-1.9410563e-05
136	0xb73e01d8	-1.1325312e-05
137	0xb56049a1	-8.3553647e-07
138	0xb85c3e7a	-5.2510273e-05
139	0xb80b623e	-3.3231678e-05
140	0xb7a3fe2e	-1.9549476e-05
141	0xb6f39eb7	-7.260441e-06
142	0xb84cfa59	-4.8870545e-05
143	0x3868efd3	5.5536464e-05
144	0x37c985bc	2.4023342e-05
145	0xb827bb00	-3.999006e-05
146	0xb7d05053	-2.4832936e-05
147	0xb76789c0	-1.3800745e-05
148	0xb8572e09	-5.1302868e-05
149	0x364bdea2	3.0378947e-06
150	0xb8ad1878	-8.2538405e-05
151	0xb8aae20f	-8.1483384e-05
152	0xb808fe2e	-3.266165e-05
153	0x36b15121	5.2844557e-06
154	0xb86b832a	-5.6150522e-05
155	0xb7bdd03b	-2.262752e-05
156	0xb7ac6303	-2.0550104e-05
157	0xb84155b8	-4.6094618e-05
158	0xb8453d10	-4.702533e-05
159	0xb76f18d6	-1.4251293e-05
160	0xb7146f5d	-8.847416e-06
161	0xb7f4ee19	-2.919794e-05
162	0xb88b3f42	-6.639819e-05
163	0xb84b042a	-4.840285e-05
164	0xb7c294bd	-2.3195864e-05
165	0xb807cb0a	-3.2375603e-05
166	0xb80b1803	-3.3162545e-05
167	0xb822622c	-3.871524e-05
168	0xb786f3e1	-1.608761e-05
169	0x3838f680	4.409859e-05
170	0x3636ff7c	2.7268825e-06
171	0xb81247b5	-3.4875895e-05
172	0xb7e749cf	-2.7571716e-05
173	0x386feceb	5.7202687e-05
174	0xb84e665e	-4.9209564e-05
175	0x36ef43cc	7.1306476e-06
176	0x38465685	4.7287456e-05
177	0xb77e6143	-1.5162225e-05
178	0xb7d500af	-2.5391897e-05
179	0x382e4ac4	4.1554464e-05
180	0x37186b2d	9.08486e-06
181	0x380f8e89	3.4226603e-05
182	0x3771dca7	1.4416094e-05
183	0x37d6682f	2.5559302e-05
184	0x37e5be4f	2.7387547e-05
185	0x37b69528	2.1765547e-05
186	0xb81b7792	-3.706624e-05
187	0x37c8de8e	2.3945493e-05
188	0x35c1cdb3	1.4439487e-06
189	0x373001cf	1.0490839e-05
190	0x38d7a149	0.000102820406
191	0x37df8113	2.6643776e-05
192	0x385d7825	5.28024e-05
193	0x38a2af94	7.757466e-05
194	0x389fb9a3	7.616288e-05
195	0x37b7ff23	2.1934107e-05
196	0x3864a1f6	5.4510274e-05
197	0x3699b8b0	4.581256e-06
198	0x381b66ad	3.7050504e-05
199	0x384411c5	4.674659e-05
200	0x383f9894	4.5680048e-05
201	0x38824f79	6.213686e-05
202	0x388cc3cf	6.7121924e-05
203	0x38c9b36a	9.617845e-05
204	0x37dd18f1	2.6356867e-05
205	0x38a31c84	7.777757e-05
206	0x38538fc1	5.04402e-05
207	0x37083fe6	8.121109e-06
208	0xb7baf2a8	-2.2285923e-05
209	0x37beb4de	2.2733988e-05
210	0x3839367a	4.4158172e-05
211	0x37f526e4	2.9224386e-05
212	0x37a7dc1c	2.0010448e-05
213	0x38581b61	5.152391e-05
214	0xb7eaf907	-2.8010936e-05
215	0x383bb5a9	4.475346e-05
216	0x3828cf7f	4.0247567e-05
217	0xb5fa99d3	-1.867122e-06
218	0x383329dc	4.271591e-05
219	0x382932a6	4.033991e-05
220	0x3833852b	4.2800948e-05
221	0x3807a10f	3.2336506e-05
222	0x36150f54	2.2211652e-06
223	0xb79e2295	-1.8851171e-05
224	0x381bc120	3.713474e-05
225	0xb803791a	-3.134562e-05
226	0xb72e0dd7	-1.03744305e-05
227	0xb7d7f603	-2.5744555e-05
228	0x379420f7	1.7658325e-05
229	0x37d8ccb0	2.5844522e-05
230	0x377c00cd	1.5020557e-05
231	0x37f06c05	2.866053e-05
232	0x3883cda1	6.284868e-05
233	0x35b125d7	1.319854e-06
234	0xb84b71b9	-4.8504884e-05
235	0xb7e71b75	-2.7550132e-05
236	0xb7c31d4c	-2.3259454e-05
237	0xb6d26925	-6.270728e-06
238	0xb7cc2d80	-2.4339883e-05
239	0x38b755d5	8.7421075e-05
240	0x38766ccc	5.8752295e-05
241	0xb5c7e913	-1.4894489e-06
242	0xb854907d	-5.0679304e-05
243	0x38866cd3	6.409888e-05
244	0x35ca2b21	1.5062725e-06
245	0x383ea1cd	4.545022e-05
246	0x37cc4cc7	2.4354447e-05
247	0xb78cd8c7	-1.6790245e-05
248	0x37804025	1.5288659e-05
249	0x38463b8f	4.7262347e-05
250	0xb7adb7cb	-2.0708792e-05
251	0xb73bd1ee	-1.1194947e-05
252	0x352abf9e	6.3608775e-07
253	0xb7948e76	-1.7709313e-05
254	0x37da4002	2.6017431e-05
255	0x37d6ef6e	2.5622281e-05
