jarvis_voice_cache/b529ec2e95c47f8d.npy (npy, 271552 bytes, 1 tensors)

array f4 [67856]
000000 0b a1 61 3a 24 55 08 3a 4d 7a a9 39 1e f3 d7 39
       0.0008607066 0.0005200675 0.00032325313 0.00041189132
000010 27 d2 1c 39 47 c0 13 3a 04 f5 a0 39 69 64 69 39
       0.00014955607 0.00056362565 0.0003070013 0.00022258017
000020 19 ab e7 b8 64 c9 5a b9 42 99 a8 b9 61 ff a7 b9
       -0.00011046808 -0.00020865124 -0.00032157643 -0.00032042994
000030 eb c3 07 b9 ba ac 37 38 3c e9 89 36 29 66 90 38
       -0.00012947588 4.3791464e-05 4.11007e-06 6.885484e-05
000040 3b ee 86 39 6b 65 73 39 c7 67 ab 39 10 a8 9e 39
       0.00025735967 0.00023212067 0.00032692982 0.00030261325
000050 92 f6 99 39 6e 8d fd 39 b3 e1 36 3a dd ff 2f 3a
       0.00029366143 0.00048361294 0.0006976381 0.0006713847
000060 09 19 4e 3a 4f 01 63 3a 26 5d 84 3a 1c bd 75 3a
       0.0007862007 0.0008659558 0.0010098561 0.0009374188
000070 3d a2 69 3a 9b 53 4f 3a fb d3 6e 3a 04 71 58 3a
       0.000891242 0.00079088815 0.0009110567 0.0008256587
000080 90 ce 51 3a 81 9c 61 3a 97 54 69 3a fa 26 57 3a
       0.00080034975 0.000860639 0.00089008495 0.0008207407
000090 20 47 27 3a b6 e6 27 3a b9 66 41 3a 49 92 23 3a
       0.0006381143 0.0006404923 0.00073776726 0.0006239755
0000a0 c4 c2 f9 39 c7 3b 35 3a 4f e5 10 3a ea fe 1f 3a
       0.00047638093 0.00069135096 0.00055273337 0.0006103354
0000b0 42 a6 dc 39 82 09 cc 39 16 ab b0 39 7d 2e 83 39
       0.00042085542 0.00038916996 0.00033696805 0.00025020904
0000c0 ce f9 22 39 90 0e b6 38 4c 00 d6 38 ff 32 03 39
       0.00015542583 8.681149e-05 0.000102043705 0.00012512131
0000d0 2f e7 ca b7 65 c1 07 b9 22 49 0d b8 ff f3 76 b9
       -2.418793e-05 -0.00012946648 -3.368513e-05 -0.00023551284
0000e0 17 dc 55 b9 9f e6 bc b9 49 02 63 b9 8f f9 bb b9
       -0.00020395253 -0.0003602998 -0.00021649258 -0.00035853355
0000f0 d8 80 d4 b9 4d 2e d5 b9 8d e3 90 b9 74 a5 be b9
       -0.00040531787 -0.00040661023 -0.0002763536 -0.00036362896
000100 f1 00 c0 b9 c7 93 01 ba d1 e5 9c b9 ab 9a 28 ba
       -0.00036621795 -0.000494298 -0.00029925865 -0.0006431739
000110 fd 0b 3e ba 9c ce 2b ba 67 a1 0c ba a7 80 0b ba
       -0.0007249711 -0.00065539195 -0.0005364627 -0.00053216
000120 2e 79 46 ba 72 85 c6 b9 66 51 00 ba e0 3c 0c ba
       -0.0007571158 -0.00037864927 -0.0004894942 -0.0005349647
000130 f1 67 0c ba 38 1a a1 b9 63 e3 da b9 88 5e ba b9
       -0.00053560646 -0.00030727847 -0.00041749617 -0.00035547116
000140 3b da 04 ba 32 05 cf b9 44 5c c3 b9 23 2d 9b b9
       -0.0005067919 -0.00039485988 -0.00037262042 -0.00029597533
000150 5d 26 da b9 f8 45 0a ba ce 39 d8 b9 14 f9 01 ba
       -0.00041608783 -0.00052747084 -0.00041241798 -0.0004958075
000160 fd 08 f5 b9 ec c1 0b ba 0c 99 ec b9 ff 01 da b9
       -0.00046736738 -0.0005331326 -0.00045127457 -0.00041581687
000170 12 ae c3 b9 86 71 ca b9 b9 83 32 b9 56 06 83 b9
       -0.0003732299 -0.00038613024 -0.00017024473 -0.00024990988
000180 ea 47 68 b9 1e e5 16 b9 62 67 e4 38 71 53 08 b9
       -0.00022152034 -0.00014390468 0.00010891144 -0.00013001055
000190 a5 58 b6 b8 34 1b 49 39 de 93 0c b8 ba 9f 7c b6
       -8.6949476e-05 0.00019178988 -3.3516313e-05 -3.76439e-06
0001a0 a6 83 bd 38 02 3b 95 b6 0c ba a1 b8 25 53 31 37
       9.036744e-05 -4.4474154e-06 -7.711732e-05 1.0569381e-05
0001b0 8a 3f 52 b9 94 08 1a b8 77 6b 3b b9 cf dc fb b8
       -0.00020050831 -3.672445e-05 -0.00017873743 -0.000120097415
0001c0 4a 8b e6 38 c7 ad 30 39 30 56 57 39 77 92 b3 38
       0.00010993199 0.00016849405 0.00020536105 8.562666e-05
0001d0 0d 56 92 39 12 83 cd 39 0e 5e b8 39 e0 5b ef 39
       0.00027911403 0.00039198302 0.0003516529 0.00045654085
0001e0 8a 73 01 3a 77 70 b8 39 18 cc 00 3a e1 59 e2 39
       0.0004938176 0.00035179008 0.0004913225 0.00043173044
0001f0 e8 30 06 3a 0b 8a 0b 3a a6 35 aa 39 a8 57 fa 39
       0.0005118982 0.0005322999 0.00032464898 0.00047749025
000200 15 e7 07 3a c0 69 0c 3a 42 cd 3c 3a aa 86 fb 39
       0.0005184275 0.0005356334 0.00072022167 0.00047974783
000210 db 00 31 3a 1d 13 58 3a b1 fb 73 3a e0 d5 81 3a
       0.00067521416 0.0008242594 0.00093072193 0.0009905659
000220 66 03 80 3a ef 43 ae 3a fe be 99 3a 04 d0 78 3a
       0.0009766638 0.0013295392 0.0011729894 0.0009491446
000230 76 d2 b6 3a 3e e5 8f 3a 11 15 42 3a 3c 46 8c 3a
       0.001394822 0.0010978354 0.0007403652 0.0010702084
000240 39 4d 53 3a 74 a7 4f 3a 53 cd 5e 3a 74 7e 77 3a
       0.00080605183 0.0007921376 0.00084992236 0.0009441145
000250 ca 68 92 3a 6b 7a 45 3a 6c 10 73 3a 69 bf 75 3a
       0.0011170146 0.00075331953 0.00092721614 0.00093745306
000260 0a b7 4a 3a 50 a5 82 3a 09 ad 4d 3a e6 d6 65 3a
       0.00077329634 0.000996748 0.00078459136 0.0008767679
000270 14 73 15 3a ae 2f 0e 37 d7 d9 f0 b8 cf bc d1 b9
       0.0005701047 8.474961e-06 -0.000114846676 -0.0004000426
000280 dd 5d 4f ba ca 2c da b9 0e c8 27 ba 0b 1f 6f b9
       -0.000791041 -0.0004161357 -0.0006400355 -0.0002280438
000290 47 a3 13 b9 4e dc 0e b9 c0 c9 4d 39 7f e7 72 38
       -0.00014079838 -0.00013624245 0.00019625481 5.7912894e-05
0002a0 48 7d c0 39 b6 df d2 39 c5 de 8a 39 52 ac fe 39
       0.00036714436 0.00040221 0.00026487387 0.00048575044
0002b0 4d f4 bd 39 bf 12 07 3a ee 7d 08 3a 9b 4b 4b 39
       0.00036230907 0.00051526347 0.0005206753 0.00019387754
0002c0 92 d7 50 39 04 3e 53 38 1d 51 8f b9 0a 0b 30 b9
       0.00019916732 5.0364077e-05 -0.0002733552 -0.0001678878
0002d0 70 5b 12 b9 1a f0 f4 b7 3d 7d c4 b7 92 2b c5 38
       -0.00013957708 -2.9198873e-05 -2.342334e-05 9.4018076e-05
0002e0 98 50 c5 39 b3 30 21 3a 38 dc ea 39 8c 3a c1 39
       0.00037634815 0.00061489193 0.00044796034 0.0003685545
0002f0 9a d1 1c 3a f3 0b d0 39 d4 c0 d9 39 04 72 a4 39
       0.0005982161 0.00039681754 0.00041533133 0.00031365466
000300 01 21 01 39 06 3e b0 39 87 32 d8 38 29 8d f7 36
       0.00012314694 0.00033615547 0.00010309094 7.377607e-06
000310 25 ba d7 b8 06 99 1d b9 c4 b8 07 b9 f3 40 e2 b9
       -0.00010286671 -0.00015029692 -0.00012943434 -0.0004315447
000320 e2 b2 01 ba 18 c6 7a b9 ae df ae b9 8e 06 a6 b9
       -0.0004947615 -0.00023915654 -0.0003335452 -0.0003166687
000330 d8 7d 6f ba 45 24 e5 b9 2a 26 f2 b9 4c fd b9 ba
       -0.00091358786 -0.00043705307 -0.0004618627 -0.0014189868
000340 e4 b7 fb ba 4a c6 d6 ba 2f ee 0a bb e1 53 1f bb
       -0.0019204584 -0.0016385999 -0.0021199097 -0.002431147
000350 b5 a1 25 bb 23 a6 40 bb 43 5d 20 bb 23 4c 37 bb
       -0.0025273387 -0.00293959 -0.002446965 -0.0027968965
000360 4c 0e 50 bb de 69 56 bb 3b c3 32 bb 08 30 2a bb
       -0.0031746803 -0.003271691 -0.002727701 -0.002596857
000370 21 18 4a bb f8 78 03 bb 6a cb 13 bb 1c 41 18 bb
       -0.0030837136 -0.0020061117 -0.0022551664 -0.0023232168
000380 f7 79 dc ba fd 28 f5 ba f4 c0 ff ba c7 90 34 bb
       -0.0016821016 -0.0018704232 -0.001951246 -0.0027552114
000390 ac 1f 3e ba 22 31 d6 ba 86 71 94 ba 96 4d 32 b9
       -0.0007252644 -0.0016341547 -0.0011325337 -0.00017004306
0003a0 31 b7 10 b9 b0 cf 8e 39 9b 92 58 3a 06 02 f7 3a
       -0.00013801154 0.0002723909 0.0008261592 0.0018845208
0003b0 49 8e 08 3b ac 1a 26 3b 89 43 2f 3b e9 26 38 3b
       0.0020836762 0.0025345488 0.0026743135 0.0028099364
0003c0 33 4f a2 3b b0 98 64 3b e0 89 71 3b d4 dc b8 3b
       0.004953289 0.0034881048 0.0036855862 0.005641559
0003d0 a9 6c ce 3b a2 07 a3 3b d3 dc ed 3b 0c cc 06 3c
       0.0062995744 0.004975275 0.0072589903 0.0082273595
0003e0 8e aa 08 3c d7 94 17 3c 8c 8d 2e 3c 0f 1f 32 3c
       0.008341445 0.009251795 0.010653865 0.010871663
0003f0 48 c0 42 3c 1d d5 3f 3c fe 06 4f 3c 1e 11 67 3c
       0.011886664 0.011708525 0.012635944 0.014103202
