jarvis_voice_cache/b5a0da653f043807.npy (npy, 239808 bytes, 1 tensors)

array f4 [59920]
0.00037638439 0.00032290284 -1.1210855e-05 0.00012537256 2.9993807e-05 1.6306918e-05 1.4259759e-05 7.0157957e-06
-1.03068705e-05 8.381717e-06 1.5790625e-05 -2.3360582e-05 -2.615274e-05 1.4776076e-05 8.9314235e-06 -2.3363514e-06
-4.5421907e-06 7.888838e-06 4.0630152e-06 -1.136722e-05 -6.726015e-06 5.2403475e-06 8.2185676e-07 -4.8186234e-06
-5.017497e-06 2.863906e-06 2.0757973e-06 -8.86547e-07 -6.2816916e-06 -2.171904e-06 8.0172356e-07 -1.8476336e-06
-3.9908905e-06 3.400565e-06 3.2500677e-07 -1.1257016e-06 2.2727254e-06 4.591135e-06 -4.791355e-06 -1.788334e-07
4.6154292e-07 6.4713714e-07 -2.957442e-07 -6.359546e-07 -3.1707373e-06 -3.1158834e-06 1.263835e-06 -3.2008838e-06
-5.9542194e-06 -9.085033e-07 -1.9471265e-06 -8.410241e-06 -3.6406316e-06 -3.176981e-06 -2.2432934e-05 -2.7719334e-05
-2.5199119e-05 -2.1137737e-05 -1.4560241e-05 -2.1201004e-05 -2.2211867e-05 -2.1636655e-05 -1.9292185e-05 -2.6026299e-05
-2.336129e-05 -2.1397622e-05 -3.5239584e-05 -6.261007e-05 -6.9213675e-05 -7.445453e-05 -8.566321e-05 -5.9514918e-05
-6.607606e-05 -5.6364803e-05 -5.9363425e-05 -3.5367804e-05 -3.459271e-05 -3.8433427e-05 -4.8756465e-05 -4.063813e-05
-5.0720573e-05 -6.300716e-05 -8.738029e-05 -9.2355775e-05 -0.00011283578 -0.00012570922 -0.00013117843 -0.00012685277
-0.00011928385 -0.0001050727 -0.00010281907 -0.00010586664 -9.677167e-05 -8.3753715e-05 -8.880161e-05 -7.783133e-05
-5.5966135e-05 -4.4767577e-05 -7.253149e-05 -7.019987e-05 -5.6255878e-05 -5.6117802e-05 -5.9924303e-05 -5.538332e-05
-3.5211862e-05 -3.4307963e-05 -5.3987733e-05 -3.708842e-05 2.9622158e-06 3.235037e-06 1.1094799e-05 1.4795179e-05
1.9102128e-05 -2.9775141e-05 -2.0703303e-05 -3.6794445e-05 -4.284479e-05 -5.0761842e-05 -1.3844655e-05 -1.4083396e-05
-2.1929705e-05 -4.496989e-05 -3.957731e-07 -7.137512e-06 1.5167161e-05 -1.5493566e-05 2.8433138e-05 -2.1881608e-05
-3.1531188e-05 -4.858715e-05 3.038709e-05 -3.2002454e-06 4.1688418e-06 -1.958534e-05 1.610392e-05 -1.8497421e-05
9.71922e-06 -7.545431e-06 1.4455276e-05 -3.7320995e-06 5.0430017e-06 -1.7077418e-05 3.7468602e-05 4.3894895e-05
-6.996626e-06 -6.258629e-05 -8.421752e-06 1.729233e-05 1.4917072e-06 -7.849191e-06 -1.5603697e-05 -2.3366205e-05
-1.39388985e-05 -1.8065039e-06 2.0259455e-05 -1.8132416e-06 -3.7355385e-06 -7.671749e-06 1.3331624e-05 -7.0330207e-06
-2.7693588e-07 -2.5967965e-05 -2.0030478e-05 -1.5106328e-05 5.47314e-06 -8.715508e-06 2.2623095e-05 3.852023e-06
-3.5649614e-06 2.2623457e-05 2.5971109e-05 -9.397475e-06 -8.148267e-06 1.9882733e-05 -5.245635e-05 -1.0536528e-05
-7.742302e-06 -5.5724242e-05 -3.8936152e-05 4.345818e-06 -4.554245e-05 2.5309585e-06 -4.5601588e-05 -4.9727398e-05
-3.368264e-05 -4.8179925e-05 -7.409245e-05 -2.8017348e-05 -2.12031e-05 1.9235735e-05 1.5858674e-05 -7.7196055e-05
-6.1863146e-05 -1.985495e-05 2.2207616e-05 2.8041104e-05 3.206188e-05 -1.9684445e-05 5.394823e-05 5.7059304e-05
1.441844e-05 9.7836655e-06 3.925838e-05 1.6439537e-05 -5.7429577e-05 5.3053996e-06 1.17491445e-05 2.835866e-05
-2.2628237e-05 6.5479185e-06 4.371732e-05 4.3385153e-05 -2.4167146e-05 2.4153826e-05 5.06309e-05 3.429239e-05
6.4134234e-05 1.6107131e-05 3.953408e-05 6.586788e-05 -1.7570319e-05 -3.4955523e-05 -6.625096e-05 -6.902884e-05
2.9216848e-05 1.51993e-05 8.3855266e-05 -4.9324546e-05 2.2607936e-05 -1.8222898e-05 6.035887e-06 -1.6466864e-05
-9.21605e-06 -4.346593e-05 -8.5166284e-05 -3.6370966e-05 -5.1686628e-05 3.1065618e-05 -5.356194e-05 8.202675e-05
-1.8220366e-05 -9.5839714e-05 -3.3400123e-05 6.8852445e-05 5.0385996e-05 8.7102395e-05 -2.4590496e-05 -5.075988e-06
1.9667646e-05 5.664664e-05 -2.062683e-05 2.2802915e-05 8.166258e-07 -8.893537e-05 2.5949683e-05 2.6832118e-05
00000000: 7555 c539 494b a939 4116 3cb7 7176 0339
00000010: 369b fb37 d7ca 8837 333d 6f37 3a69 eb36
00000020: aceb 2cb7 339f 0c37 1c76 8437 78f6 c3b7
00000030: 9562 dbb7 c3e6 7737 2cd8 1537 36ca 1cb6
00000040: 1f69 98b6 4d5a 0437 0955 8836 d7b5 3eb7
00000050: 07b0 e1b6 3ed6 af36 919d 5c35 a9af a1b6
00000060: f95b a8b6 8831 4036 ed4d 0b36 0cfb 6db5
00000070: 52c7 d2b6 07c1 11b6 0636 5735 35fc f7b5
00000080: 7de9 85b6 4335 6436 977c ae34 d016 97b5
00000090: 2085 1836 8d0d 9a36 6dc5 a0b6 5a05 40b4
000000a0: fac9 f734 edb6 2d35 c6c6 9eb4 78b6 2ab5
000000b0: dac8 54b6 781a 51b6 0aa1 a935 c4ce 56b6
000000c0: 5bca c7b6 dfdf 73b5 61ab 02b6 b619 0db7
000000d0: 9351 74b6 1e34 55b6 5c2e bcb7 d186 e8b7
000000e0: b262 d3b7 f250 b1b7 c247 74b7 cfd8 b1b7
000000f0: 9f53 bab7 5d80 b5b7 a7d5 a1b7 0d53 dab7
00000100: fdf7 c3b7 0b7f b3b7 37ce 13b8 864d 83b8
00000110: cf26 91b8 7924 9cb8 16a6 b3b8 a89f 79b8
00000120: 5192 8ab8 3f69 6cb8 fefc 78b8 e457 14b8
00000130: a417 11b8 9433 21b8 db7f 4cb8 dc72 2ab8
00000140: cdbc 54b8 b622 84b8 f03f b7b8 21af c1b8
00000150: 40a2 ecb8 d0d0 03b9 f18c 09b9 c803 05b9
00000160: 0828 fab8 7a5a dcb8 91a0 d7b8 b804 deb8
00000170: e5f1 cab8 efa4 afb8 003b bab8 6139 a3b8
00000180: 2ebd 6ab8 d2c4 3bb8 0c1c 98b8 4538 93b8
00000190: 4af4 6bb8 0860 6bb8 3b57 7bb8 634b 68b8
000001a0: 73b0 13b8 e5e5 0fb8 e370 62b8 638f 1bb8
000001b0: 7bca 4636 8319 5936 cd23 3a37 cf38 7837
000001c0: 823d a037 a1c5 f9b7 01ac adb7 bc53 1ab8
000001d0: 3eb4 33b8 1de9 54b8 5746 68b7 ba47 6cb7
000001e0: aff5 b7b7 0d9e 3cb8 a47a d4b4 c37e efb6
000001f0: 7676 7e37 2ef8 81b7 b383 ee37 658e b7b7
00000200: 5b40 04b8 0eca 4bb8 c7e7 fe37 ccc3 56b6
00000210: 14e2 8b36 334b a4b7 e816 8737 e92a 9bb7
00000220: bb0f 2337 c22e fdb6 f084 7237 fb74 7ab6
00000230: 0e37 a936 7a41 8fb7 9b27 1d38 c91b 3838
00000240: 8fc4 eab6 c240 83b8 264b 0db7 ff0e 9137
00000250: ab36 c835 05b0 03b7 afe4 82b7 8b02 c4b7
00000260: 1ddb 69b7 0077 f2b5 d9f2 a937 825e f3b5
00000270: 10b0 7ab6 e9b5 00b7 e4aa 5f37 30fd ebb6
00000280: c7ad 94b4 c8d5 d9b7 2007 a8b7 2f71 7db7
00000290: eaa5 b736 d238 12b7 bac6 bd37 a040 8136
000002a0: 923d 6fb6 81c7 bd37 88dc d937 d9a9 1db7
000002b0: 8ab4 08b7 d8c9 a637 9404 5cb8 0bc6 30b7
000002c0: efe4 01b7 73b9 69b8 604f 23b8 4bd2 9136
000002d0: d504 3fb8 89d9 2936 5544 3fb8 6392 50b8
000002e0: 7646 0db8 cd14 4ab8 1562 9bb8 cc06 ebb7
000002f0: 4fdd b1b7 6d5c a137 3e08 8537 51e4 a1b8
00000300: 86bc 81b8 2e8e a6b7 7e4a ba37 d039 eb37
00000310: 2e7a 0638 0620 a5b7 7946 6238 f652 6f38
00000320: bae6 7137 8624 2437 5da9 2438 a3e7 8937
00000330: 8ae0 70b8 0905 b236 311e 4537 c2e3 ed37
00000340: c5d1 bdb7 31b6 db36 1d5d 3738 74f8 3538
00000350: 8dba cab7 f29d ca37 845c 5438 2cd5 0f38
00000360: ce7f 8638 cd1d 8737 65d1 2538 8c22 8a38
00000370: f963 93b7 359d 12b8 37f0 8ab8 94c3 90b8
00000380: b416 f537 7f00 7f37 74db af38 d4e1 4eb8
00000390: 2ca6 bd37 60dd 98b7 e087 ca36 5222 8ab7
000003a0: a29e 1ab7 304f 36b8 4d9b b2b8 078d 18b8
000003b0: 18ca 58b8 744c 0238 b2a7 60b8 c705 ac38
000003c0: f0d7 98b7 8efd c8b8 1c17 0cb8 e064 9038
000003d0: 8d55 5338 beaa b638 b047 ceb7 6852 aab6
000003e0: f3fb a437 de97 6d38 c807 adb7 e348 bf37
000003f0: 1936 5b35 d082 bab8 85ae d937 8915 e137
