jarvis_voice_cache/b6131a6d98a9a556.npy (npy, 146624 bytes, 1 tensors)

array f4 [36624]
0	0x39bb3cf1	0.00035712824
1	0x39a16522	0.00030783663
2	0xb7e7c227	-2.7627755e-05
3	0x39073753	0.00012895213
4	0x37d078f8	2.4851863e-05
5	0x37a17510	1.9247207e-05
6	0x378483e7	1.5797048e-05
7	0x36cd1967	6.1124333e-06
8	0xb71b1193	-9.242812e-06
9	0x376567db	1.3673644e-05
10	0x374964f7	1.2004041e-05
11	0xb7d8c741	-2.5841991e-05
12	0xb80bb9a0	-3.331306e-05
13	0x37916e10	1.7336599e-05
14	0x36b8a044	5.5022847e-06
15	0x366c7052	3.523212e-06
16	0xb6c457a2	-5.851457e-06
17	0x3727312a	9.965423e-06
18	0x369ab9a3	4.6111686e-06
19	0xb78257b3	-1.5538046e-05
20	0xb7116b70	-8.667688e-06
21	0x370c61f6	8.367459e-06
22	0xb454ebd6	-1.9829835e-07
23	0xb71e330f	-9.429422e-06
24	0xb6a3a8ad	-4.877415e-06
25	0x3657718a	3.2103585e-06
26	0xb4899266	-2.5624757e-07
27	0xb64927fa	-2.9974603e-06
28	0xb6f2ae7e	-7.2324756e-06
29	0xb6784d73	-3.6999961e-06
30	0x3514f655	5.5492757e-07
31	0xb51c14be	-5.814471e-07
32	0xb6a92d1c	-5.041844e-06
33	0x35a83944	1.2533642e-06
34	0xb4fa160e	-4.6582176e-07
35	0xb652d65f	-3.141722e-06
36	0x362decf3	2.5916931e-06
37	0x36fd0c57	7.541424e-06
38	0xb71c55fc	-9.318344e-06
39	0xb6da3ee2	-6.504227e-06
40	0x3607a085	2.0210002e-06
41	0x367a12c0	3.7263817e-06
42	0xb689c4bb	-4.1058206e-06
43	0xb68a67d1	-4.1248063e-06
44	0xb69e3f91	-4.716167e-06
45	0xb61e6e75	-2.360813e-06
46	0x35e3c992	1.6971483e-06
47	0xb6a6f61a	-4.9758355e-06
48	0xb6f4c7a8	-7.2950097e-06
49	0xb609eebe	-2.0553557e-06
50	0xb58c0397	-1.0431858e-06
51	0xb7150ae8	-8.883631e-06
52	0xb6623696	-3.3708397e-06
53	0x34953530	2.7792112e-07
54	0xb75115a8	-1.2462413e-05
55	0xb7682e75	-1.3839094e-05
56	0xb778e932	-1.4836247e-05
57	0xb7523e2d	-1.2531452e-05
58	0xb78d5774	-1.6849233e-05
59	0xb7e13933	-2.6848726e-05
60	0xb7dadc47	-2.60902e-05
61	0xb7bca879	-2.2489798e-05
62	0xb7d7b58f	-2.5714542e-05
63	0xb832d870	-4.264008e-05
64	0xb81f21bd	-3.7939975e-05
65	0xb81203d9	-3.4812696e-05
66	0xb868a5e0	-5.5467593e-05
67	0xb89bc989	-7.428515e-05
68	0xb885dfd1	-6.383623e-05
69	0xb86b7c86	-5.6144338e-05
70	0xb8ac1c28	-8.2068436e-05
71	0xb847eb7b	-4.7664606e-05
72	0xb84f1301	-4.9370345e-05
73	0xb8658d8b	-5.4729677e-05
74	0xb88672b0	-6.41098e-05
75	0xb83d327f	-4.510814e-05
76	0xb862308c	-5.392781e-05
77	0xb88e4300	-6.7835674e-05
78	0xb8c56da5	-9.414115e-05
79	0xb8b7c65a	-8.763066e-05
80	0xb8ca618e	-9.6502816e-05
81	0xb8cbb2de	-9.713111e-05
82	0xb8bed679	-9.099855e-05
83	0xb8e33100	-0.000108333305
84	0xb90b05a6	-0.00013258177
85	0xb90233c2	-0.00012417047
86	0xb918fe78	-0.00014590647
87	0xb9248160	-0.00015688455
88	0xb9034419	-0.00012518502
89	0xb8bac625	-8.9060784e-05
90	0xb8b4b092	-8.6159576e-05
91	0xb89eb05a	-7.566875e-05
92	0xb834b925	-4.3087774e-05
93	0xb8513d03	-4.9886305e-05
94	0xb894c2e5	-7.093492e-05
95	0xb881c193	-6.187255e-05
96	0xb7f5f4a4	-2.9320196e-05
97	0xb811f588	-3.4799363e-05
98	0xb8a9b479	-8.0921636e-05
99	0xb86ed4fd	-5.6941983e-05
100	0xb800bb5e	-3.0692077e-05
101	0xb7e54963	-2.73331e-05
102	0xb8229bb8	-3.8768834e-05
103	0xb7bc37ed	-2.2437389e-05
104	0xb7cffdc4	-2.4794492e-05
105	0xb7a53222	-1.9692878e-05
106	0xb825161e	-3.9359664e-05
107	0xb83fd557	-4.5736637e-05
108	0xb7c31c94	-2.325912e-05
109	0xb788858f	-1.6274656e-05
110	0xb7e52433	-2.7315784e-05
111	0xb731b338	-1.059175e-05
112	0x375b0e93	1.30568105e-05
113	0xb7e407ac	-2.718329e-05
114	0x33b21ec1	8.294365e-08
115	0xb72d6e42	-1.0337275e-05
116	0xb804bba8	-3.164602e-05
117	0xb842edd3	-4.6474695e-05
118	0xb798fb5b	-1.8236859e-05
119	0x36a7df31	5.0029707e-06
120	0xb6706470	-3.582125e-06
121	0xb818af26	-3.6402744e-05
122	0x34d0e2f0	3.8908138e-07
123	0x37dfc09c	2.6673362e-05
124	0x38670957	5.508339e-05
125	0x3800eb48	3.07367e-05
126	0x387306fe	5.7942227e-05
127	0xb73eaa14	-1.1364482e-05
128	0xb71d7e5a	-9.387348e-06
129	0xb73b0e66	-1.1149421e-05
130	0x386ae8ab	5.6006636e-05
131	0x376d00b4	1.41264645e-05
132	0x38257d6b	3.945587e-05
133	0x382d048a	4.125064e-05
134	0x3872e3a5	5.7909307e-05
135	0xb694f4fb	-4.439263e-06
136	0x37b4514d	2.149553e-05
137	0x37de22a8	2.64806e-05
138	0x3679c6f5	3.72197e-06
139	0xb6d0d4cb	-6.2236554e-06
140	0x383ecfec	4.5493172e-05
141	0x3751fb47	1.2515876e-05
142	0x3873fbd5	5.817025e-05
143	0x38d2b2e2	0.000100469
144	0x37d7fc7b	2.5747568e-05
145	0xb8991385	-7.299244e-05
146	0xb60af12e	-2.0703988e-06
147	0x37c4e493	2.3471459e-05
148	0xb6d24ddd	-6.267552e-06
149	0xb7abf1c8	-2.0497377e-05
150	0xb84cfa6c	-4.8870614e-05
151	0xb852146a	-5.0086914e-05
152	0xb7a7e7f9	-2.0015972e-05
153	0xb6bacd73	-5.5671494e-06
154	0x3661eba7	3.366478e-06
155	0xb6026dad	-1.943535e-06
156	0xb7fc11b6	-3.0048988e-05
157	0xb7b03b3a	-2.1008414e-05
158	0xb66bb839	-3.512496e-06
159	0xb768d1c8	-1.3877121e-05
160	0xb73bc52a	-1.1191974e-05
161	0xb84a64e4	-4.8254515e-05
162	0xb8cfae5f	-9.903008e-05
163	0xb845e4bb	-4.7181482e-05
164	0xb7868df2	-1.6040143e-05
165	0xb72d47b4	-1.0328298e-05
166	0x37a65068	1.9826184e-05
167	0xb7dc8bab	-2.6291082e-05
168	0xb82eccd2	-4.1675587e-05
169	0x379655b4	1.7921302e-05
170	0x37701edb	1.4312299e-05
171	0xb836c2b9	-4.357353e-05
172	0xb88f608e	-6.836756e-05
173	0x37378a6c	1.0939879e-05
174	0xb8fc1d16	-0.00012021714
175	0xb7492e65	-1.1991336e-05
176	0xb78ee06e	-1.7032227e-05
177	0xb857e045	-5.146886e-05
178	0xb8546514	-5.0638875e-05
179	0xb6610d76	-3.3535448e-06
180	0xb82e2ce5	-4.1526644e-05
181	0x367849fa	3.699794e-06
182	0xb8b4024f	-8.583499e-05
183	0xb7f7bcb4	-2.9532566e-05
184	0xb8018683	-3.088127e-05
185	0xb87c72cd	-6.01884e-05
186	0xb8d5942d	-0.00010184231
187	0xb834c9e1	-4.310336e-05
188	0xb88f9a79	-6.847544e-05
189	0x371724b8	9.008851e-06
190	0x384e44dd	4.917836e-05
191	0xb8a46835	-7.8395395e-05
192	0xb8971d55	-7.2057046e-05
193	0xb7e827dd	-2.7675118e-05
194	0xb6e656e4	-6.8646495e-06
195	0xb7d210b1	-2.5041723e-05
196	0xb7b86be6	-2.1984753e-05
197	0xb892abea	-6.993844e-05
198	0x371c1500	9.303214e-06
199	0x37e21059	2.6948912e-05
200	0x36fe3e41	7.577037e-06
201	0x37f66dcb	2.9376612e-05
202	0x381dd191	3.762689e-05
203	0x3691b9ff	4.3429895e-06
204	0xb88685ce	-6.414541e-05
205	0x351ddb3c	5.8806086e-07
206	0x37f0afce	2.8692095e-05
207	0xb8b3f753	-8.581453e-05
208	0xb8a412af	-7.8236095e-05
209	0xb8319f92	-4.23487e-05
210	0xb7010c8f	-7.691923e-06
211	0x383c9637	4.496259e-05
212	0xb8006da9	-3.0619707e-05
213	0x383482d9	4.3037206e-05
214	0xb8113331	-3.461837e-05
215	0x361cc1b2	2.3358557e-06
216	0x387f1b15	6.082196e-05
217	0x37f95b49	2.9725621e-05
218	0x388377b9	6.268867e-05
219	0x387b9c69	5.998873e-05
220	0xb6a7ec42	-5.004492e-06
221	0xb76c357b	-1.4079148e-05
222	0xb8acd543	-8.241322e-05
223	0xb8a89093	-8.037793e-05
224	0xb7cbd4d6	-2.4298595e-05
225	0xb70cde44	-8.3964005e-06
226	0x37f83877	2.9590197e-05
227	0xb7ca7ce4	-2.4138433e-05
228	0x387d6c76	6.0420913e-05
229	0x3851bace	5.000346e-05
230	0x37c3488e	2.3279597e-05
231	0x3644e1d5	2.9337727e-06
232	0x38558f6d	5.0916733e-05
233	0xb849b206	-4.808793e-05
234	0xb8ce178f	-9.8272336e-05
235	0xb8c73db7	-9.500555e-05
236	0xb8ad880b	-8.274623e-05
237	0xb86a8e2a	-5.5922348e-05
238	0xb889014d	-6.532911e-05
239	0x38f86d38	0.00011845905
240	0x36d261d9	6.2698787e-06
241	0xb8faafc1	-0.00011953666
242	0xb8c32a7a	-9.3062365e-05
243	0x380c332f	3.342627e-05
244	0x3854aa2c	5.0703224e-05
245	0x38be188c	9.064478e-05
246	0x37a7816e	1.9968222e-05
247	0xb741e5e7	-1.1557225e-05
248	0x383bee18	4.4806016e-05
249	0x38f23892	0.00011549996
250	0xb7d89488	-2.5818372e-05
251	0x384768f0	4.7543028e-05
252	0xb70a3653	-8.238089e-06
253	0xb8daec79	-0.000104390965
254	0xb68a9ef0	-4.1312232e-06
255	0x37f2b2e6	2.8931954e-05
