jarvis_voice_cache/b6a6dbeeec59f9a8.npy (npy, 120000 bytes, 1 tensors)

array f4 [29968]
00000000: 1147 733a 772f 9aba da9a 5fba e4a4 c33b
00000010: 3744 6a39 0715 53ba acf8 893a 8fdf e53a
00000020: 04fb fdba a2f4 f73a b4ff 313b 458d 53ba
00000030: c28a 94b9 bff7 e33a b18b 0ebb 5bbe 43ba
00000040: 6b2f 1bbb 376a b7bb 55aa 9aba 562f 93bb
00000050: 8d02 23bb 8acc b13a 03be 2e3b 20fe a9bb
00000060: 946c c13b ca79 adb9 4d95 4cba e148 6d3b
00000070: 40a3 0f3b e1f8 65bb f891 bbb7 3b50 453b
00000080: 6d37 02bb 1dd9 b2ba abac 9eba 0b02 ddba
00000090: 5e37 46bb 46c3 163b 3c2a 1d3b 97e7 6b3b
000000a0: 6c60 913a deb0 783b 5ce6 c538 96a1 db3a
000000b0: 428d c83a 1d98 be3a b4c0 ad3a 2ae6 5538
000000c0: d45f 06b7 011e 86ba 7821 f4ba a2b7 2e3b
000000d0: 5b09 e939 050f dfba 7fc8 c7ba f788 d8b8
000000e0: 2933 ad36 6299 0fbb 21ef 01ba d92b 123b
000000f0: 324e 2f3a 0c92 253b 26b7 363a b2a9 caba
00000100: 61ea e0ba b8f7 04bb 52a5 aaba 19c0 64bb
00000110: 870b c3bb 48c6 17bb 27ca c6ba 84bb 85ba
00000120: 1ab2 3139 c8b3 18ba 99e6 89ba 1a9a 8d39
00000130: f63e b53a 5424 e039 a7ec 24b9 8165 63b9
00000140: 0c09 22bb e16c a6bb 64d4 97bb a26d 33bb
00000150: fafc 78bb bf64 a4ba 8004 983a 5a8c 6a3b
00000160: 96fb 143b 772d 61ba b7af 7c3a ca99 3cb9
00000170: 8415 94ba 75e8 bbba 26b7 1abb a120 cfba
00000180: 7bb2 8abb 960c d2b9 85d9 5b3b 58c7 bd3a
00000190: c21d e73a a526 bb3a b337 85b9 e84b 2abb
000001a0: e1db 8a3a 5f3a 1c3b f92a 4a3b 89ef 813b
000001b0: 47ac 20ba 92ba 33b8 2825 aeba 035a a83a
000001c0: 4b6f 9f3b 44bb 683b 65a8 ab3b c78b 6b3a
000001d0: cc11 8b3b 3247 f83b 87be 793b 6a3a cf3b
000001e0: 2ec4 c93b eabf 263b d6e1 22bb efe3 30bb
000001f0: 626f b638 2900 16bb 0f94 79bb 1943 3fbb
00000200: a981 66ba af73 3fbb b484 77bb 058f 96b9
00000210: fc8c 3a3a 845c 283b 810d 033b 9d42 913b
00000220: 5bfd a23b a8cd 01bb 1463 a1ba 79c2 8aba
00000230: 76ad 4eba 910e fd3a 91a3 6dbb 1d0d ecbb
00000240: 83fe 77bb 0915 f8b7 82b5 df3a 2e82 a5ba
00000250: 7dd0 42bb ce57 6cbb bfce 8fbb 40a3 00bb
00000260: 4051 bf3a afe5 cc3a e8a1 773b 6995 0f3c
00000270: 9063 b53b d087 baba f3af 95ba 68a7 943a
00000280: 198f 21ba 5953 1abb 4348 9fba ab17 afb9
00000290: 2982 72ba 822f 2c3b ae0b 793b 00bc 95ba
000002a0: f5e4 40b9 c6f9 c43a 823e 42ba 95bf 3cba
000002b0: a029 ccba 29de 8dba 7daf aa3a f48b f63b
000002c0: dd87 ea3b 4f11 183b 5c9b 943b affb 753b
000002d0: 1815 eb3a 3b13 713b 56ad b13b a09e 93ba
000002e0: 1021 8ebb 36a8 8d39 80c2 1b3b 12ff 153a
000002f0: 1ae8 cf39 c9aa dbba 7143 2dbb 7c35 27bb
00000300: 91c5 91b9 bb6b 0ebb 7ffb c2bb 0f41 2dbb
00000310: 96f6 ecba 86d0 aabb a051 c4bb 4c2e 69ba
00000320: 5423 18b8 6af9 b13a 948d af3a 86a9 963a
00000330: b9dd 363a f328 a3ba 0731 593a 4bf5 0c3b
00000340: 1378 4939 3e84 393a 72c8 553b 24eb 5fbb
00000350: d790 f4bb 962d 86bb 9632 93b9 e757 4ebb
00000360: f254 57bb 06ad 01bb e6c6 f33a e05b cc3a
00000370: ea41 a539 345a c53b fa67 b23b 231d 773a
00000380: ecfb f03a 1fb9 d83a 94e8 25bb 064d 023a
00000390: 8d07 3f3a 5c24 02bb de3c 0dbb b270 2e3b
000003a0: 5d2d 163a 0723 d3ba ad3b 60b9 9e1c 3f39
000003b0: 2980 b63a 4346 413b 5003 243a 3e2f c1ba
000003c0: a0fd c23a 73a5 8b39 60c3 f4ba fa47 373a
000003d0: 1e61 533b daf7 5eba b326 09bb 9113 3bbb
000003e0: 3a5c 4abb 6ce1 2cba 636e b4ba 18d4 8abb
000003f0: 089c 04bb 4ced 49ba 12f2 41bb 7b6a a8ba
0.0009280304 -0.0011763413 -0.00085298496 0.005970584 0.00022341391 -0.00080521445 0.001052638 0.0017537939
-0.0019377177 0.0018917511 0.0027160468 -0.0008070062 -0.00028332142 0.001739256 -0.0021750743 -0.0007467025
-0.0023679386 -0.0055973786 -0.001180003 -0.004491727 -0.0024873347 0.0013564986 0.0026663549 -0.0051877648
0.005902836 -0.0003308787 -0.000780423 0.003620677 0.0021917373 -0.003509097 -2.236011e-05 0.0030107636
-0.0019869462 -0.0013645027 -0.0012105902 -0.0016861571 -0.0030245404 0.0023004576 0.0023981472 0.0035996193
0.0011091358 0.0037947218 9.4366e-05 0.001675653 0.0015300887 0.0014541183 0.0013256283 5.0997514e-05
-8.009334e-06 -0.001023233 -0.0018625697 0.0026659747 0.00044448194 -0.0017018026 -0.0015242248 -0.00010325194
5.1617576e-06 -0.0021911492 -0.00049565925 0.0022303967 0.0006687372 0.0025264053 0.000697004 -0.001546195
-0.0017159694 -0.0020289253 -0.001301924 -0.0034904538 -0.005952302 -0.0023158956 -0.0015166447 -0.0010202979
0.00016946383 -0.00058251293 -0.0010520994 0.0002700843 0.0013827968 0.00042751676 -0.00015728419 -0.0002168622
-0.002472463 -0.0050788973 -0.004633473 -0.0027378579 -0.0037992583 -0.0012542232 0.0011598021 0.0035789222
0.0022732965 -0.00085898436 0.00096392207 -0.00017986368 -0.0011297916 -0.0014336245 -0.00236077 -0.0015802571
-0.0042327023 -0.00040063699 0.00335464 0.0014478965 0.001763277 0.0014278485 -0.00025409236 -0.0025985185
0.0010594093 0.0023838503 0.0030848368 0.0039653224 -0.0006129187 -4.2850683e-05 -0.001328622 0.0012844208
0.004865562 0.003551201 0.00523858 0.0008985367 0.004244065 0.0075768465 0.0038107948 0.006324102
0.0061574196 0.002544398 -0.0024853847 -0.0026991328 8.699183e-05 -0.002288828 -0.0038082635 -0.002918428
-0.00087931246 -0.002921324 -0.0037768306 -0.00028716787 0.0007116345 0.002568991 0.0019997063 0.0044329898
0.00497405 -0.0019806419 -0.0012312853 -0.0010586522 -0.0007884124 0.0019306709 -0.0036260823 -0.0072037117
-0.003784091 -2.9573699e-05 0.0017067643 -0.0012627298 -0.002972632 -0.0036063078 -0.0043886597 -0.0019628555
0.0014596358 0.0015632416 0.0037785713 0.0087636495 0.0055355504 -0.0014231149 -0.0011420235 0.0011341395
-0.0006162986 -0.0023548214 -0.0012152273 -0.00033396235 -0.0009250963 0.0026273434 0.0038001346 -0.0011423826
-0.0001839584 0.0015028052 -0.0007409827 -0.0007200179 -0.001557637 -0.0010823655 0.001302227 0.007524008
0.0071573094 0.0023203676 0.004535122 0.0037534048 0.0017935364 0.0036785144 0.0054222746 -0.0011262484
-0.0043374375 0.00027018943 0.0023767054 0.00057219074 0.00039655046 -0.0016759272 -0.0026437903 -0.0025514057
-0.00027803754 -0.0021731693 -0.005950391 -0.0026436483 -0.001807886 -0.005212846 -0.005991176 -0.00088951434
-3.6272526e-05 0.001357836 0.0013393634 0.0011494614 0.0006975788 -0.0012448117 0.0008285199 0.002150851
0.00019213585 0.00070768956 0.0032620695 -0.0034167254 -0.0074635553 -0.0040947897 -0.00028075714 -0.00314855
-0.0032857028 -0.0019786968 0.0018598705 0.0015591346 0.00031520362 0.006022716 0.005444524 0.0009426644
0.0018385625 0.0016534663 -0.002531563 0.0004970584 0.0007287197 -0.0019858098 -0.0021551172 0.0026617465
0.00057288056 -0.0016108461 -0.00021384536 0.0001822584 0.0013923693 0.0029491342 0.0006256597 -0.0014738811
0.0014876612 0.00026635415 -0.0018673949 0.00069916213 0.0032253931 -0.00085055607 -0.0020927608 -0.0028545598
-0.0030877725 -0.000659487 -0.0013765808 -0.0042367093 -0.0020234603 -0.00077029015 -0.0029593748 -0.0012849116
