jarvis_voice_cache/b6c7f42193eaea75.npy (npy, 137408 bytes, 1 tensors)

array f4 [34320]
0	0x39e0c57a	0.0004287174
1	0x39be91bf	0.00036348213
2	0xb807b7bb	-3.235762e-05
3	0x3917e701	0.00014486538
4	0x37555d22	1.27174735e-05
5	0x37e20339	2.69428e-05
6	0x37bc6311	2.2457478e-05
7	0x375c2e9f	1.3123877e-05
8	0xb7798000	-1.4871359e-05
9	0x3811ca23	3.475895e-05
10	0x37850dfa	1.5861344e-05
11	0xb8261e43	-3.9605668e-05
12	0xb83e2a08	-4.5338675e-05
13	0x37c644ed	2.3635535e-05
14	0x362ca6db	2.572712e-06
15	0x379b8f80	1.8544262e-05
16	0x3791296e	1.730464e-05
17	0x36ecaf38	7.0537462e-06
18	0x36eb6b0d	7.016008e-06
19	0x35c22fcf	1.446804e-06
20	0xb63a2dd9	-2.7742847e-06
21	0x37a269a5	1.93611e-05
22	0x3660eb8d	3.351571e-06
23	0x3651a5f1	3.1240018e-06
24	0xb7ad75bd	-2.0678033e-05
25	0x36ba3c9a	5.550287e-06
26	0x36c7bd41	5.952694e-06
27	0x373e8d75	1.1357818e-05
28	0xb737f9a2	-1.0965772e-05
29	0x3671a79d	3.6009362e-06
30	0x36be703b	5.6755066e-06
31	0xb61a7e8f	-2.3021455e-06
32	0xb751497d	-1.2474481e-05
33	0x3653d87b	3.1567458e-06
34	0xb77e5fed	-1.5161914e-05
35	0xb7102a04	-8.592851e-06
36	0xb7eab43d	-2.7978904e-05
37	0xb7c6d4bc	-2.3702501e-05
38	0xb87742ec	-5.8951715e-05
39	0xb8559728	-5.0923933e-05
40	0xb88a0341	-6.580959e-05
41	0xb7e21680	-2.6951777e-05
42	0xb8530e65	-5.0319726e-05
43	0xb828a4b4	-4.0207713e-05
44	0xb86e1c2d	-5.6769863e-05
45	0xb8446c7e	-4.6831083e-05
46	0xb6f8c9c4	-7.4144646e-06
47	0xb809b75e	-3.283412e-05
48	0xb8c7663f	-9.508104e-05
49	0xb90f1d58	-0.00013648474
50	0xb901cbbb	-0.00012378294
51	0xb8df0a91	-0.00010635437
52	0xb91ee336	-0.00015152697
53	0xb9493731	-0.00019189414
54	0xb92ed029	-0.00016671479
55	0xb9111536	-0.0001383618
56	0xb925f942	-0.00015828482
57	0xb90f62bf	-0.00013674329
58	0xb8f57262	-0.00011703816
59	0xb93869bc	-0.00017586997
60	0xb93eea0c	-0.00018207001
61	0xb9492ddf	-0.00019185942
62	0xb92166c4	-0.0001539244
63	0xb908c6c8	-0.00013044022
64	0xb902c183	-0.00012469855
65	0xb92c31cc	-0.00016421749
66	0xb8df8d62	-0.00010659803
67	0xb8e006e4	-0.00010682436
68	0xb9016d95	-0.00012343221
69	0xb86476de	-5.447014e-05
70	0xb6fe1a5e	-7.5728594e-06
71	0x368b5bc8	4.1532076e-06
72	0xb79b0fb8	-1.848476e-05
73	0xb76b1644	-1.4012276e-05
74	0xb824955c	-3.923975e-05
75	0xb7af8d87	-2.092753e-05
76	0x36dfa5e8	6.665232e-06
77	0x37307a80	1.0518939e-05
78	0xb76a2073	-1.3955042e-05
79	0xb79b0d3b	-1.84836e-05
80	0xb7dde75a	-2.6452984e-05
81	0xb88bbf08	-6.663619e-05
82	0xb81e6fb7	-3.7774178e-05
83	0xb7579aa5	-1.2851005e-05
84	0xb7b7e073	-2.1919817e-05
85	0xb823bd69	-3.903863e-05
86	0xb8047bba	-3.158648e-05
87	0xb78c0d17	-1.6695396e-05
88	0xb7f3f8fb	-2.9083798e-05
89	0xb818dfe4	-3.644814e-05
90	0xb73d9315	-1.1299523e-05
91	0x3767a7a8	1.38077085e-05
92	0x379da020	1.8790422e-05
93	0x37238a37	9.747738e-06
94	0x37ab9b8a	2.0457217e-05
95	0x3753ab28	1.26164305e-05
96	0x380b5c7c	3.3226315e-05
97	0x38ba953d	8.896969e-05
98	0x388afb2b	6.6271365e-05
99	0x3836ce1c	4.3584136e-05
100	0x38b7096b	8.727874e-05
101	0x391e3247	0.00015086784
102	0x38a4997e	7.8487195e-05
103	0x38de1d06	0.00010591191
104	0x38c6fd6a	9.488578e-05
105	0x38b4ddff	8.624419e-05
106	0x38a0d83f	7.6696735e-05
107	0x38bae33b	8.911496e-05
108	0x38403a83	4.583086e-05
109	0x38dbc71d	0.000104798215
110	0x38a177f1	7.699419e-05
111	0x38f4ae09	0.00011667243
112	0x391e2bbf	0.00015084351
113	0x3910a3e3	0.00013793963
114	0x39051ac2	0.00012693836
115	0x38a8d5b0	8.050667e-05
116	0x38b71305	8.729663e-05
117	0x38e871bd	0.000110838075
118	0x38b85976	8.790467e-05
119	0x38b24b9b	8.501784e-05
120	0x38b12116	8.4461804e-05
121	0x37d8a345	2.5825235e-05
122	0x384d772d	4.89868e-05
123	0x3872692b	5.779524e-05
124	0x38a73697	7.973349e-05
125	0x389e1f99	7.5399126e-05
126	0x37d66b45	2.556074e-05
127	0x3831a825	4.2356685e-05
128	0xb71b58c3	-9.259386e-06
129	0x387b3008	5.9887796e-05
130	0x38cf83f3	9.8951066e-05
131	0x3765fafc	1.37079005e-05
132	0x3861b2df	5.3810767e-05
133	0x38ad57ac	8.265613e-05
134	0x38a76110	7.98126e-05
135	0x37ef6418	2.853763e-05
136	0x37a00eed	1.9080437e-05
137	0x37e1b15e	2.6904683e-05
138	0xb84a8191	-4.828122e-05
139	0x381dd783	3.7632428e-05
140	0x372fb815	1.0473673e-05
141	0x38d61139	0.00010207523
142	0x3843a9c2	4.6649722e-05
143	0x38e9c35b	0.000111466936
144	0x38a70a54	7.965104e-05
145	0xb7a50e3f	-1.9676167e-05
146	0xb6302daf	-2.6252635e-06
147	0xb829bf79	-4.0471063e-05
148	0xb81f28eb	-3.7946662e-05
149	0xb789b73c	-1.6416998e-05
150	0xb8a2c459	-7.7613346e-05
151	0xb840d155	-4.5971323e-05
152	0xb7705708	-1.4325378e-05
153	0x38569581	5.1160812e-05
154	0x377354bd	1.4503658e-05
155	0x3888c3ce	6.521457e-05
156	0xb70c5b36	-8.365887e-06
157	0xb6be4e5e	-5.6715644e-06
158	0xb8484f39	-4.7757498e-05
159	0xb8456f0b	-4.7071877e-05
160	0xb8816996	-6.170866e-05
161	0xb7b06459	-2.1027563e-05
162	0xb8b7af7b	-8.758806e-05
163	0xb84e0f04	-4.912821e-05
164	0xb83e67cc	-4.53962e-05
165	0xb86a2bea	-5.5830846e-05
166	0xb816ebc3	-3.5982357e-05
167	0xb8f4f774	-0.000116809184
168	0xb89583a0	-7.129391e-05
169	0xb793d22a	-1.762163e-05
170	0xb87e93f4	-6.069611e-05
171	0xb787a210	-1.616872e-05
172	0xb7b9be43	-2.2142316e-05
173	0x3873c1ae	5.8116093e-05
174	0xb6149a5c	-2.2143568e-06
175	0xb76c1daa	-1.4073603e-05
176	0x374a5918	1.2060882e-05
177	0xb8a58500	-7.892586e-05
178	0xb8daaa7e	-0.00010426807
179	0x380f2d18	3.4135854e-05
180	0xb84d4318	-4.8938295e-05
181	0x3899d3d8	7.3350675e-05
182	0x35c0b652	1.4358177e-06
183	0x383dda6e	4.526454e-05
184	0x37ead0c0	2.799218e-05
185	0x388581ad	6.366088e-05
186	0xb680a6a8	-3.8340986e-06
187	0xb71f7b5c	-9.50586e-06
188	0xb841f8d3	-4.624652e-05
189	0x37f2811a	2.8908766e-05
190	0x391b0cb5	0.00014786686
191	0x383a6a46	4.444483e-05
192	0x365ee2fa	3.3212696e-06
193	0x389f03be	7.582408e-05
194	0x38bd0376	9.012867e-05
195	0x38dee4ee	0.000106284264
196	0x3915469f	0.00014236056
197	0xb6ae5300	-5.1952666e-06
198	0x388f9cb5	6.84796e-05
199	0x38933d5d	7.020936e-05
200	0x38bb6218	8.935126e-05
201	0x3868ae59	5.5475484e-05
202	0x38ca6e88	9.652699e-05
203	0x389eb96f	7.568567e-05
204	0xb75e71f4	-1.3258763e-05
205	0x38242e0e	3.914354e-05
206	0x38b92351	8.8280656e-05
207	0xb893a052	-7.039368e-05
208	0xb91657b5	-0.00014337788
209	0xb78817c6	-1.6223534e-05
210	0xb8627a0b	-5.399626e-05
211	0xb9393b8c	-0.00017665158
212	0xb9953b46	-0.00028463657
213	0xb861cf50	-5.3837255e-05
214	0xb8b15196	-8.455214e-05
215	0xb8697141	-5.5657005e-05
216	0xb95a9a06	-0.00020847478
217	0xb93e782a	-0.00018164577
218	0xb8c2e2b1	-9.2928654e-05
219	0xb8bdfc7c	-9.059251e-05
220	0xb983a70c	-0.00025110727
221	0xb9274c4b	-0.00015954782
222	0xb9813003	-0.0002464057
223	0xb93d56e0	-0.00018056808
224	0xb82e0875	-4.149271e-05
225	0x38182a31	3.6278918e-05
226	0xb81b420f	-3.70164e-05
227	0xb984ceca	-0.00025331072
228	0xb89b6f83	-7.4117466e-05
229	0x38450af0	4.6978646e-05
230	0xb9130ff6	-0.00014024958
231	0x37e040d2	2.6733065e-05
232	0x39750312	0.00023366165
233	0xb8a490f0	-7.847126e-05
234	0xb9841fba	-0.0002520064
235	0x37d6bbc7	2.5598229e-05
236	0x39674705	0.00022056334
237	0x3893e215	7.051617e-05
238	0xb97399c3	-0.00023231567
239	0x38618112	5.3764386e-05
240	0x393abe5e	0.0001780926
241	0x37009d3b	7.666003e-06
242	0xb92a6b1b	-0.00016252363
243	0xb7bee48d	-2.2756192e-05
244	0x381eddf7	3.7876856e-05
245	0x371ab74f	9.221795e-06
246	0xb917df13	-0.00014483584
247	0xb953a7d7	-0.00020185053
248	0xb91f48cf	-0.00015190545
249	0xb90c2178	-0.00013363909
250	0xb9d5d5ed	-0.00040785913
251	0xb9c9fd84	-0.0003852659
252	0xb91beb36	-0.00014869575
253	0xb9b0aa16	-0.0003369606
254	0xb9bc0ab8	-0.0003586614
255	0xb8a6fc65	-7.962509e-05
