jarvis_voice_cache/b6fc3c1c67cf9cbd.npy (npy, 146624 bytes, 1 tensors)

array f4 [36624]
00000000: bf53 2ebb bda3 c9bb 139b 2dbc 0ace c33b
00000010: 713d 483b ac61 cb3a 237a 423b ffea a73b
00000020: c7e1 b53a a47d 843a 0735 85ba f3c4 3fbb
00000030: 2605 b0bb 7245 98bb 53f8 133b 2e45 28bb
00000040: 67a8 c8ba a500 dabb 221d 28ba df56 ef3a
00000050: fb9f e8ba 76dd 2a3c ebd7 293c 54f9 933a
00000060: d7af 3b3c 4e1f 7e3b 627f 3eb9 a0fb 413b
00000070: ad32 9fba db32 92bb 2d3d f03a c98a 6e3b
00000080: 0ef0 ab3a 5def 743b fc06 a73a 493b 7d3b
00000090: cbce bebb 4f80 6eba f32d 8d3b 5ea8 673b
000000a0: 656e fb3b 3ab7 8d3a 9770 0cbb fa45 b7bb
000000b0: 567e adbb 5747 13bb b879 06ba 536e 0aba
000000c0: ee3a 5b3b 5988 0e3b 941e c13b b81d 1d3c
000000d0: 4ea5 ab3a a102 f23a 01e2 57ba f993 a43a
000000e0: 512f 273b 5404 ecbb 56ae 92bb bf51 2abb
000000f0: 2dc2 b3ba bcfa 3dba 2ec4 edbb 3e13 f0bb
00000100: 045b 82bb 98ff 4439 ec32 b73b 5599 7f3a
00000110: 025d b9b9 4ee9 be3b 5049 e7b9 e567 1b3a
00000120: 1aeb 383b 64ca 20bb d154 a1bb fd41 e3ba
00000130: fc12 cfba d314 86bb 5d96 c2ba 8b84 2b3b
00000140: 2739 cdba b008 2bba 79e7 b93b 9a80 bf3b
00000150: e649 af3b c367 913b 5e65 c439 2ebe 223b
00000160: 3648 60bb 7e8c 6abb 59b9 babb 5be3 d6bb
00000170: 4516 8dba e7ae 44bb c50d 9a3b 86e4 bfba
00000180: bda4 3fbb c75b 9b3b 92db 063c bd35 563c
00000190: 912d c93a f199 5bbb 8173 8bbc ae75 82bc
000001a0: b27c 0fbb b6b9 14bc df50 3cba 15dc 023a
000001b0: 73e8 7f3b 4a73 953b 6595 4c3b 0b51 e6bb
000001c0: 5ec3 2fbb d17f f93a 51ce 853b 61ec 613b
000001d0: f929 84bb baad c23a 6546 32bb 1b63 bb3b
000001e0: c572 0f3c 8ee8 483b 5a3e 52bb c32b 99bb
000001f0: 8df7 7f3b f0f5 913c 79fe 8bba 7da7 f93a
00000200: b92c 553c cc3a 4fb9 daea 80bb 94c9 0dbc
00000210: b7f3 bdbb 0bf9 1bbc b0df c1ba 442f 103c
00000220: 73f0 a13b 8e18 29bb 1f86 f13a b3e6 0c3c
00000230: 7a26 ab3b 1838 6e3b 75d8 05bc bfba 2dbc
00000240: c242 51bb ebc6 373c e70d 253c 4c4a 68bb
00000250: 48a1 6ab9 4ea5 b53b 2b3d 98bb 7f6a 84bb
00000260: a8b5 dfbb bc6b aabb 29b7 c6ba d6ca 163b
00000270: 0a0a 7c3c 3471 1fbc 4b4f 84ba 618e 533b
00000280: 13fd 46bc 9569 30bc fd21 90bc 4b9c 3ebc
00000290: aa89 68bc ff97 e4b8 0627 573b 4feb bab8
000002a0: 5ea9 f73b 60b2 113c a7dc c43b a63d c83a
000002b0: cd95 3fbb a800 e3bb 847d acbb 3696 093b
000002c0: 0203 20b9 094a 6a3a 800a 633b b729 aa3b
000002d0: 34b3 d63b 0541 a2bb efd0 cb3b cd37 d43b
000002e0: 3217 acbb f640 0a3b d9a5 8a3b 0c93 bb3b
000002f0: da35 263c 140a 153c d91f 713b 3f75 b6bb
00000300: 36b9 e8bb 3b40 103b 1c21 9aba fb79 9d3a
00000310: 365b ac3b d9fd f4bb efa8 e8bb 09ab 5bbb
00000320: 3206 6cbb 5c4d c9bb 70dc 04bb 5c74 c4b8
00000330: c42d 79bb 34bb b8bb 6cd9 743b 79b2 923b
00000340: 60b2 dcbb 0f4a 953b 1187 b73b 210d 10bc
00000350: 472a 81bb 63db b93a 3755 b6b9 1fc3 5abb
00000360: e9d2 eebb 9653 7e3b 9d3d 6c3b 0ac2 7e3c
00000370: aabb 843c e8e2 c73c 8964 853c f38b b43b
00000380: 5d5b c33b 2d26 87bb bb97 cfbb ffad 14bc
00000390: 9be2 ed3a 2ba0 21bb 7630 a1ba 94c5 e7ba
000003a0: b794 d43a 9b32 18bc 1341 26bc edfe 16bc
000003b0: b7f1 d53a 4463 9e3b c570 b03b 6e51 963b
000003c0: 1982 ab3a 5bcf 93bb 0c84 95bc c273 96bc
000003d0: 47b3 e8bb afc9 17bb 20ae 723a 26e0 1fbb
000003e0: c3a0 19bb 4871 cb3b 36b8 103c 945f 1a3b
000003f0: 6ac4 af3b 782f 783b cb19 0cbc 6c7a 3bbc
-0.002660021 -0.0061535523 -0.010596055 0.0059754895 0.00305542 0.0015516779 0.002967485 0.0051244493
0.0013876491 0.0010108245 -0.0010162898 -0.0029261678 -0.0053717075 -0.0046469504 0.0022578433 -0.0025676
-0.0015308977 -0.006652909 -0.00064130325 0.0018260143 -0.0017747873 0.010428777 0.01036642 0.0011289516
0.011455498 0.0038775983 -0.00018167266 0.0029599443 -0.001214584 -0.004461629 0.0018328779 0.003639864
0.0013117807 0.0037374117 0.001274317 0.0038640073 -0.0058229915 -0.0009098099 0.004308456 0.0035348157
0.007673072 0.0010812052 -0.0021429413 -0.0055930587 -0.0052946014 -0.0022472942 -0.0005129832 -0.0005280722
0.0033451873 0.002174875 0.005893538 0.009589605 0.0013095529 0.0018463918 -0.00082352763 0.0012556306
0.002551038 -0.0072026644 -0.004476349 -0.0025988666 -0.0013714485 -0.000724714 -0.0072560525 -0.0073265126
-0.003978135 0.00018787233 0.005590787 0.0009750326 -0.00035355246 0.005826152 -0.00044114375 0.0005928262
0.0028216303 -0.0024534697 -0.004923441 -0.0017338392 -0.0015798504 -0.004091838 -0.0014845837 0.002617153
-0.0015657292 -0.0006524427 0.0056733456 0.005844188 0.0053493856 0.004437418 0.00037459558 0.0024832594
-0.0034222729 -0.0035789306 -0.0056983647 -0.0065578646 -0.0010764083 -0.0030011476 0.0047013485 -0.0014640249
-0.0029242479 0.0047411653 0.008231061 0.013074336 0.0015348663 -0.0033508504 -0.01702285 -0.015925255
-0.0021894393 -0.00907748 -0.00071836816 0.0004991901 0.0039048463 0.0045608627 0.0031216976 -0.007028704
-0.0026819329 0.0019035285 0.0040834327 0.0034473168 -0.004033324 0.00148528 -0.0027202603 0.0057186014
0.0087553905 0.0030656192 -0.0032080621 -0.0046744063 0.0039057464 0.017817467 -0.0010680697 0.0019047108
0.013011151 -0.00019762962 -0.0039342465 -0.008654017 -0.0057968753 -0.009519826 -0.0014791396 0.0088003315
0.004941994 -0.002580199 0.0018426812 0.008599925 0.0052230926 0.0036349352 -0.008169283 -0.010603606
-0.003193066 0.011216859 0.010074115 -0.0035444675 -0.00022376061 0.0055433875 -0.0046459637 -0.0040410156
-0.006827075 -0.005200831 -0.0015160787 0.0023009083 0.015383253 -0.00973158 -0.0010094432 0.003228091
-0.0121452985 -0.01076736 -0.017594332 -0.011633943 -0.014192978 -0.00010900199 0.0032829656 -8.913001e-05
0.007558032 0.008892626 0.006007749 0.0015277162 -0.0029233575 -0.0069275685 -0.005263986 0.0020994074
-0.0001525991 0.00089374237 0.003464371 0.005192961 0.0065521244 -0.0049515986 0.006219975 0.0064763785
-0.0052517885 0.0021095849 0.0042311964 0.0057243165 0.010144675 0.009096641 0.0036792664 -0.005568176
-0.007102157 0.002201094 -0.0011759135 0.0012014502 0.0052598966 -0.00747655 -0.0071002166 -0.0033518693
-0.0036014435 -0.006143255 -0.0020272993 -9.367682e-05 -0.0038021663 -0.0056375507 0.003736104 0.004476842
-0.006735131 0.0045559476 0.005600818 -0.008792193 -0.0039418074 0.0014179762 -0.00034777235 -0.0033380461
-0.007288326 0.0038807145 0.0036047467 0.015549192 0.016202766 0.02440019 0.01628329 0.0055098473
0.005961819 -0.004124424 -0.0063352264 -0.009074687 0.0018149199 -0.0024662118 -0.0012297768 -0.0017682784
0.0016218637 -0.009289409 -0.010147351 -0.0092160525 0.0016322647 0.0048336107 0.005384537 0.004587344
0.0013085037 -0.0045108027 -0.018251441 -0.018365745 -0.0071014496 -0.0023160984 0.0009257514 -0.0024395077
-0.0023441769 0.0062085725 0.008832982 0.0023555504 0.0053639906 0.003787009 -0.008551071 -0.011442762
