jarvis_voice_cache/b71c550b2830764f.npy (npy, 267456 bytes, 1 tensors)

array f4 [66832]
000000 9a 9d 07 ba 3d 5f d8 bb 20 e3 31 bc 22 1a 87 bb
       -0.0005173326 -0.00660315 -0.0108573735 -0.0041229883
000010 74 1a c5 ba c5 ea 88 3a 7a 2d c8 3b 54 3a 58 3c
       -0.0015037791 0.0010445943 0.006108937 0.0131975
000020 3c 0b 12 3c 9d a1 a1 3b e3 70 c8 3a 95 20 dd bb
       0.008913811 0.004932596 0.0015292432 -0.006748269
000030 02 99 71 bc c2 d7 74 bc da c5 6f bc 24 0e 81 bb
       -0.014745953 -0.014944019 -0.014634574 -0.0039384533
000040 b1 c7 37 3b 12 ff 27 3c 17 0f 4d 3c 22 3e e0 3b
       0.002804261 0.010253685 0.012515805 0.0068433443
000050 55 86 16 bb 2b 88 82 bb 99 63 1f bc b0 a3 57 bc
       -0.0022968252 -0.0039835176 -0.009728336 -0.013161585
000060 a4 db ab bb 05 78 d0 bb 56 72 4d 3b b4 ad 0e 3c
       -0.005244689 -0.0063619637 0.0031348667 0.008708406
000070 41 d0 27 3c 0b 65 4c 3b 00 3f 90 3b 42 a9 68 37
       0.010242523 0.0031188156 0.0044020414 1.3867686e-05
000080 3c af 87 bb ad ee be ba 1f 17 9e 3a 20 92 f3 3a
       -0.0041407626 -0.001456698 0.0012061334 0.0018582977
000090 c6 04 c1 3b 76 09 0d 3c 1b 03 d6 3b 74 66 12 3b
       0.0058904616 0.008608213 0.006531132 0.00223389
0000a0 6b 94 85 bb 2b 3d b1 bb 03 69 01 bc 0a 9a 8f ba
       -0.0040765307 -0.005408903 -0.007898572 -0.0010955941
0000b0 56 89 fd 3b 47 b5 1f 3c 16 20 36 3c 76 a5 04 3c
       0.007737319 0.00974781 0.011116048 0.00809609
0000c0 f0 d3 23 ba f0 81 12 bc 22 74 3d bc 20 0f 05 bc
       -0.00062495377 -0.008942112 -0.011563333 -0.008121282
0000d0 b6 10 75 bb 18 6c bd 3a a8 ed f5 3b 3c 63 2c 3c
       -0.0037393994 0.001445177 0.0075051375 0.010521706
0000e0 39 13 2e 3c aa 41 da 3b ff a5 e5 ba db 11 1a bc
       0.0106247 0.00666066 -0.0017520784 -0.009403671
0000f0 a1 66 49 bc 41 ef 4d bc d6 ac 1e bc 23 7d 23 bb
       -0.012292535 -0.01256925 -0.009684762 -0.0024946413
000100 3d 7c ef 3b 1f f3 2c 3c 30 9d 2b 3c 35 58 93 3b
       0.0073085115 0.010556011 0.010474488 0.004496599
000110 a3 30 91 bb 54 13 23 bc 41 38 71 bc 8d aa 7c bc
       -0.004430847 -0.009953339 -0.014722885 -0.015421522
000120 ca 31 0d bc 11 72 e3 ba 48 aa 15 3b d7 8f 15 3c
       -0.008617828 -0.001735272 0.0022837091 0.009128532
000130 3e f1 53 3c 6a 95 d7 3b c3 55 27 bb bd 1d 05 bc
       0.012935935 0.006579091 -0.0025533296 -0.008124766
000140 48 8b 1e bc 4f 5a b6 bb 80 a3 a0 3a ca 37 8d 3b
       -0.009676762 -0.005564965 0.0012255758 0.004309629
000150 49 ee af 3b 3f ff 15 3b 99 49 84 3a 6a 30 e6 3a
       0.005368982 0.0022887734 0.0010092735 0.0017562036
000160 46 a7 8c 3a 6d c2 4a bb f3 77 7b bb 12 9c 96 3a
       0.0010731004 -0.003093864 -0.0038371056 0.0011490604
000170 86 63 a9 3b a6 1e f3 3b cf c4 a1 3b e9 05 f9 3a
       0.005169335 0.007419425 0.0049367915 0.0018998954
000180 2f 2e 85 38 e9 60 a4 bb 74 50 74 bb 01 fa a0 bb
       6.3505366e-05 -0.0050164354 -0.00372794 -0.0049126153
000190 2f ba 76 bb 20 d9 76 3b 48 5e 30 3c a1 85 47 3c
       -0.0037647595 0.0037666038 0.010764666 0.012177856
0001a0 19 93 13 3c c1 94 7d 3b de 42 d3 bb eb 7e 6e bc
       0.009007239 0.00386934 -0.00644718 -0.014556627
0001b0 ca 13 71 bc e9 0c b6 bb 50 e7 2b 3b 73 df 2d 3c
       -0.014714191 -0.005555738 0.0026230402 0.0106123565
0001c0 9f 34 5f 3c 9e fc 0c 3c fd eb 55 3b dc 46 27 bb
       0.013623386 0.0086051505 0.003264188 -0.0025524413
0001d0 bb 02 9d bb cd b1 ed bb b9 92 cc bb 43 6a 27 bb
       -0.0047915853 -0.0072538615 -0.0062430766 -0.0025545515
0001e0 95 35 71 bb a4 63 40 bb d6 fd 93 3b 9a 2d 3a 3c
       -0.003680562 -0.0029356265 0.0045163436 0.011363411
0001f0 db d9 34 3c dc 67 74 3b 10 89 c9 bb 38 cf 3b bc
       0.011038269 0.003729335 -0.0061503723 -0.011462979
000200 54 d6 5a bc bb ea ab bb 68 a9 6d 3b 42 f2 f0 3b
       -0.013356764 -0.005246488 0.0036264304 0.007353098
000210 e2 45 f9 3b c3 e2 cf 3b 2a af 44 3b 63 9c 01 bb
       0.0076072076 0.006344171 0.0030011632 -0.0019777052
000220 03 05 d5 bb 92 f9 7f bb 7f 39 3e 3b 7b 75 85 3b
       -0.0065008416 -0.0039058668 0.002902597 0.0040728427
000230 e0 85 d4 38 70 83 e3 39 62 5c 24 3a 91 76 56 3b
       0.00010133884 0.00043394743 0.00062698696 0.003272448
000240 d1 f8 f3 3a 6e 61 98 3b 07 64 ef 3b 47 88 0e ba
       0.0018613582 0.0046502864 0.0073056254 -0.0005437177
000250 aa f3 9b bb 2a 52 65 bb d3 7a 65 3b ea d4 1b 3c
       -0.0047592716 -0.00349916 0.0035015836 0.009511212
000260 17 89 1e 3c 91 72 03 3c af 9d e6 39 d0 2d df bb
       0.009676239 0.00802292 0.00043986502 -0.006810881
000270 bc 9c 0e bc a7 89 ab bb 4c 88 a6 3a 42 33 5d 3b
       -0.008704361 -0.0052349153 0.0012705415 0.0033752476
000280 57 98 9e 3b 65 ca 03 3c d5 4e 6b 3b f8 54 01 3a
       0.0048399377 0.00804386 0.0035905142 0.0004933621
000290 a4 40 31 bb a3 49 85 bb 1b c4 7b bb f5 13 eb bb
       -0.0027046585 -0.004067616 -0.0038416449 -0.00717401
0002a0 9b d5 de bb ca 29 da bb 2c e8 9c ba bd 3e 35 3c
       -0.006800366 -0.0066578137 -0.0011971048 0.011062321
0002b0 cb 2b 56 3c 0a 4c 00 3c da af 6e ba 93 6d 0c bc
       0.0130719645 0.007830629 -0.00091051834 -0.008571046
0002c0 90 9c 4c bc 12 d1 20 bc 8a eb d9 3a a4 25 9b 3b
       -0.012488499 -0.009815471 0.0016625982 0.0047347117
0002d0 b7 48 9f 3b bf 03 00 3c 2b e8 fb 3b 4f 2e 17 3b
       0.004860963 0.007813393 0.0076875887 0.0023068374
0002e0 ca 83 08 bb ff 44 62 ba b3 71 24 bb 25 46 52 bb
       -0.0020830506 -0.0008631497 -0.0025092184 -0.0032085266
0002f0 cf b0 90 ba 9c 08 92 3b e2 ab 10 3c 55 8f a8 3b
       -0.0011039021 0.0044565927 0.008830043 0.0051440396
000300 f6 2e 82 3a 39 93 0b bb ac 99 93 bb 97 0d 26 bb
       0.0009932208 -0.0021297468 -0.004504403 -0.002533769
000310 6d cc ac bb 77 3d 90 bb d5 1e 44 3b cf b4 16 3c
       -0.005273393 -0.0044018584 0.0029925604 0.009198382
000320 44 19 0a 3c 0c 49 9b 3b 43 62 e2 ba 55 83 29 bc
       0.008428875 0.0047389325 -0.0017271716 -0.010346253
000330 cb c9 6d bc e7 60 44 bc cf c0 72 bb 1c 60 5e 3b
       -0.014513443 -0.011985994 -0.0037041192 0.0033931797
000340 2c 7b 99 3b 8c 40 85 3b a5 59 8e 3b 75 cb c8 ba
       0.0046838727 0.0040665325 0.0043441826 -0.0015319424
000350 58 94 0d bc 2e 2e 02 bc b7 bf fb bb 47 a1 21 bc
       -0.008641325 -0.00794558 -0.0076827663 -0.009865112
000360 95 9d 15 bc 28 86 0e bb 4c 10 a3 3b 3c a1 9b 3b
       -0.009131809 -0.0021747444 0.004976308 0.0047494452
000370 aa 8e 73 3b 51 93 c5 3a 5f 4c 13 bc e8 2a 92 bc
       0.0037163892 0.0015073811 -0.008990376 -0.017842725
000380 f4 11 52 bc 7f 67 56 bb ef 14 fa b9 dc 1f 8a 3b
       -0.012821663 -0.0032715497 -0.00047699313 0.0042152237
000390 9e e4 f2 3b c9 c3 02 3b 25 4c 3b bb 0b 66 f0 ba
       0.007412507 0.0019953123 -0.0028579321 -0.0018340958
0003a0 55 be 75 bb 6a d4 13 bc d1 a3 e8 bb ae b6 11 3b
       -0.003749748 -0.009022811 -0.0070996066 0.002223413
0003b0 e6 a4 f2 3b c2 e0 cb 3b 7f 71 3d 3b e4 15 39 3b
       0.0074049113 0.0062218616 0.002890676 0.0028241808
0003c0 5f 67 be 3a 98 24 40 bb 61 25 c7 ba 3e 38 a1 39
       0.0014526657 -0.0029318687 -0.0015193635 0.00030750217
0003d0 aa 1d c8 3a d7 f8 b7 3b ad 66 b0 3b f6 bc 09 3b
       0.001526763 0.005614381 0.0053833337 0.002101717
0003e0 b9 a9 cd 3a 56 a5 82 3b e0 e8 3e 3b 7b 04 e8 3a
       0.001569084 0.0039869947 0.0029130504 0.0017701531
0003f0 5a 8e 55 39 6d b0 80 bb 48 62 f2 ba fb 00 3c 3b
       0.00020366293 -0.0039272816 -0.0018492425 0.0028687108
