jarvis_voice_cache/b725cc12cf19c708.npy (npy, 218304 bytes, 1 tensors)

array f4 [54544]
00000000: 3615 d539 cc2b b739 88f9 65b7 4283 0d39
00000010: f1f7 ee37 46fb 9437 a0c3 3237 8b14 4537
00000020: 63f1 66b7 5e9a 4537 d5fa 2537 78f0 cfb7
00000030: 55c3 00b8 6f31 a337 8271 7836 fd20 8c34
00000040: 4fed 67b6 b229 a836 f689 cf36 5e26 a5b7
00000050: f9a8 75b7 5184 1037 2239 13b6 f15b 49b7
00000060: 79de cdb6 a666 8735 ce33 1cb6 2c88 f0b6
00000070: 7df9 0cb7 28b4 3eb6 635a 2ab6 e50a b6b6
00000080: e73f 6fb6 170d 1836 8557 83b6 0701 1bb7
00000090: 4cfa 0c36 98cb 1937 cba2 3db7 c6e3 32b7
000000a0: 2940 0436 d8e7 6536 a9c5 12b7 d84e 56b6
000000b0: 29b0 b5b6 1ee0 c5b6 e5b4 8235 c82c f3b6
000000c0: 07a3 e4b6 1c9f f935 ff9a 27b7 d822 c9b7
000000d0: 2f22 bcb7 a4be 08b8 2166 2cb8 75f3 25b8
000000e0: 7892 f4b7 f3b1 a7b7 4a15 f5b7 3723 72b8
000000f0: cb61 9eb8 a8f6 83b8 a474 a2b8 b2d4 7fb8
00000100: aaae 61b8 3896 53b8 d5c7 a2b8 10a5 91b8
00000110: 3b07 74b8 1882 a7b8 f65c 03b9 ecd6 f9b8
00000120: bdfd 11b9 2b05 28b9 b913 37b9 0df4 21b9
00000130: 4368 0cb9 8b80 16b9 a11e 09b9 3bb8 dcb8
00000140: cf4f b6b8 27c7 a9b8 c3f0 b2b8 2c09 e2b8
00000150: ab7d cbb8 1164 a7b8 0dcc fdb8 c424 dbb8
00000160: f73b aeb8 6223 9db8 1d5a b3b8 71a7 8db8
00000170: d535 66b8 e0e0 f2b7 2da6 bab7 7c25 8fb7
00000180: 1cb9 6cb7 879d 89b6 2141 84b8 7449 37b8
00000190: 47e6 2db8 b736 2ab8 9366 7bb8 2912 a9b6
000001a0: 4fc9 e6b7 436f 69b7 1b77 5cb7 77fb 6bb5
000001b0: 3229 e2b4 0f72 4437 0519 f3b6 7212 c435
000001c0: bcde b337 f5d9 6bb7 d434 bb36 a169 e2b7
000001d0: c597 22b8 640d 42b8 b8c5 7fb7 4025 1037
000001e0: 5938 ee36 f6ec 12b8 4cd9 bfb6 4ea0 b537
000001f0: e970 1a38 b862 0c36 66e8 ab37 4542 66b7
00000200: e5f7 4ab8 19bf 48b8 ded3 8b37 8ee7 14b8
00000210: 64be e2b7 8993 2937 f853 37b7 6ec5 21b8
00000220: 1262 f736 c281 f936 1422 acb7 b7da c4b7
00000230: ca31 6437 c0db 45b7 5188 9db6 2261 3c38
00000240: 8160 d0b7 2e3d f2b8 a928 1ab8 8ae3 8eb5
00000250: d744 1bb8 9e8f bc36 d73c 33b8 9aab 8db7
00000260: 0ffb 0838 b879 2f38 3020 7b37 0cbf 8d36
00000270: eef1 19b7 c29a 18b8 9900 2db7 0414 b9b7
00000280: ff24 2ab7 8078 20b8 ec80 9bb8 ea4d 87b7
00000290: 5ac3 d7b7 6404 9c37 d2a6 bdb6 a97d 1337
000002a0: bff3 c3b7 a4ba 6138 07f1 2738 4d9d b737
000002b0: 2653 18b8 e975 4537 acbd 8bb8 8f5a d633
000002c0: aba3 6737 7c5d 7db7 9d0c 21b8 22bd 8e37
000002d0: c8fd f3b7 e2c8 6e38 b419 2cb7 abbb bb37
000002e0: 3789 ae37 5fe4 44b8 f0c9 00b8 987a b3b7
000002f0: cf14 47b8 cda5 1cb6 a275 8737 2a05 82b8
00000300: 5ec9 91b8 32c5 23b8 ce5b 96b7 59a3 66b7
00000310: 52e4 f237 19f6 bbb7 7951 1a38 9bf4 bd36
00000320: f25b adb7 c407 96b7 e619 1ab7 2cfe 2eb8
00000330: d2b2 17b9 8d8e 59b8 cd39 28b8 93b6 c5b8
00000340: 7c52 8bb8 ad6c 7db8 d52d 0db8 1a0c d7b7
00000350: 076a e0b8 2039 f1b7 111c b9b8 7bae 4db8
00000360: a046 2eb8 f194 aeb8 c61c 5bb8 4923 4bb8
00000370: a7a4 d7b8 1c2f 97b8 944c 1ab9 9579 11b9
00000380: 9382 95b8 535a 9db8 bd2f 62b7 0d65 62b8
00000390: 6175 9db6 673e 32b7 2bcd 0db8 18e2 dab7
000003a0: 1784 26b8 b2d7 14b9 58a3 67b9 7f8b 0fb9
000003b0: 0237 f4b8 e3b6 54b8 ace2 d5b8 5593 d938
000003c0: bf5e f836 4a2a c3b7 bc44 3db8 ccd3 6937
000003d0: aeae 8fb7 2cc7 00b8 9791 c0b8 8fa8 09b9
000003e0: 8a5c c8b8 4e48 bcb4 41a6 97b8 c516 43b8
000003f0: fd07 eeb7 3951 c2b8 9226 b9b7 baef adb8
0.0004064233 0.0003493711 -1.3707562e-05 0.00013495705 2.8487268e-05 1.7759983e-05 1.0655174e-05 1.1746898e-05
-1.37652705e-05 1.1778056e-05 9.893168e-06 -2.47883e-05 -3.0699495e-05 1.9454134e-05 3.702095e-06 2.6101034e-07
-3.4559814e-06 5.011644e-06 6.1851415e-06 -1.9687399e-05 -1.464248e-05 8.613876e-06 -2.1937963e-06 -1.200194e-05
-6.1353753e-06 1.0088158e-06 -2.3275966e-06 -7.16841e-06 -8.402739e-06 -2.841707e-06 -2.5384586e-06 -5.425291e-06
-3.5650971e-06 2.2657384e-06 -3.914293e-06 -9.238959e-06 2.1007318e-06 9.1669135e-06 -1.1303181e-05 -1.0662659e-05
1.970688e-06 3.425861e-06 -8.7482995e-06 -3.1934378e-06 -5.414728e-06 -5.897148e-06 9.738402e-07 -7.2471776e-06
-6.8139084e-06 1.8598253e-06 -9.9900635e-06 -2.3977293e-05 -2.2427264e-05 -3.2602475e-05 -4.110311e-05 -3.9565803e-05
-2.9155271e-05 -1.9990815e-05 -2.921619e-05 -5.7730093e-05 -7.5522425e-05 -6.29251e-05 -7.746488e-05 -6.0994826e-05
-5.380685e-05 -5.0446222e-05 -7.7619836e-05 -6.944884e-05 -5.8180867e-05 -7.9874124e-05 -0.00012527764 -0.000119132776
-0.00013922802 -0.00016023654 -0.00017459587 -0.00015445072 -0.00013390281 -0.00014353001 -0.00013076748 -0.00010524733
-8.693302e-05 -8.095643e-05 -8.532547e-05 -0.00010778228 -9.703202e-05 -7.981819e-05 -0.000121019875 -0.00010449582
-8.308136e-05 -7.492934e-05 -8.55217e-05 -6.754592e-05 -5.4886408e-05 -2.8953364e-05 -2.225031e-05 -1.7064383e-05
-1.4109795e-05 -4.1012568e-06 -6.306382e-05 -4.369901e-05 -4.1460877e-05 -4.0582116e-05 -5.9938593e-05 -5.0387066e-06
-2.7511878e-05 -1.3913787e-05 -1.3140753e-05 -8.791025e-07 -4.2125754e-07 1.1709067e-05 -7.244877e-06 1.4608506e-06
2.1442182e-05 -1.4057839e-05 5.5791843e-06 -2.6990487e-05 -3.8765156e-05 -4.6265675e-05 -1.5245219e-05 8.591742e-06
7.0995125e-06 -3.50298e-05 -5.7175403e-06 2.165153e-05 3.6821617e-05 2.0919088e-06 2.0493007e-05 -1.3724498e-05
-4.8391423e-05 -4.786169e-05 1.666875e-05 -3.55016e-05 -2.7029957e-05 1.0107536e-05 -1.09272005e-05 -3.8569262e-05
7.3725905e-06 7.435884e-06 -2.0519867e-05 -2.3466868e-05 1.3601451e-05 -1.179328e-05 -4.694834e-06 4.4913155e-05
-2.484047e-05 -0.00011550855 -3.675433e-05 -1.0646047e-06 -3.7018992e-05 5.619556e-06 -4.2733587e-05 -1.6888418e-05
3.2658743e-05 4.183661e-05 1.496826e-05 4.2243682e-06 -9.175839e-06 -3.6383753e-05 -1.0311743e-05 -2.2063039e-05
-1.0141403e-05 -3.8259197e-05 -7.4149895e-05 -1.6129536e-05 -2.5720965e-05 1.8598694e-05 -5.6520594e-06 8.79114e-06
-2.3359315e-05 5.3818003e-05 4.0040377e-05 2.1888549e-05 -3.6317062e-05 1.1769568e-05 -6.663366e-05 9.981624e-08
1.380678e-05 -1.5101741e-05 -3.839714e-05 1.7015791e-05 -2.9086033e-05 5.693071e-05 -1.0257983e-05 2.2379527e-05
2.0806312e-05 -4.694273e-05 -3.0705647e-05 -2.139555e-05 -4.7464677e-05 -2.334232e-06 1.6148031e-05 -6.199845e-05
-6.951646e-05 -3.904588e-05 -1.7924143e-05 -1.3747101e-05 2.8954968e-05 -2.2406735e-05 3.679234e-05 5.6611148e-06
-2.0666022e-05 -1.788501e-05 -9.185145e-06 -4.172155e-05 -0.00014467098 -5.1869592e-05 -4.0108152e-05 -9.427699e-05
-6.6434004e-05 -6.0421113e-05 -3.3659704e-05 -2.5635632e-05 -0.000107009015 -2.875604e-05 -8.826715e-05 -4.9038306e-05
-4.1550607e-05 -8.324709e-05 -5.2240466e-05 -4.8431833e-05 -0.00010282668 -7.209016e-05 -0.00014715112 -0.0001387357
-7.129195e-05 -7.5031676e-05 -1.3481765e-05 -5.397671e-05 -4.6926293e-06 -1.0624156e-05 -3.3808097e-05 -2.6092908e-05
-3.9700502e-05 -0.00014194733 -0.00022090727 -0.00013689509 -0.00011645073 -5.0715065e-05 -0.000101988524 0.00010374809
7.402006e-06 -2.3265504e-05 -4.5125125e-05 1.3937195e-05 -1.712827e-05 -3.070307e-05 -9.182392e-05 -0.00013128131
-9.55398e-05 -3.5070337e-07 -7.231208e-05 -4.651283e-05 -2.837553e-05 -9.26577e-05 -2.207168e-05 -8.2939354e-05
