jarvis_voice_cache/b79c5a5ef77f1ced.npy (npy, 142528 bytes, 1 tensors)

array f4 [35600]
0	0x3a2a52bc	0.0006497314
1	0x39f5ba10	0.0004686867
2	0x390fb167	0.0001370363
3	0x398642fb	0.00025608376
4	0x38905167	6.8816174e-05
5	0x39649470	0.00021799072
6	0x388e6f7a	6.791852e-05
7	0x38daab0b	0.00010426909
8	0x388b542e	6.643716e-05
9	0x38b9e416	8.863972e-05
10	0x3883a1f6	6.276734e-05
11	0xb845e16f	-4.717841e-05
12	0xb8886947	-6.504595e-05
13	0xb85ba6c3	-5.2368978e-05
14	0xb889db66	-6.573535e-05
15	0xb8180447	-3.6243608e-05
16	0x35d961c1	1.619621e-06
17	0x37ba72c2	2.2226366e-05
18	0x38192d35	3.6520145e-05
19	0x37b19639	2.1169997e-05
20	0xb764bed5	-1.3634291e-05
21	0x369e7b38	4.7231115e-06
22	0xb7fff455	-3.0512145e-05
23	0xb8262721	-3.9613926e-05
24	0xb8799ee3	-5.95142e-05
25	0xb79753e8	-1.8039675e-05
26	0xb70e9daa	-8.500569e-06
27	0x37fad41a	2.990109e-05
28	0x36c1a4bf	5.771027e-06
29	0x3803a6fd	3.1388354e-05
30	0x38bf552d	9.123455e-05
31	0x390e95e0	0.00013598008
32	0x39025a38	0.00012431375
33	0x39194717	0.000146177
34	0x3900093b	0.0001221047
35	0x3907c91a	0.0001294952
36	0x38bb9996	8.9454625e-05
37	0x3909cb6f	0.00013141123
38	0x391f492c	0.0001519068
39	0x3946c299	0.00018955245
40	0x394ce1ed	0.0001953912
41	0x3975cb7d	0.00023440826
42	0x397de401	0.00024212898
43	0x39842a8d	0.00025208705
44	0x39802722	0.0002444322
45	0x39869469	0.00025669046
46	0x39958e41	0.00028525482
47	0x399152c9	0.00027718235
48	0x397e55f3	0.00024255346
49	0x3967f468	0.00022120925
50	0x39369c98	0.00017415208
51	0x393219f4	0.00016985071
52	0x393d6bae	0.00018064558
53	0x3946ed64	0.00018971186
54	0x39378aed	0.00017503994
55	0x3931cf8d	0.00016957354
56	0x3919e770	0.00014677434
57	0x39144ac9	0.0001414224
58	0x39298a85	0.00016168698
59	0x390635f7	0.0001279934
60	0x38f5f084	0.0001172731
61	0x38e0da2d	0.00010721791
62	0x390af65f	0.00013252486
63	0x38c281d0	9.27482e-05
64	0x3900e0a5	0.00012290718
65	0x39046ea0	0.00012629712
66	0x38c80f3b	9.53958e-05
67	0x3866a10b	5.4986256e-05
68	0x38d33cab	0.00010072564
69	0x38be34bb	9.069728e-05
70	0x38964825	7.165995e-05
71	0x389c367e	7.4488096e-05
72	0x38c2d3b0	9.290071e-05
73	0x38a1d740	7.717172e-05
74	0x385f960e	5.3307092e-05
75	0x388620bf	6.395717e-05
76	0x3891b144	6.947157e-05
77	0x3822dff1	3.883237e-05
78	0x37062b10	7.997049e-06
79	0x35f8c88c	1.8535807e-06
80	0xb879af87	-5.95297e-05
81	0xb855262a	-5.08187e-05
82	0xb809e44b	-3.287596e-05
83	0x3706b3fc	8.028928e-06
84	0xb84d2a3b	-4.891514e-05
85	0xb81e7848	-3.7782156e-05
86	0xb8cc381c	-9.737929e-05
87	0xb8cccf3c	-9.7660784e-05
88	0xb906014b	-0.00012779718
89	0xb903f4e6	-0.00012584365
90	0xb91af9ac	-0.00014779594
91	0xb91820b5	-0.00014508034
92	0xb908f4b1	-0.00013061125
93	0xb90b43e3	-0.00013281363
94	0xb90d4041	-0.00013470744
95	0xb917b96b	-0.00014469556
96	0xb9046b8d	-0.00012628567
97	0xb905f366	-0.00012774541
98	0xb9147faa	-0.00014161938
99	0xb936d050	-0.00017434475
100	0xb9220352	-0.00015450761
101	0xb8ff5984	-0.00012176021
102	0xb90da7e7	-0.00013509356
103	0xb909a50c	-0.00013126823
104	0xb8a95e57	-8.07612e-05
105	0xb90377b3	-0.00012537725
106	0xb9270e09	-0.0001593159
107	0xb8f68a7c	-0.00011755989
108	0xb914bcfd	-0.00014184784
109	0xb8988710	-7.273082e-05
110	0xb9152df4	-0.00014226866
111	0xb8917028	-6.9350295e-05
112	0xb83a94d3	-4.448446e-05
113	0xb87839e1	-5.918171e-05
114	0x373d8e48	1.1298405e-05
115	0xb912d183	-0.00014001694
116	0xb90a8e51	-0.00013213723
117	0xb9066010	-0.00012815022
118	0xb92564a4	-0.00015773118
119	0xb96e8b62	-0.00022749373
120	0xb8f0cedd	-0.00011482623
121	0xb93ec92c	-0.00018194754
122	0xb8dfcb65	-0.00010671354
123	0xb8809982	-6.132109e-05
124	0xb8a1e6ea	-7.720089e-05
125	0xb8dd3192	-0.000105473344
126	0xb9427f64	-0.00018548738
127	0xb8f15a70	-0.00011508621
128	0xb95a8719	-0.00020840428
129	0xb9399c67	-0.00017701239
130	0xb829d3bf	-4.0489944e-05
131	0xb94c76af	-0.00019499169
132	0xb8e8227a	-0.00011069044
133	0xb900413e	-0.00012231336
134	0xb8da7936	-0.00010417627
135	0xb935b9f8	-0.00017330784
136	0xb90bff68	-0.00013351219
137	0xb8f15950	-0.00011508411
138	0xb8e99992	-0.000111389105
139	0xb8c1c91c	-9.240417e-05
140	0xb855d546	-5.0981784e-05
141	0xb781521a	-1.541623e-05
142	0xb78ae689	-1.6558233e-05
143	0x38c39473	9.3259754e-05
144	0x37c7dc1a	2.3825141e-05
145	0xb8bffdd2	-9.1548674e-05
146	0xb8892d14	-6.5410655e-05
147	0xb6535c48	-3.1495165e-06
148	0xb897a4ba	-7.230924e-05
149	0xb86af5f0	-5.6018995e-05
150	0xb8a49f20	-7.849769e-05
151	0xb86d9115	-5.664032e-05
152	0x36530272	3.1442873e-06
153	0x38b24577	8.50064e-05
154	0x38874fe9	6.452186e-05
155	0x385d88c7	5.281789e-05
156	0xb71aa155	-9.216678e-06
157	0xb931eb2f	-0.00016967648
158	0xb908fb09	-0.00013063489
159	0xb900a901	-0.0001226999
160	0xb91c5f66	-0.00014912858
161	0xb74a458b	-1.205633e-05
162	0xb8216e31	-3.8488015e-05
163	0x383b116e	4.4600507e-05
164	0x38815058	6.1661645e-05
165	0xb83c2246	-4.4854612e-05
166	0x364dbe3a	3.0658107e-06
167	0xb94259b6	-0.00018534702
168	0xb90e2481	-0.00013555774
169	0xb93f2246	-0.00018227947
170	0xb95c7bec	-0.00021027
171	0xb90d2b73	-0.00013462994
172	0xb96d2f60	-0.0002261973
173	0xb6771fdc	-3.6824413e-06
174	0xb7da60b9	-2.6032665e-05
175	0xb86efbce	-5.6978133e-05
176	0x36fa9511	7.467934e-06
177	0xb91ff659	-0.00015255193
178	0xb9219411	-0.00015409316
179	0xb878586b	-5.9210153e-05
180	0xb94737dc	-0.00018998928
181	0xb88d853f	-6.748223e-05
182	0xb8332234	-4.270878e-05
183	0xb6fd7e06	-7.5546586e-06
184	0xb7bdc2c6	-2.2621254e-05
185	0x389d2267	7.492751e-05
186	0x38d61627	0.000102084414
187	0x37dce13b	2.6330925e-05
188	0xb84a7817	-4.8272395e-05
189	0x389953de	7.31123e-05
190	0x39120cd7	0.00013928428
191	0xb6122054	-2.1774513e-06
192	0x37c68a50	2.3667846e-05
193	0x37d12873	2.4933577e-05
194	0x390ad1d7	0.00013238877
195	0x397f7bfa	0.0002436488
196	0x3979ec0c	0.00023834425
197	0x38a4fbb9	7.8670164e-05
198	0x3964a5c7	0.00021805531
199	0x39a55b79	0.00031539405
200	0x39181a23	0.00014505586
201	0x39843092	0.0002521319
202	0x393ec5c0	0.0001819348
203	0x3951ec2b	0.00020019773
204	0x389f92e8	7.609074e-05
205	0x3981ad3f	0.00024733876
206	0x398a0dd7	0.00026331723
207	0x3950b916	0.00019905376
208	0x3924d53b	0.00015719693
209	0x395285e6	0.00020077042
210	0x393ddabe	0.00018105932
211	0x38ac2b10	8.20962e-05
212	0xb83d6745	-4.515729e-05
213	0xb79334b2	-1.7548304e-05
214	0x389313a2	7.013163e-05
215	0x38638c52	5.42517e-05
216	0x3609af14	2.05165e-06
217	0xb8b23558	-8.4976375e-05
218	0x38c325e2	9.305381e-05
219	0x38b03d89	8.403796e-05
220	0xb8038a53	-3.136166e-05
221	0xb8626e32	-5.3985226e-05
222	0xb8b206e6	-8.488986e-05
223	0xb9312c19	-0.00016896463
224	0xb8a08523	-7.654193e-05
225	0x38b2f3ef	8.5331376e-05
226	0xb5d777c5	-1.6053606e-06
227	0xb8e28c5e	-0.00010802665
228	0xb7e00c9c	-2.6708753e-05
229	0x370b44ea	8.301091e-06
230	0xb65c71e7	-3.2848855e-06
231	0x38202b7a	3.8187463e-05
232	0x36837fea	3.9189954e-06
233	0xb96ff56e	-0.00022884246
234	0xb9b7a253	-0.0003502542
235	0xb827db17	-4.0019946e-05
236	0xb849dbb2	-4.812674e-05
237	0x38d13bc9	9.9770325e-05
238	0xb88c2bf1	-6.683905e-05
239	0x3842c69a	4.6438166e-05
240	0x39725d98	0.00023113785
241	0xb785be2b	-1.594339e-05
242	0xb8d60dcf	-0.00010206887
243	0x37179ba9	9.036544e-06
244	0xb854a3b8	-5.0697214e-05
245	0xb9283a12	-0.00016043361
246	0xb95a904c	-0.00020843855
247	0xb894c557	-7.093947e-05
248	0xb88e1c04	-6.776306e-05
249	0x39156a0a	0.0001424925
250	0x38f00e50	0.00011446758
251	0xb85f4c4f	-5.323841e-05
252	0xb85ff8de	-5.339912e-05
253	0x37aab209	2.0348483e-05
254	0xb8c20687	-9.251857e-05
255	0xb88dce90	-6.761879e-05
