jarvis_voice_cache/b82b947d1a2719ae.npy (npy, 142528 bytes, 1 tensors)

array f4 [35600]
00000000: 68a3 0fbc 84ab adbb 7fb8 90bc c374 273c
00000010: a98d 513c 18e6 0c3b b8cd 363b 9f96 4a3c
00000020: 641f 863b 8f74 5abb 0aa1 96bb 00d9 843b
00000030: 9b47 74bb c7db 12bc 4945 1e3c eb0b 103b
00000040: d225 ecbb 1a8f 90bc a4ce 2abc e982 c1bb
00000050: fada 69bc 1a1e ca39 f139 a63c 198e 083c
00000060: edd8 a83c 9a3a 003c d8d1 e4ba 6372 403b
00000070: 53bc 6cbc b52b 4cbc 6f4e 0238 5ff5 c03b
00000080: 3320 303c 12c8 283c 7db4 323c 12ca fd3b
00000090: be22 84bc c8d1 3ebc 4ed2 24bc 6ade 00bb
000000a0: f47c 753c d29d 263c 6f43 d03b 189b a03a
000000b0: a747 2abc e36c 1cbc 1f4d 223b 2a5c bdbb
000000c0: 2720 40bc 8f3d 97bb 5679 3a3c 5bfa de3b
000000d0: 3f69 d23a b220 033c b581 153a aa60 bd3a
000000e0: e977 6f3c 1647 763c a7d5 053a dca0 87bc
000000f0: ec3b 45bb 6402 e83b 91ba 2cbc 56ad 78bc
00000100: 8b9c 493b 6bb9 92bb 9531 e6bb dbcf f2bb
00000110: ac29 95bb b7a2 d13b c2b6 07bc ca1d 673c
00000120: d475 e33c 7428 613c ff4c 933a 774d 07bb
00000130: b8ed a1bb 7227 93bc 27a1 cdbb d7ce 023c
00000140: e14f d5bc c51f 97bc 5124 2f3c 85a8 933c
00000150: 25e4 8a3c bf7e 2c3c 9a24 92b9 47f7 f73a
00000160: 2195 a0ba 94d9 febb 55d2 e3ba 97f0 dcbb
00000170: 9837 35bb 06c4 81ba f221 ee3a 1b9d aabc
00000180: ce30 0abd c2df 72bc b5a4 843c 061e 233d
00000190: e2dd d43c 003f 1d3c 00f6 203b f523 fd3b
000001a0: 68b4 6d3b a027 85bc 82d4 cdbc 6728 a8bc
000001b0: 5fdf 0d3a 1ed3 2d3c e851 8d3c 04be 86bc
000001c0: 48fd ad3b 3795 9c3c b954 583c 0283 313c
000001d0: 7d60 b1bb 595d 3d3b 402f a3bb ae7b 59bc
000001e0: 71c3 5bba 4db1 6bbc 92c3 b4bc 86d6 54bc
000001f0: 2259 433b fff3 843c dd89 a2bc dfb4 f93a
00000200: 3ac6 0e3d a6a4 0d3c 7984 ecbc 1483 7abc
00000210: 562d 96ba 4cca 953a 3fc3 ee3c 0995 343b
00000220: d2a0 7139 c884 29bc c195 8bbc b294 783c
00000230: 31ff b33c c27c 7c3b 1722 39bb 6c5e 843a
00000240: 21d8 d6bb 0cee 53bc 0ee6 5cbb 11d7 f9bb
00000250: 7b1e 2839 21f5 c03c b873 be3b c313 10bc
00000260: 38fb ad3a bd2f 49ba 12de baba c651 263c
00000270: fbe7 1f3c 425c 11bd 7595 78bc 1126 673c
00000280: 28c8 4a3b f3c1 7d3c eb5c 153b a4a2 fe3b
00000290: 4340 6bbc d02e 08bc fea5 ed3c dbcd de3c
000002a0: 3ea4 31bc 86f4 93bc 111f b1bb 1ec3 16bc
000002b0: 0d07 04bc 1f9f 173c 953e d6bb 6de3 a5bc
000002c0: 7c35 06bb 477e 31bc d981 afbc ddb5 033c
000002d0: bd54 013c 7e04 a739 ce2d ac3c cb64 a93c
000002e0: e45c 793c 2e00 253c 3eb0 ab3b 7a83 f63b
000002f0: a6d2 103b 597a e3bb 1fc4 27bc 5985 33bc
00000300: 2710 a7bc 38b8 e3bb b463 9dbc ad5d 3f3c
00000310: 26ec d03c a31e 81ba f2c3 033c b341 fa3b
00000320: d232 74bc 005a e5ba 17ce 7e3c 54c3 3ebc
00000330: f259 f7ba 243a 0b3c 3eee 923a ca96 7cbc
00000340: bb74 90bc afbe 0fbb b722 5fbc d686 05bc
00000350: 5a07 c03c eef0 a83c f43c 393c 9127 02bb
00000360: c4cc 23bc e43c fc3b 3842 c9ba c346 00bb
00000370: 2474 fabc 3518 b1bc 1536 a1bc 70f1 a83c
00000380: 8b71 a73c 1140 11bc 0a95 103c cb1a b8ba
00000390: 13bb ac3c 3164 bcbc f516 faba 03ed 11bc
000003a0: b8d7 503b f402 af3c c636 b6bb 1b62 16bc
000003b0: ca00 02bc 53f6 1d3b 7798 013c 2445 81bb
000003c0: 0fae 98bc 5785 9839 be6b d23c a326 7fbc
000003d0: dff2 6b3b 522b 783c 4272 3d3c f592 8e3b
000003e0: 00d2 e93c a91b 87bb 2116 9cbc a454 2bbb
000003f0: 5802 09bc 1bcc 403c 0ca1 413c d7f0 0a3c
-0.008766986 -0.0052999873 -0.0176661 0.010220709 0.012790122 0.0021499451 0.0027893614 0.012365012
0.0040930975 -0.0033333634 -0.004596834 0.0040541887 -0.0037274125 -0.008963532 0.009660074 0.002197976
-0.007206657 -0.017646361 -0.0104252435 -0.0059054983 -0.0142733995 0.0003855087 0.0202913 0.00833466
0.02061125 0.007826472 -0.0017457558 0.0029365055 -0.014449197 -0.012461592 3.1067462e-05 0.0058886255
0.010749864 0.010301607 0.01090729 0.007745036 -0.016129848 -0.011646695 -0.010059906 -0.001966382
0.014983404 0.010169463 0.006355695 0.0012253253 -0.01039306 -0.009547445 0.0024765206 -0.005778809
-0.011726416 -0.0046154927 0.011381468 0.006804747 0.0016053094 0.008003401 0.0005703227 0.0014448364
0.014615991 0.015031597 0.0005105384 -0.016556196 -0.003009553 0.007080363 -0.010542528 -0.015178045
0.0030763473 -0.00447767 -0.0070249536 -0.007410032 -0.004552087 0.006397571 -0.008283319 0.014106223
0.027766146 0.013742555 0.0011238157 -0.0020645538 -0.0049416684 -0.017963145 -0.0062753144 0.007983885
-0.026039066 -0.018447766 0.010689811 0.018024692 0.01695449 0.0105282655 -0.0002787456 0.0018918299
-0.0012251475 -0.007777402 -0.0017381409 -0.0067425477 -0.0027651545 -0.0009900338 0.0018168075 -0.020826867
-0.03373795 -0.014823856 0.01619182 0.039823554 0.025984708 0.00959754 0.002456069 0.0077252337
0.003627086 -0.016254246 -0.025125746 -0.020527078 0.0005412008 0.010609416 0.01725097 -0.016448028
0.0053097345 0.01911412 0.013203793 0.010834457 -0.0054131136 0.002889475 -0.004979998 -0.013274116
-0.000838331 -0.0143855335 -0.022065911 -0.0129905995 0.0029807766 0.016229628 -0.019841129 0.0019051096
0.034857012 0.008645212 -0.028871762 -0.0152900405 -0.0011457603 0.0011428087 0.029145835 0.0027554652
0.00023043461 -0.010346599 -0.017039182 0.0151721705 0.02197227 0.003852651 -0.002824908 0.0010098941
-0.0065565263 -0.012935173 -0.003370646 -0.007624515 0.00016033083 0.023554387 0.0058121346 -0.008793774
0.0013273722 -0.0007674655 -0.0014256856 0.010151332 0.009759898 -0.035488375 -0.015172352 0.014108197
0.0030942056 0.015488136 0.002279098 0.007770853 -0.014358583 -0.008311942 0.029009815 0.027197769
-0.010842381 -0.018060934 -0.0054053147 -0.009201793 -0.008058322 0.009254246 -0.006538222 -0.020250047
-0.0020478657 -0.0108333295 -0.02142422 0.008038965 0.007893738 0.0003185607 0.021017935 0.020677945
0.015219901 0.010070844 0.0052395156 0.0075229974 0.0022098213 -0.006942075 -0.01023963 -0.0109570855
-0.020393444 -0.006949451 -0.019212581 0.011680049 0.02550323 -0.0009851049 0.0080423225 0.0076372265
-0.014904695 -0.0017498136 0.015552065 -0.01164325 -0.001887141 0.0084977485 0.0011209918 -0.01541681
-0.017633786 -0.0021933725 -0.0136191165 -0.008149823 0.023441005 0.020622697 0.011306036 -0.001986001
-0.00999755 0.0076976884 -0.0015354818 -0.0019573427 -0.030572958 -0.021617988 -0.019679109 0.020622939
0.020439884 -0.008865372 0.008824596 -0.0014046071 0.021085298 -0.022996994 -0.0019080328 -0.008906606
0.003186686 0.021363713 -0.0055607287 -0.009178664 -0.007934758 0.002410312 0.007909886 -0.00394501
-0.018637685 0.00029091045 0.025686141 -0.015573177 0.0036002917 0.015147047 0.011562886 0.0043510147
0.028542519 -0.0041231704 -0.01905352 -0.002614298 -0.008362375 0.011767413 0.011818182 0.008480272
