jarvis_voice_cache/b892d91053459d3d.npy (npy, 133312 bytes, 1 tensors)

array f4 [33296]
0	0x39de7357	0.00042429075
1	0x39b3985b	0.00034255054
2	0xb7c2312a	-2.3149496e-05
3	0x390b7990	0.00013301359
4	0xb6add3b4	-5.1804473e-06
5	0x356f7126	8.919909e-07
6	0x372b2874	1.0201813e-05
7	0x36f0f4e6	7.1810673e-06
8	0xb6a4788b	-4.901614e-06
9	0x378e49c4	1.6962069e-05
10	0x364695bb	2.9591454e-06
11	0xb7e0a6b9	-2.6780517e-05
12	0xb815412a	-3.5585057e-05
13	0x376da670	1.4165053e-05
14	0x36b1aab8	5.2948853e-06
15	0xb6582377	-3.2207151e-06
16	0xb6b182cf	-5.290239e-06
17	0x377aedad	1.4956499e-05
18	0xb592658c	-1.0907402e-06
19	0xb7c014f3	-2.2897939e-05
20	0xb4895fe8	-2.558802e-07
21	0x3676838d	3.673343e-06
22	0xb61ce768	-2.3380508e-06
23	0xb71e7361	-9.444398e-06
24	0xb70dbf40	-8.448784e-06
25	0xb46a73f0	-2.1835126e-07
26	0x35fa92c1	1.8669163e-06
27	0xb544462c	-7.3117803e-07
28	0xb74ed7d5	-1.2328809e-05
29	0xb6b79443	-5.471085e-06
30	0xb60bd2c4	-2.0835296e-06
31	0x3610621f	2.1514786e-06
32	0xb760e3c2	-1.3404469e-05
33	0x371519e0	8.887117e-06
34	0xb6b2c560	-5.327791e-06
35	0xb74935e7	-1.1993084e-05
36	0x36ed2777	7.0677447e-06
37	0x35212ff4	6.0046955e-07
38	0xb7400cab	-1.1447041e-05
39	0xb65f089f	-3.3234608e-06
40	0x366971e5	3.4786e-06
41	0x362fff87	2.6225769e-06
42	0xb7a70592	-1.9910545e-05
43	0xb7be32dc	-2.2673448e-05
44	0xb797746c	-1.8054816e-05
45	0xb816f39a	-3.598966e-05
46	0xb83cd31d	-4.5019307e-05
47	0xb85f018f	-5.3168795e-05
48	0xb85fccdd	-5.3358137e-05
49	0xb88a4aa9	-6.594259e-05
50	0xb8c29c46	-9.279749e-05
51	0xb8289e21	-4.020159e-05
52	0xb7eaf1e0	-2.8007606e-05
53	0xb83d74e8	-4.516999e-05
54	0xb899d05c	-7.3344185e-05
55	0xb8918ffe	-6.9409594e-05
56	0xb8849327	-6.32166e-05
57	0xb881b26f	-6.184435e-05
58	0xb928a4f1	-0.00016083174
59	0xb98094c5	-0.00024524904
60	0xb983c353	-0.00025131795
61	0xb96f70da	-0.00022834857
62	0xb9859b85	-0.00025483608
63	0xb952f0e2	-0.00020116896
64	0xb8ad8f23	-8.275944e-05
65	0xb87b2a28	-5.9882324e-05
66	0xb8ee50ea	-0.00011363796
67	0xb8f2cc62	-0.000115775285
68	0xb8a32fb5	-7.781332e-05
69	0xb8a456a7	-7.83627e-05
70	0xb92d077f	-0.00016501358
71	0xb8eb9438	-0.00011233281
72	0xb88ef21b	-6.816183e-05
73	0xb8b52484	-8.637554e-05
74	0xb8f4fea1	-0.00011682255
75	0xb82a47a6	-4.0597886e-05
76	0xb661abc1	-3.3627587e-06
77	0x3765e332	1.3702362e-05
78	0x376e2584	1.419464e-05
79	0x380c6eee	3.3481912e-05
80	0xb72d2e8d	-1.0322442e-05
81	0xb807a733	-3.2342225e-05
82	0x37f1e3fe	2.8835606e-05
83	0x38832a52	6.2544495e-05
84	0x388e2a76	6.7789966e-05
85	0x38f005f1	0.000114451985
86	0x38cf78e9	9.8930504e-05
87	0x36a06241	4.77981e-06
88	0xb8a4d2c4	-7.8593876e-05
89	0xb842ad52	-4.641462e-05
90	0xb738d6d7	-1.1017276e-05
91	0x385f5541	5.3246742e-05
92	0x3800b6e6	3.0687916e-05
93	0x383975d8	4.4217188e-05
94	0x389b9875	7.419373e-05
95	0x38e95da8	0.000111277506
96	0x38a03774	7.6397235e-05
97	0x380e8148	3.397584e-05
98	0x38cdfe60	9.822543e-05
99	0x3893326c	7.018898e-05
100	0x3817e3e7	3.6213456e-05
101	0x3822b98b	3.879661e-05
102	0x378f1f1b	1.7061413e-05
103	0x380f7ab0	3.420812e-05
104	0x382a718c	4.0636907e-05
105	0x37d574f4	2.544604e-05
106	0x3783db84	1.5718637e-05
107	0x388c1553	6.679692e-05
108	0x3807701f	3.229093e-05
109	0x38534e8b	5.037947e-05
110	0x37dd4f36	2.6382138e-05
111	0x388d567f	6.739515e-05
112	0x390f2126	0.00013649891
113	0x388035d2	6.1135404e-05
114	0x3856385b	5.107406e-05
115	0x389cd2eb	7.477946e-05
116	0x383957c2	4.4189168e-05
117	0x3850ee83	4.9813196e-05
118	0x389abf85	7.3789655e-05
119	0xb80286ce	-3.1119962e-05
120	0x3710965f	8.61808e-06
121	0x3893e085	7.051326e-05
122	0x36605f85	3.34342e-06
123	0xb872d02e	-5.789118e-05
124	0x3896c2d6	7.1888484e-05
125	0x386a8128	5.5910234e-05
126	0x34b53914	3.3755407e-07
127	0xb7f27afd	-2.8905919e-05
128	0x38881ba0	6.490131e-05
129	0xb44047ee	-1.7907561e-07
130	0x383a3bb9	4.4401477e-05
131	0x3822b3ff	3.8791444e-05
132	0x38879956	6.465863e-05
133	0x38676b51	5.5174638e-05
134	0x371121b0	8.650517e-06
135	0x3955f121	0.0002040309
136	0x392dfbcb	0.00016592366
137	0x359606b6	1.1177824e-06
138	0x38ab6854	8.173348e-05
139	0x38c3e84f	9.3415954e-05
140	0x3915969e	0.00014265857
141	0x382a08c0	4.0539308e-05
142	0x38710d20	5.74711e-05
143	0x390468ff	0.00012627615
144	0x38a02833	7.636882e-05
145	0x39485a23	0.00019107065
146	0x391ea2de	0.00015128727
147	0x38b29d6d	8.517024e-05
148	0x3891b118	6.947125e-05
149	0x37502c86	1.24081325e-05
150	0x3701292e	7.698587e-06
151	0xb8d4aefd	-0.00010141542
152	0xb844c862	-4.6916663e-05
153	0x391640c9	0.00014329249
154	0x382f54ba	4.180216e-05
155	0x3892a370	6.992265e-05
156	0x38cfd406	9.9100216e-05
157	0x3860931b	5.3542764e-05
158	0x39128937	0.00013974762
159	0x38eb72b3	0.000112270376
160	0x38d5c277	0.000101928534
161	0xb7a7ade7	-1.9988931e-05
162	0xb893706f	-7.0304486e-05
163	0x3900759b	0.00012250843
164	0x389d4a39	7.5001684e-05
165	0xb8da8239	-0.00010419306
166	0xb7686b09	-1.3853199e-05
167	0xb7f0cdbf	-2.8706037e-05
168	0xb91babc3	-0.00014845938
169	0x371f16fe	9.482492e-06
170	0x3826e415	3.9789902e-05
171	0xb56df0ee	-8.863998e-07
172	0x3916e69a	0.0001439102
173	0x38ae5bf7	8.314096e-05
174	0x38449c4f	4.6875615e-05
175	0x390a60b7	0.00013196735
176	0xb865b81b	-5.4769316e-05
177	0xb74423d3	-1.1690851e-05
178	0xb8e0aea0	-0.00010713679
179	0x37b4b81d	2.1543407e-05
180	0x390756b2	0.000129069
181	0x386a3178	5.583602e-05
182	0x38b38bf9	8.561457e-05
183	0x3970dac1	0.00022969676
184	0xb816354c	-3.5812423e-05
185	0xb85975d9	-5.1846586e-05
186	0x37ed9655	2.8322605e-05
187	0x39066407	0.00012816499
188	0xb9009bd8	-0.00012265088
189	0x386b5ac4	5.6112898e-05
190	0x39535701	0.0002015494
191	0xb7820d81	-1.5503496e-05
192	0x39974eee	0.00028859772
193	0x39d748ee	0.00041062332
194	0x39b5c8d0	0.00034672627
195	0xb95a821d	-0.00020838571
196	0xb99864ff	-0.00029066947
197	0xb99ab669	-0.00029509075
198	0xb95bbedb	-0.00020956567
199	0x386d94af	5.6643676e-05
200	0x37ffc7c9	3.0491401e-05
201	0xb904da6d	-0.00012669871
202	0xb8a59652	-7.8958125e-05
203	0x393bdd9c	0.00017916266
204	0x392c7573	0.00016446951
205	0x391f47c3	0.00015190155
206	0x3955cbbc	0.0002038916
207	0xb926553a	-0.00015862743
208	0xb99ee26a	-0.000303048
209	0xb9b77e59	-0.00034998616
210	0xb8c1f579	-9.24868e-05
211	0xb81927f5	-3.6515255e-05
212	0x38cdc5e0	9.812019e-05
213	0x394d3990	0.00019571767
214	0x3948a22e	0.00019133903
215	0x381f5306	3.7985876e-05
216	0xb9020c0e	-0.00012402257
217	0xb9a658ec	-0.0003172824
218	0xb9a0208e	-0.00030541833
219	0xb9abb93d	-0.00032753675
220	0x3948abd5	0.00019137499
221	0x3a8ac6b1	0.0010587779
222	0x3a3bd42b	0.00071650994
223	0xb9abe0c9	-0.0003278314
224	0xba526f77	-0.0008027474
225	0xba50b939	-0.00079621706
226	0xba329aad	-0.00068132096
227	0xb98236ff	-0.00024836508
228	0xba0f875d	-0.0005475188
229	0xba0b80e3	-0.0005321635
230	0xb9f21cd8	-0.00046179327
231	0x3995631a	0.0002849333
232	0x3a083313	0.0005195599
233	0xb82302ac	-3.8864717e-05
234	0xba1de565	-0.0006023257
235	0xba2ac691	-0.0006514574
236	0xb9a3febd	-0.00031279578
237	0xb9f3bf6d	-0.00046491195
238	0xb9cf21e4	-0.00039507367
239	0xb8f4c1bb	-0.00011670912
240	0x39428dd0	0.00018554111
241	0xba26eaa3	-0.0006367361
242	0xbaeaab86	-0.0017903901
243	0xbab090b2	-0.0013470857
244	0xba367827	-0.0006960653
245	0xb8942893	-7.0647475e-05
246	0x38d4f6d3	0.00010154922
247	0xb9eb5235	-0.00044883942
248	0x3a2f440d	0.00066858606
249	0x3ac0a7c0	0.0014698431
250	0x3b0ed29e	0.0021793018
251	0xba307d03	-0.00067324954
252	0x3b1f5246	0.0024310513
253	0x3b640f4b	0.0034799154
254	0xbba2a5d0	-0.004963614
255	0xbbd9ba9c	-0.00664456
