jarvis_voice_cache/b8eb1aaea5d5f010.npy (npy, 177344 bytes, 1 tensors)

array f4 [44304]
00000000: 3e0b e9ba 79ce ddba a2ff f0ba 532f f1ba
00000010: 39f9 18bb 62c7 13bb 92b5 24bb 7f72 2fbb
00000020: bc00 4bbb bf29 57bb afdd 57bb d17b 56bb
00000030: 8738 45bb 4a9e 35bb 04b7 31bb c8f8 26bb
00000040: 7c1b 24bb 724b 21bb 3e3e 24bb 9dd5 21bb
00000050: a53e 1ebb 3e86 14bb e61f 08bb a7d0 03bb
00000060: 9c92 00bb 38e9 f7ba 0293 ebba 394e efba
00000070: 528d fdba 60d9 03bb c7b7 02bb fd5c 07bb
00000080: 045d 08bb ef53 0cbb 2499 0fbb 335e 11bb
00000090: 0181 11bb fa0d 18bb d16c 17bb 9407 0dbb
000000a0: 0bc1 08bb 3b9e 07bb 27e6 07bb 5bff f6ba
000000b0: 26de f0ba 41a5 e0ba 6590 d9ba 60ba c3ba
000000c0: 5bbe c4ba f3f5 c0ba c6db acba 3f1f a9ba
000000d0: 762a 9bba 5249 7fba 39e0 60ba 6559 4eba
000000e0: 8f6d 2eba 563f ffb9 9960 bdb9 aeef d2b9
000000f0: 266b 9ab9 3a79 83b9 2f90 d2b8 c2b8 0eb8
00000100: f028 23b8 cc2a 3e39 fb16 1039 1ba1 0339
00000110: 5ac1 9c39 ea89 a339 cb08 b339 1d69 f939
00000120: af00 033a 4c42 1c3a a136 253a fa83 423a
00000130: 7bc3 6a3a b027 6c3a 56ee 843a 6361 803a
00000140: 5ca3 8c3a 7b39 973a ad98 9b3a 8c87 983a
00000150: e246 a53a 4486 ac3a 8af2 b73a a8f4 d53a
00000160: 80b8 d03a 5620 d13a 72ee e43a 6315 de3a
00000170: fa32 e93a 313a ef3a 1a09 f33a d713 f03a
00000180: 56f9 f13a 176f f23a 22aa 003b 4342 003b
00000190: e841 003b 6333 fe3a 7716 023b e27d 053b
000001a0: 129e 023b 6fcf ff3a bd55 f43a 793f f93a
000001b0: 2771 f63a 01ff f63a e437 fc3a a680 f93a
000001c0: d723 f43a 3794 f63a f469 f93a 0964 e13a
000001d0: 45cf db3a f14b dc3a 8a9b ca3a ec35 c73a
000001e0: 2190 c63a 7ea6 b73a ba48 a63a 6806 ab3a
000001f0: 0d03 9e3a 0bd4 873a 661e 813a 2f9a 6f3a
00000200: b49c 5a3a 092b 453a b1f0 1d3a 854a 213a
00000210: 76d0 073a 15a3 be39 3f1f 6339 df56 9637
00000220: f123 e9b8 c0f5 4fb9 c2a7 b3b9 5d50 d8b9
00000230: d6a6 09ba 440e 3cba 614d 61ba 024e 75ba
00000240: b484 93ba f294 9cba 6d09 bcba 2bc1 d5ba
00000250: d48b eeba f35e ecba 0fc9 01bb 1534 1cbb
00000260: ba93 2abb 5db5 2dbb 82a4 3fbb bfdf 51bb
00000270: 7f4c 5cbb c8a2 68bb 731a 73bb 87ee 76bb
00000280: e31b 80bb 0bed 84bb c250 86bb e072 8cbb
00000290: 3b92 8fbb 3055 97bb 6351 9bbb 2568 9fbb
000002a0: 7fb8 9fbb 551a a6bb 2610 abbb 9fed a8bb
000002b0: 57ef a9bb 901d acbb 25ef aabb 0176 abbb
000002c0: caa0 adbb a307 adbb 2d68 adbb df4f aabb
000002d0: 968e abbb 8f0a a5bb 77aa a3bb d01d a3bb
000002e0: 3bb7 9dbb 1219 92bb 2ecb 90bb 2756 8cbb
000002f0: 5f05 80bb 9ee1 7bbb ac86 79bb 6341 59bb
00000300: d5ae 47bb 8b04 3fbb 5b36 29bb 678d 0dbb
00000310: 3b23 ddba a53d 9eba 0c16 54ba 9cc5 1aba
00000320: 22fb 17b9 6591 d739 4e22 6b3a 4a7f ac3a
00000330: 46d9 f03a ecae 253b 0490 503b 78e8 793b
00000340: 08a7 913b 3065 ab3b 1238 be3b 3e2b d73b
00000350: f681 ef3b ffcc 033c d702 103c 1b5f 1d3c
00000360: 3f83 2b3c 7a58 363c 8696 443c 1cdf 513c
00000370: 6364 5e3c e3a7 693c a377 733c 738b 7d3c
00000380: b260 843c 607e 8a3c 9aff 8e3c 74fa 943c
00000390: 44e1 983c cebc 9c3c 543d 9f3c 5463 a23c
000003a0: 5f2a a43c 5fa4 a53c 07c3 a73c 086f a93c
000003b0: 32a8 a93c 82c8 aa3c b99d a93c e87c a83c
000003c0: ba57 a73c d938 a53c 0131 a23c eb26 9f3c
000003d0: b4c2 9b3c 95bc 973c 2a9b 923c d7cb 8d3c
000003e0: 3a4d 873c c2bc 803c c99c 753c 7fd2 663c
000003f0: 1dea 553c b08c 463c 8029 383c 5a80 233c
-0.001777984 -0.0016922496 -0.0018386731 -0.0018400945 -0.0023341908 -0.0022549261 -0.0025132638 -0.0026771126
-0.003097578 -0.003283128 -0.003293853 -0.003272761 -0.0030093507 -0.0027712756 -0.0027117142 -0.0025477875
-0.0025040796 -0.002461162 -0.0025061513 -0.0024693974 -0.0024146226 -0.0022663022 -0.0020770966 -0.002011338
-0.0019618636 -0.0018914109 -0.0017972889 -0.0018257565 -0.0019344485 -0.002011858 -0.0019945966 -0.002065479
-0.0020807395 -0.0021412333 -0.0021911347 -0.0022181391 -0.0022202136 -0.002320169 -0.002310563 -0.002151941
-0.0020867016 -0.0020693678 -0.0020736547 -0.0018844412 -0.0018376752 -0.0017139093 -0.0016598819 -0.0014932863
-0.0015010344 -0.0014721736 -0.0013188056 -0.0012902989 -0.0011838216 -0.00097384036 -0.00085783337 -0.0007871597
-0.0006653899 -0.0004868458 -0.0003612086 -0.00040232897 -0.00029453 -0.00025076588 -0.000100404366 -3.4027507e-05
-3.8900354e-05 0.00018135755 0.00013741471 0.0001255315 0.00029898697 0.00031192537 0.00034148092 0.00047571296
0.0004997355 0.0005960807 0.0006302391 0.0007420179 0.00089555205 0.00090085994 0.001014183 0.0009794649
0.0010729837 0.0011537516 0.0011871062 0.0011637076 0.0012609626 0.0013162573 0.0014034074 0.0016323524
0.0015924126 0.0015955071 0.0017466082 0.001694363 0.0017791681 0.0018251595 0.0018542141 0.001831646
0.0018461149 0.0018496242 0.0019632657 0.0019570745 0.0019570533 0.0019393977 0.0019849816 0.0020369221
0.0019930643 0.0019516776 0.0018641275 0.0019016109 0.0018802033 0.0018844308 0.0019242731 0.0019035533
0.0018626404 0.0018812482 0.0019028769 0.001719595 0.0016770145 0.00168073 0.0015457731 0.0015198565
0.0015149155 0.001401141 0.0012686469 0.0013048174 0.0012055353 0.0010362876 0.0009850978 0.00091401016
0.00083393906 0.00075213664 0.00060249405 0.0006152767 0.00051809044 0.0003636113 0.00021660047 1.7921846e-05
-0.000111170004 -0.00019832607 -0.0003426653 -0.00041258606 -0.0005250996 -0.00071737566 -0.0008594599 -0.00093576324
-0.0011254759 -0.0011946245 -0.0014346071 -0.0016308179 -0.0018199631 -0.0018033668 -0.0019803678 -0.0023834754
-0.0026027993 -0.0026505806 -0.0029242341 -0.0032024232 -0.003361493 -0.0035497416 -0.0037094622 -0.0037678794
-0.0039095744 -0.004056578 -0.0040989826 -0.004286155 -0.0043814457 -0.0046183094 -0.0047399267 -0.00486471
-0.0048742886 -0.005069057 -0.005220431 -0.0051552798 -0.0051860022 -0.0052525476 -0.0052164965 -0.005232573
-0.0052987086 -0.0052804514 -0.0052919597 -0.0051975097 -0.0052355034 -0.005036659 -0.004994686 -0.004977919
-0.0048131025 -0.004458555 -0.004418752 -0.004282731 -0.0039068903 -0.003843404 -0.0038074655 -0.0033150546
-0.0030469198 -0.0029146995 -0.0025819752 -0.0021599175 -0.0016871461 -0.0012072815 -0.00080904434 -0.000590408
-0.00014494036 0.00041116323 0.00089696504 0.0013160494 0.0018375299 0.0025281264 0.0031824121 0.0038132947
0.0044449605 0.0052305683 0.005805024 0.006566434 0.0073091937 0.00804448 0.00878974 0.009605194
0.010468303 0.011129493 0.011998778 0.012809541 0.013573739 0.014261219 0.014860067 0.015475142
0.01615939 0.016905963 0.017455865 0.018185832 0.018662103 0.019132998 0.019438423 0.019822754
0.020039735 0.02021998 0.020478738 0.020682827 0.020710085 0.020847563 0.02070509 0.020567372
0.020427573 0.020168709 0.019798758 0.019427737 0.01901374 0.01852254 0.017896254 0.017309112
0.016516317 0.015715007 0.014990994 0.014088272 0.013056305 0.012118503 0.011240363 0.009979332
