jarvis_voice_cache/b9517bbe5cd78334.npy (npy, 427200 bytes, 1 tensors)

array f4 [106768]
0.0010737054 -0.017422553 -0.041162085 -0.039604183 -0.029712494 -0.019122845 -0.0013403569 0.01830319
0.019453421 0.022222916 0.020770703 0.015068204 0.00335636 -0.009710806 -0.021093288 -0.015975844
-0.014562767 -0.0055884565 0.008422575 0.0022275865 -0.005429361 -0.0029319667 -0.009009407 -0.012924509
-0.0037243126 -0.002053981 0.0046689636 0.010554709 0.010018874 0.0053297672 0.014256268 0.008331275
0.004601527 0.0061712177 0.0047752 0.009186872 0.013791786 0.02430597 0.028847033 0.018846886
0.002219235 -0.011287166 -0.022928873 -0.027823469 -0.019335035 -0.0152700115 -0.0032033876 0.015459932
0.020522559 0.024812497 0.03005356 0.03268938 0.022393366 -0.0017294106 -0.022190712 -0.041829277
-0.04521796 -0.037172474 -0.022078566 -0.009350349 -0.005026229 -0.0003614113 0.0071805622 0.014911695
0.022314562 0.018997239 0.013411171 0.0085112415 -8.379773e-05 -0.0011803964 -0.0032249368 -0.009491161
-0.00971892 -0.015286289 -0.01655808 -0.009846742 -0.0016700783 0.011520022 0.026463354 0.041132886
0.032836255 0.015224539 0.00035624567 -0.005747958 -0.0075161126 -0.016448867 -0.027270354 -0.044441756
-0.05530809 -0.045973442 -0.020594815 0.012477202 0.03573436 0.04721064 0.03309436 0.011873674
0.0057822247 -0.0015898275 -0.009161367 -0.027725099 -0.04858928 -0.045593318 -0.02188196 0.012785001
0.04185198 0.054142833 0.050784953 0.038705684 0.017161373 0.00719255 0.009741391 0.016503092
0.0106818825 -0.008055427 -0.015586018 -0.02232236 -0.026313458 -0.02116784 -0.004906021 0.008101214
0.0022635492 -0.0059147687 -0.00917774 -0.0054786075 -0.0025753991 -0.007824341 -0.016635768 -0.027573938
-0.030213712 -0.015886337 0.016643725 0.046570256 0.060326844 0.05250957 0.027679548 0.006977467
-0.009329514 -0.01477806 -0.004787968 -0.0071171555 -0.014948672 -0.009259922 0.002100461 0.019595012
0.013080641 0.0008756728 -0.0070605003 -0.025791008 -0.03827941 -0.029004196 -0.00843669 0.008458603
0.009545096 0.0069095637 -0.0075126933 -0.020265477 -0.03082379 -0.036130715 -0.01711351 -0.012650493
0.0014696105 0.02442958 0.0449758 0.053726424 0.04894335 0.04751588 0.021637924 -0.012889103
-0.041276753 -0.058176626 -0.04216794 -0.009440551 0.014987281 0.022206966 0.02862805 0.0449425
0.039430775 0.02091521 -0.0033520826 -0.031121083 -0.06515258 -0.07218591 -0.05610404 -0.04549167
-0.022768361 0.0009411604 0.010743042 0.004047258 0.015270805 0.03702818 0.060686324 0.05911434
0.06037435 0.06334488 0.04404565 0.028880259 0.006729537 -0.015162702 -0.0272129 -0.03745701
-0.044787243 -0.03986258 -0.011845923 0.02404887 0.04715653 0.04987591 0.02950791 -0.0067206416
-0.051647484 -0.07871034 -0.09428664 -0.10333634 -0.087587774 -0.0507031 -0.014618162 0.033196833
0.081420325 0.10252532 0.08831299 0.05600525 0.03406842 0.021156896 -0.0077346996 -0.01828875
-0.0135628125 -0.01916247 -0.023170888 -0.011009665 0.0044918554 -0.0010813423 0.0051980233 0.029757677
0.051390316 0.048978303 0.045777224 0.026844252 -0.0009424804 -0.04117309 -0.07284692 -0.086126134
-0.08908175 -0.084895834 -0.06274778 -0.014320569 0.03157909 0.0853486 0.09624123 0.06020282
0.03089556 -0.0038738488 -0.031234272 -0.051949937 -0.0594588 -0.07241907 -0.062072948 -0.027173115
00000000: 93bb 8c3a beb9 8ebc 9399 28bd ff37 22bd
00000010: 9e67 f3bc 83a7 9cbc eaae afba 92f0 953c
00000020: c85c 9f3c d50c b63c 5227 aa3c a1e0 763c
00000030: 60f6 5b3b 131a 1fbc d5cb acbc c6df 82bc
00000040: ac98 6ebc 5f1f b7bb d7fe 093c b3fc 113b
00000050: c8e8 b1bb 3d26 40bb 319c 13bc 52c1 53bc
00000060: 9913 74bb 159c 06bb 1bfe 983b a8ed 2c3c
00000070: 3426 243c 54a5 ae3b 1f93 693c e67f 083c
00000080: 68c8 963b ed37 ca3b 4879 9c3b 8984 163c
00000090: f1f6 613c 501d c73c 9d50 ec3c c964 9a3c
000000a0: 9670 113b ceed 38bc 55d5 bbbc 0bee e3bc
000000b0: 8264 9ebc 122f 7abc edef 51bb a84b 7d3c
000000c0: ed1e a83c 9443 cb3c e232 f63c 4de5 053d
000000d0: 4b72 b73c 64ad e2ba 4cc9 b5bc 2d55 2bbd
000000e0: 7836 39bd 2a42 18bd 1cde b4bc 3532 19bc
000000f0: 11b3 a4bb ce7b bdb9 ec4a eb3b 2f50 743c
00000100: 07cd b63c 19a0 9b3c 87ba 5b3c bc72 0b3c
00000110: 90bc afb8 88b7 9aba 7659 53bb d180 1bbc
00000120: 1b3c 1fbc 5873 7abc d0a4 87bc 3b54 21bc
00000130: 87e6 daba 79be 3c3c adc9 d83c f57a 283d
00000140: 4f7f 063d 5870 793c 7cc6 ba39 5e59 bcbb
00000150: b949 f6bb c6bf 86bc 1466 dfbc 8f08 36bd
00000160: bc8a 62bd a64e 3cbd 75b6 a8bc 2e6d 4c3c
00000170: 315e 123d f25f 413d f48d 073d cc89 423c
00000180: d178 bd3b c261 d0ba 8f19 16bc bf1f e3bc
00000190: 8e05 47bd 0fc0 3abd cc41 b3bc 2e78 513c
000001a0: fb6c 2b3d e0c4 5d3d e203 503d da89 1e3d
000001b0: 0296 8c3c 7caf eb3b 5b9a 1f3c 7e31 873c
000001c0: 1003 2f3c e9fa 03bc 7f5c 7fbc 62dd b6bc
000001d0: 528f d7bc 2e68 adbc b0c2 a0bb f4ba 043c
000001e0: 0e58 143b add0 c1bb 3b5e 16bc e485 b3bb
000001f0: 07c8 28bb aa31 00bc bc47 88bc bde2 e1bc
00000200: bf82 f7bc 1024 82bc 6c58 883c 74c0 3e3d
00000210: 4819 773d 4614 573d 38c0 e23c 3ca3 e43b
00000220: d1da 18bc ad1f 72bc 63e4 9cbb 0737 e9bb
00000230: 46eb 74bc eeb6 17bc e3a7 093b b885 a03c
00000240: 2f50 563c 688d 653a c55b e7bb aa47 d3bc
00000250: dfca 1cbd 359a edbc 0b3a 0abc f495 0a3c
00000260: 0963 1c3c 9f69 e23b 0a2d f6bb c903 a6bc
00000270: 2c82 fcbc cdfd 13bd a231 8cbc 0344 4fbc
00000280: f29f c03a 8b20 c83c 8b38 383d 3d10 5c3d
00000290: d278 483d 03a0 423d 0442 b13c d12c 53bc
000002a0: d011 29bd 9d4a 6ebd 4ab8 2cbd 8aac 1abc
000002b0: 368d 753c 62eb b53c 5f85 ea3c a015 383d
000002c0: 2a82 213d 6056 ab3c 9dae 5bbb a4f1 febc
000002d0: b76e 85bd 35d6 93bd 5acd 65bd 7955 3abd
000002e0: b784 babc 35b8 763a 9603 303c dc9e 843b
000002f0: 6632 7a3c dcaa 173d 3992 783d e121 723d
00000300: 184b 773d f6ba 813d 3669 343d 4b96 ec3c
00000310: 7383 dc3b fb6c 78bc 96ed debc 866c 19bd
00000320: d472 37bd f246 23bd 6715 42bc 2302 c53c
00000330: 3527 413d af4a 4c3d 93ba f13c d438 dcbb
00000340: 508c 53bd e332 a1bd 5b19 c1bd 01a2 d3bd
00000350: 3861 b3bd 0eae 4fbd 0481 6fbc 67f9 073d
00000360: b3bf a63d ccf8 d13d 71dd b43d c365 653d
00000370: 548b 0b3d 3a51 ad3c 5d73 fdbb 4ad2 95bc
00000380: 8f36 5ebc 9dfa 9cbc e0d0 bdbc e261 34bc
00000390: 6a30 933b d4bb 8dba 2e54 aa3b 5fc6 f33c
000003a0: a77e 523d 799d 483d e680 3b3d 7ae8 db3c
000003b0: ca10 77ba 1da5 28bd c430 95bd e662 b0bd
000003c0: 7e70 b6bd dedd adbd e881 80bd d2a0 6abc
000003d0: 1359 013d 3fcb ae3d 1f1a c53d 3b97 763d
000003e0: af18 fd3c 66e0 7dbb 04df ffbc 75c9 54bd
000003f0: 128b 73bd 7350 94bd 3440 7ebd 279a debc
